{"format": "graph-model", "generatedBy": "2.6.2", "convertedBy": "TensorFlow.js Converter v3.18.0", "signature": {"inputs": {"image": {"name": "image:0", "dtype": "DT_FLOAT", "tensorShape": {"dim": [{"size": "-1"}, {"size": "432"}, {"size": "48"}, {"size": "3"}]}}}, "outputs": {"rnn_output": {"name": "Identity:0", "dtype": "DT_FLOAT", "tensorShape": {"dim": [{"size": "-1"}, {"size": "25"}, {"size": "7482"}]}}}}, "modelTopology": {"node": [{"name": "StatefulPartitionedCall/CRNN/rnn_output/Tensordot/Const", "op": "Const", "attr": {"dtype": {"type": "DT_INT32"}, "value": {"tensor": {"dtype": "DT_INT32", "tensorShape": {"dim": [{"size": "1"}]}}}}}, {"name": "StatefulPartitionedCall/CRNN/rnn_output/Tensordot/axes", "op": "Const", "attr": {"value": {"tensor": {"dtype": "DT_INT32", "tensorShape": {"dim": [{"size": "1"}]}}}, "dtype": {"type": "DT_INT32"}}}, {"name": "StatefulPartitionedCall/CRNN/rnn_output/Tensordot/GatherV2_1/axis", "op": "Const", "attr": {"value": {"tensor": {"dtype": "DT_INT32", "tensorShape": {}}}, "dtype": {"type": "DT_INT32"}}}, {"name": "StatefulPartitionedCall/CRNN/rnn_output/Tensordot/Const_1", "op": "Const", "attr": {"value": {"tensor": {"dtype": "DT_INT32", "tensorShape": {"dim": [{"size": "1"}]}}}, "dtype": {"type": "DT_INT32"}}}, {"name": "StatefulPartitionedCall/CRNN/rnn_output/Tensordot/ReadVariableOp", "op": "Const", "attr": {"dtype": {"type": "DT_FLOAT"}, "value": {"tensor": {"dtype": "DT_FLOAT", "tensorShape": {"dim": [{"size": "512"}, {"size": "7482"}]}}}}}, {"name": "StatefulPartitionedCall/CRNN/bigru2/forward_gru_3/PartitionedCall/TensorArrayV2_1/element_shape", "op": "Const", "attr": {"value": {"tensor": {"dtype": "DT_INT32", "tensorShape": {"dim": [{"size": "2"}]}}}, "dtype": {"type": "DT_INT32"}}}, {"name": "StatefulPartitionedCall/CRNN/bigru2/forward_gru_3/PartitionedCall/TensorArrayUnstack/TensorListFromTensor/element_shape", "op": "Const", "attr": {"dtype": {"type": "DT_INT32"}, "value": {"tensor": {"dtype": "DT_INT32", "tensorShape": {"dim": [{"size": "2"}]}}}}}, {"name": "StatefulPartitionedCall/CRNN/bigru2/forward_gru_3/Read/ReadVariableOp", "op": "Const", "attr": {"dtype": {"type": "DT_FLOAT"}, "value": {"tensor": {"dtype": "DT_FLOAT", "tensorShape": {"dim": [{"size": "512"}, {"size": "768"}]}}}}}, {"name": "ConstantFolding/StatefulPartitionedCall/CRNN/bigru2/forward_gru_3/PartitionedCall/unstack-folded-0", "op": "Const", "attr": {"dtype": {"type": "DT_FLOAT"}, "value": {"tensor": {"dtype": "DT_FLOAT", "tensorShape": {"dim": [{"size": "768"}]}}}}}, {"name": "StatefulPartitionedCall/CRNN/bigru2/forward_gru_3/strided_slice/stack", "op": "Const", "attr": {"dtype": {"type": "DT_INT32"}, "value": {"tensor": {"dtype": "DT_INT32", "tensorShape": {"dim": [{"size": "1"}]}}}}}, {"name": "StatefulPartitionedCall/CRNN/bigru2/forward_gru_3/strided_slice/stack_1", "op": "Const", "attr": {"value": {"tensor": {"dtype": "DT_INT32", "tensorShape": {"dim": [{"size": "1"}]}}}, "dtype": {"type": "DT_INT32"}}}, {"name": "StatefulPartitionedCall/CRNN/bigru2/forward_gru_3/strided_slice/stack_2", "op": "Const", "attr": {"dtype": {"type": "DT_INT32"}, "value": {"tensor": {"dtype": "DT_INT32", "tensorShape": {"dim": [{"size": "1"}]}}}}}, {"name": "StatefulPartitionedCall/CRNN/bigru2/forward_gru_3/zeros/packed/1", "op": "Const", "attr": {"value": {"tensor": {"dtype": "DT_INT32", "tensorShape": {}}}, "dtype": {"type": "DT_INT32"}}}, {"name": "StatefulPartitionedCall/CRNN/bigru2/forward_gru_3/zeros/Const", "op": "Const", "attr": {"dtype": {"type": "DT_FLOAT"}, "value": {"tensor": {"dtype": "DT_FLOAT", "tensorShape": {}}}}}, {"name": "StatefulPartitionedCall/CRNN/bigru2/forward_gru_3/Read_1/ReadVariableOp", "op": "Const", "attr": {"value": {"tensor": {"dtype": "DT_FLOAT", "tensorShape": {"dim": [{"size": "256"}, {"size": "768"}]}}}, "dtype": {"type": "DT_FLOAT"}}}, {"name": "ConstantFolding/StatefulPartitionedCall/CRNN/bigru2/forward_gru_3/PartitionedCall/unstack-folded-1", "op": "Const", "attr": {"dtype": {"type": "DT_FLOAT"}, "value": {"tensor": {"dtype": "DT_FLOAT", "tensorShape": {"dim": [{"size": "768"}]}}}}}, {"name": "StatefulPartitionedCall/CRNN/bigru2/forward_gru_3/PartitionedCall/time", "op": "Const", "attr": {"dtype": {"type": "DT_INT32"}, "value": {"tensor": {"dtype": "DT_INT32", "tensorShape": {}}}}}, {"name": "StatefulPartitionedCall/CRNN/bigru2/forward_gru_3/PartitionedCall/transpose/perm", "op": "Const", "attr": {"value": {"tensor": {"dtype": "DT_INT32", "tensorShape": {"dim": [{"size": "3"}]}}}, "dtype": {"type": "DT_INT32"}}}, {"name": "StatefulPartitionedCall/CRNN/bigru2/forward_gru_3/PartitionedCall/strided_slice/stack", "op": "Const", "attr": {"value": {"tensor": {"dtype": "DT_INT32", "tensorShape": {"dim": [{"size": "1"}]}}}, "dtype": {"type": "DT_INT32"}}}, {"name": "StatefulPartitionedCall/CRNN/bigru2/forward_gru_3/PartitionedCall/strided_slice/stack_1", "op": "Const", "attr": {"value": {"tensor": {"dtype": "DT_INT32", "tensorShape": {"dim": [{"size": "1"}]}}}, "dtype": {"type": "DT_INT32"}}}, {"name": "StatefulPartitionedCall/CRNN/bigru2/forward_gru_3/PartitionedCall/strided_slice/stack_2", "op": "Const", "attr": {"dtype": {"type": "DT_INT32"}, "value": {"tensor": {"dtype": "DT_INT32", "tensorShape": {"dim": [{"size": "1"}]}}}}}, {"name": "StatefulPartitionedCall/CRNN/bigru2/forward_gru_3/PartitionedCall/while/loop_counter", "op": "Const", "attr": {"value": {"tensor": {"dtype": "DT_INT32", "tensorShape": {}}}, "dtype": {"type": "DT_INT32"}}}, {"name": "StatefulPartitionedCall/CRNN/bigru2/forward_gru_3/PartitionedCall/TensorArrayV2Stack/TensorListStack/element_shape", "op": "Const", "attr": {"value": {"tensor": {"dtype": "DT_INT32", "tensorShape": {"dim": [{"size": "2"}]}}}, "dtype": {"type": "DT_INT32"}}}, {"name": "StatefulPartitionedCall/CRNN/bigru2/forward_gru_3/PartitionedCall/transpose_1/perm", "op": "Const", "attr": {"dtype": {"type": "DT_INT32"}, "value": {"tensor": {"dtype": "DT_INT32", "tensorShape": {"dim": [{"size": "3"}]}}}}}, {"name": "StatefulPartitionedCall/CRNN/bigru2/backward_gru_3/PartitionedCall/TensorArrayV2_1/element_shape", "op": "Const", "attr": {"value": {"tensor": {"dtype": "DT_INT32", "tensorShape": {"dim": [{"size": "2"}]}}}, "dtype": {"type": "DT_INT32"}}}, {"name": "StatefulPartitionedCall/CRNN/bigru2/backward_gru_3/PartitionedCall/ReverseV2/axis", "op": "Const", "attr": {"dtype": {"type": "DT_INT32"}, "value": {"tensor": {"dtype": "DT_INT32", "tensorShape": {"dim": [{"size": "1"}]}}}}}, {"name": "StatefulPartitionedCall/CRNN/bigru2/backward_gru_3/PartitionedCall/TensorArrayUnstack/TensorListFromTensor/element_shape", "op": "Const", "attr": {"dtype": {"type": "DT_INT32"}, "value": {"tensor": {"dtype": "DT_INT32", "tensorShape": {"dim": [{"size": "2"}]}}}}}, {"name": "StatefulPartitionedCall/CRNN/bigru2/backward_gru_3/Read/ReadVariableOp", "op": "Const", "attr": {"value": {"tensor": {"dtype": "DT_FLOAT", "tensorShape": {"dim": [{"size": "512"}, {"size": "768"}]}}}, "dtype": {"type": "DT_FLOAT"}}}, {"name": "ConstantFolding/StatefulPartitionedCall/CRNN/bigru2/backward_gru_3/PartitionedCall/unstack-folded-0", "op": "Const", "attr": {"value": {"tensor": {"dtype": "DT_FLOAT", "tensorShape": {"dim": [{"size": "768"}]}}}, "dtype": {"type": "DT_FLOAT"}}}, {"name": "StatefulPartitionedCall/CRNN/bigru2/backward_gru_3/strided_slice/stack", "op": "Const", "attr": {"value": {"tensor": {"dtype": "DT_INT32", "tensorShape": {"dim": [{"size": "1"}]}}}, "dtype": {"type": "DT_INT32"}}}, {"name": "StatefulPartitionedCall/CRNN/bigru2/backward_gru_3/strided_slice/stack_1", "op": "Const", "attr": {"dtype": {"type": "DT_INT32"}, "value": {"tensor": {"dtype": "DT_INT32", "tensorShape": {"dim": [{"size": "1"}]}}}}}, {"name": "StatefulPartitionedCall/CRNN/bigru2/backward_gru_3/strided_slice/stack_2", "op": "Const", "attr": {"dtype": {"type": "DT_INT32"}, "value": {"tensor": {"dtype": "DT_INT32", "tensorShape": {"dim": [{"size": "1"}]}}}}}, {"name": "StatefulPartitionedCall/CRNN/bigru2/backward_gru_3/zeros/packed/1", "op": "Const", "attr": {"dtype": {"type": "DT_INT32"}, "value": {"tensor": {"dtype": "DT_INT32", "tensorShape": {}}}}}, {"name": "StatefulPartitionedCall/CRNN/bigru2/backward_gru_3/zeros/Const", "op": "Const", "attr": {"value": {"tensor": {"dtype": "DT_FLOAT", "tensorShape": {}}}, "dtype": {"type": "DT_FLOAT"}}}, {"name": "StatefulPartitionedCall/CRNN/bigru2/backward_gru_3/Read_1/ReadVariableOp", "op": "Const", "attr": {"dtype": {"type": "DT_FLOAT"}, "value": {"tensor": {"dtype": "DT_FLOAT", "tensorShape": {"dim": [{"size": "256"}, {"size": "768"}]}}}}}, {"name": "ConstantFolding/StatefulPartitionedCall/CRNN/bigru2/backward_gru_3/PartitionedCall/unstack-folded-1", "op": "Const", "attr": {"dtype": {"type": "DT_FLOAT"}, "value": {"tensor": {"dtype": "DT_FLOAT", "tensorShape": {"dim": [{"size": "768"}]}}}}}, {"name": "StatefulPartitionedCall/CRNN/bigru2/backward_gru_3/PartitionedCall/time", "op": "Const", "attr": {"value": {"tensor": {"dtype": "DT_INT32", "tensorShape": {}}}, "dtype": {"type": "DT_INT32"}}}, {"name": "StatefulPartitionedCall/CRNN/bigru1/forward_gru_2/PartitionedCall/TensorArrayV2_1/element_shape", "op": "Const", "attr": {"value": {"tensor": {"dtype": "DT_INT32", "tensorShape": {"dim": [{"size": "2"}]}}}, "dtype": {"type": "DT_INT32"}}}, {"name": "StatefulPartitionedCall/CRNN/bigru1/forward_gru_2/PartitionedCall/TensorArrayUnstack/TensorListFromTensor/element_shape", "op": "Const", "attr": {"dtype": {"type": "DT_INT32"}, "value": {"tensor": {"dtype": "DT_INT32", "tensorShape": {"dim": [{"size": "2"}]}}}}}, {"name": "StatefulPartitionedCall/CRNN/bigru1/forward_gru_2/Read/ReadVariableOp", "op": "Const", "attr": {"dtype": {"type": "DT_FLOAT"}, "value": {"tensor": {"dtype": "DT_FLOAT", "tensorShape": {"dim": [{"size": "512"}, {"size": "768"}]}}}}}, {"name": "ConstantFolding/StatefulPartitionedCall/CRNN/bigru1/forward_gru_2/PartitionedCall/unstack-folded-0", "op": "Const", "attr": {"value": {"tensor": {"dtype": "DT_FLOAT", "tensorShape": {"dim": [{"size": "768"}]}}}, "dtype": {"type": "DT_FLOAT"}}}, {"name": "StatefulPartitionedCall/CRNN/bigru1/forward_gru_2/strided_slice/stack", "op": "Const", "attr": {"value": {"tensor": {"dtype": "DT_INT32", "tensorShape": {"dim": [{"size": "1"}]}}}, "dtype": {"type": "DT_INT32"}}}, {"name": "StatefulPartitionedCall/CRNN/bigru1/forward_gru_2/strided_slice/stack_1", "op": "Const", "attr": {"value": {"tensor": {"dtype": "DT_INT32", "tensorShape": {"dim": [{"size": "1"}]}}}, "dtype": {"type": "DT_INT32"}}}, {"name": "StatefulPartitionedCall/CRNN/bigru1/forward_gru_2/strided_slice/stack_2", "op": "Const", "attr": {"dtype": {"type": "DT_INT32"}, "value": {"tensor": {"dtype": "DT_INT32", "tensorShape": {"dim": [{"size": "1"}]}}}}}, {"name": "StatefulPartitionedCall/CRNN/bigru1/forward_gru_2/zeros/packed/1", "op": "Const", "attr": {"value": {"tensor": {"dtype": "DT_INT32", "tensorShape": {}}}, "dtype": {"type": "DT_INT32"}}}, {"name": "StatefulPartitionedCall/CRNN/bigru1/forward_gru_2/zeros/Const", "op": "Const", "attr": {"dtype": {"type": "DT_FLOAT"}, "value": {"tensor": {"dtype": "DT_FLOAT", "tensorShape": {}}}}}, {"name": "StatefulPartitionedCall/CRNN/bigru1/forward_gru_2/Read_1/ReadVariableOp", "op": "Const", "attr": {"dtype": {"type": "DT_FLOAT"}, "value": {"tensor": {"dtype": "DT_FLOAT", "tensorShape": {"dim": [{"size": "256"}, {"size": "768"}]}}}}}, {"name": "ConstantFolding/StatefulPartitionedCall/CRNN/bigru1/forward_gru_2/PartitionedCall/unstack-folded-1", "op": "Const", "attr": {"dtype": {"type": "DT_FLOAT"}, "value": {"tensor": {"dtype": "DT_FLOAT", "tensorShape": {"dim": [{"size": "768"}]}}}}}, {"name": "StatefulPartitionedCall/CRNN/bigru1/forward_gru_2/PartitionedCall/time", "op": "Const", "attr": {"value": {"tensor": {"dtype": "DT_INT32", "tensorShape": {}}}, "dtype": {"type": "DT_INT32"}}}, {"name": "StatefulPartitionedCall/CRNN/bigru1/forward_gru_2/PartitionedCall/transpose/perm", "op": "Const", "attr": {"dtype": {"type": "DT_INT32"}, "value": {"tensor": {"dtype": "DT_INT32", "tensorShape": {"dim": [{"size": "3"}]}}}}}, {"name": "StatefulPartitionedCall/CRNN/bigru1/forward_gru_2/PartitionedCall/strided_slice/stack", "op": "Const", "attr": {"dtype": {"type": "DT_INT32"}, "value": {"tensor": {"dtype": "DT_INT32", "tensorShape": {"dim": [{"size": "1"}]}}}}}, {"name": "StatefulPartitionedCall/CRNN/bigru1/forward_gru_2/PartitionedCall/strided_slice/stack_1", "op": "Const", "attr": {"dtype": {"type": "DT_INT32"}, "value": {"tensor": {"dtype": "DT_INT32", "tensorShape": {"dim": [{"size": "1"}]}}}}}, {"name": "StatefulPartitionedCall/CRNN/bigru1/forward_gru_2/PartitionedCall/strided_slice/stack_2", "op": "Const", "attr": {"dtype": {"type": "DT_INT32"}, "value": {"tensor": {"dtype": "DT_INT32", "tensorShape": {"dim": [{"size": "1"}]}}}}}, {"name": "StatefulPartitionedCall/CRNN/bigru1/forward_gru_2/PartitionedCall/while/loop_counter", "op": "Const", "attr": {"dtype": {"type": "DT_INT32"}, "value": {"tensor": {"dtype": "DT_INT32", "tensorShape": {}}}}}, {"name": "StatefulPartitionedCall/CRNN/bigru1/forward_gru_2/PartitionedCall/TensorArrayV2Stack/TensorListStack/element_shape", "op": "Const", "attr": {"value": {"tensor": {"dtype": "DT_INT32", "tensorShape": {"dim": [{"size": "2"}]}}}, "dtype": {"type": "DT_INT32"}}}, {"name": "StatefulPartitionedCall/CRNN/bigru1/forward_gru_2/PartitionedCall/transpose_1/perm", "op": "Const", "attr": {"value": {"tensor": {"dtype": "DT_INT32", "tensorShape": {"dim": [{"size": "3"}]}}}, "dtype": {"type": "DT_INT32"}}}, {"name": "StatefulPartitionedCall/CRNN/bigru1/backward_gru_2/PartitionedCall/TensorArrayV2_1/element_shape", "op": "Const", "attr": {"dtype": {"type": "DT_INT32"}, "value": {"tensor": {"dtype": "DT_INT32", "tensorShape": {"dim": [{"size": "2"}]}}}}}, {"name": "StatefulPartitionedCall/CRNN/bigru1/backward_gru_2/PartitionedCall/ReverseV2/axis", "op": "Const", "attr": {"value": {"tensor": {"dtype": "DT_INT32", "tensorShape": {"dim": [{"size": "1"}]}}}, "dtype": {"type": "DT_INT32"}}}, {"name": "StatefulPartitionedCall/CRNN/bigru1/backward_gru_2/PartitionedCall/TensorArrayUnstack/TensorListFromTensor/element_shape", "op": "Const", "attr": {"dtype": {"type": "DT_INT32"}, "value": {"tensor": {"dtype": "DT_INT32", "tensorShape": {"dim": [{"size": "2"}]}}}}}, {"name": "StatefulPartitionedCall/CRNN/bigru1/backward_gru_2/Read/ReadVariableOp", "op": "Const", "attr": {"dtype": {"type": "DT_FLOAT"}, "value": {"tensor": {"dtype": "DT_FLOAT", "tensorShape": {"dim": [{"size": "512"}, {"size": "768"}]}}}}}, {"name": "ConstantFolding/StatefulPartitionedCall/CRNN/bigru1/backward_gru_2/PartitionedCall/unstack-folded-0", "op": "Const", "attr": {"value": {"tensor": {"dtype": "DT_FLOAT", "tensorShape": {"dim": [{"size": "768"}]}}}, "dtype": {"type": "DT_FLOAT"}}}, {"name": "StatefulPartitionedCall/CRNN/bigru1/backward_gru_2/strided_slice/stack", "op": "Const", "attr": {"value": {"tensor": {"dtype": "DT_INT32", "tensorShape": {"dim": [{"size": "1"}]}}}, "dtype": {"type": "DT_INT32"}}}, {"name": "StatefulPartitionedCall/CRNN/bigru1/backward_gru_2/strided_slice/stack_1", "op": "Const", "attr": {"dtype": {"type": "DT_INT32"}, "value": {"tensor": {"dtype": "DT_INT32", "tensorShape": {"dim": [{"size": "1"}]}}}}}, {"name": "StatefulPartitionedCall/CRNN/bigru1/backward_gru_2/strided_slice/stack_2", "op": "Const", "attr": {"dtype": {"type": "DT_INT32"}, "value": {"tensor": {"dtype": "DT_INT32", "tensorShape": {"dim": [{"size": "1"}]}}}}}, {"name": "StatefulPartitionedCall/CRNN/bigru1/backward_gru_2/zeros/packed/1", "op": "Const", "attr": {"dtype": {"type": "DT_INT32"}, "value": {"tensor": {"dtype": "DT_INT32", "tensorShape": {}}}}}, {"name": "StatefulPartitionedCall/CRNN/bigru1/backward_gru_2/zeros/Const", "op": "Const", "attr": {"value": {"tensor": {"dtype": "DT_FLOAT", "tensorShape": {}}}, "dtype": {"type": "DT_FLOAT"}}}, {"name": "StatefulPartitionedCall/CRNN/bigru1/backward_gru_2/Read_1/ReadVariableOp", "op": "Const", "attr": {"value": {"tensor": {"dtype": "DT_FLOAT", "tensorShape": {"dim": [{"size": "256"}, {"size": "768"}]}}}, "dtype": {"type": "DT_FLOAT"}}}, {"name": "ConstantFolding/StatefulPartitionedCall/CRNN/bigru1/backward_gru_2/PartitionedCall/unstack-folded-1", "op": "Const", "attr": {"value": {"tensor": {"dtype": "DT_FLOAT", "tensorShape": {"dim": [{"size": "768"}]}}}, "dtype": {"type": "DT_FLOAT"}}}, {"name": "StatefulPartitionedCall/CRNN/bigru1/backward_gru_2/PartitionedCall/time", "op": "Const", "attr": {"dtype": {"type": "DT_INT32"}, "value": {"tensor": {"dtype": "DT_INT32", "tensorShape": {}}}}}, {"name": "StatefulPartitionedCall/CRNN/reshape_1/strided_slice/stack", "op": "Const", "attr": {"value": {"tensor": {"dtype": "DT_INT32", "tensorShape": {"dim": [{"size": "1"}]}}}, "dtype": {"type": "DT_INT32"}}}, {"name": "StatefulPartitionedCall/CRNN/reshape_1/strided_slice/stack_1", "op": "Const", "attr": {"dtype": {"type": "DT_INT32"}, "value": {"tensor": {"dtype": "DT_INT32", "tensorShape": {"dim": [{"size": "1"}]}}}}}, {"name": "StatefulPartitionedCall/CRNN/reshape_1/strided_slice/stack_2", "op": "Const", "attr": {"value": {"tensor": {"dtype": "DT_INT32", "tensorShape": {"dim": [{"size": "1"}]}}}, "dtype": {"type": "DT_INT32"}}}, {"name": "StatefulPartitionedCall/CRNN/reshape_1/Reshape/shape/1", "op": "Const", "attr": {"value": {"tensor": {"dtype": "DT_INT32", "tensorShape": {}}}, "dtype": {"type": "DT_INT32"}}}, {"name": "StatefulPartitionedCall/CRNN/reshape_1/Reshape/shape/2", "op": "Const", "attr": {"dtype": {"type": "DT_INT32"}, "value": {"tensor": {"dtype": "DT_INT32", "tensorShape": {}}}}}, {"name": "StatefulPartitionedCall/CRNN/bigru1/backward_gru_2/PartitionedCall/transpose/perm", "op": "Const", "attr": {"dtype": {"type": "DT_INT32"}, "value": {"tensor": {"dtype": "DT_INT32", "tensorShape": {"dim": [{"size": "3"}]}}}}}, {"name": "StatefulPartitionedCall/CRNN/bigru1/backward_gru_2/PartitionedCall/strided_slice/stack", "op": "Const", "attr": {"dtype": {"type": "DT_INT32"}, "value": {"tensor": {"dtype": "DT_INT32", "tensorShape": {"dim": [{"size": "1"}]}}}}}, {"name": "StatefulPartitionedCall/CRNN/bigru1/backward_gru_2/PartitionedCall/strided_slice/stack_1", "op": "Const", "attr": {"dtype": {"type": "DT_INT32"}, "value": {"tensor": {"dtype": "DT_INT32", "tensorShape": {"dim": [{"size": "1"}]}}}}}, {"name": "StatefulPartitionedCall/CRNN/bigru1/backward_gru_2/PartitionedCall/strided_slice/stack_2", "op": "Const", "attr": {"dtype": {"type": "DT_INT32"}, "value": {"tensor": {"dtype": "DT_INT32", "tensorShape": {"dim": [{"size": "1"}]}}}}}, {"name": "StatefulPartitionedCall/CRNN/bigru1/backward_gru_2/PartitionedCall/while/loop_counter", "op": "Const", "attr": {"dtype": {"type": "DT_INT32"}, "value": {"tensor": {"dtype": "DT_INT32", "tensorShape": {}}}}}, {"name": "StatefulPartitionedCall/CRNN/bigru1/backward_gru_2/PartitionedCall/TensorArrayV2Stack/TensorListStack/element_shape", "op": "Const", "attr": {"dtype": {"type": "DT_INT32"}, "value": {"tensor": {"dtype": "DT_INT32", "tensorShape": {"dim": [{"size": "2"}]}}}}}, {"name": "StatefulPartitionedCall/CRNN/bigru1/backward_gru_2/PartitionedCall/transpose_1/perm", "op": "Const", "attr": {"dtype": {"type": "DT_INT32"}, "value": {"tensor": {"dtype": "DT_INT32", "tensorShape": {"dim": [{"size": "3"}]}}}}}, {"name": "StatefulPartitionedCall/CRNN/bigru1/ReverseV2/axis", "op": "Const", "attr": {"dtype": {"type": "DT_INT32"}, "value": {"tensor": {"dtype": "DT_INT32", "tensorShape": {"dim": [{"size": "1"}]}}}}}, {"name": "StatefulPartitionedCall/CRNN/bigru1/concat/axis", "op": "Const", "attr": {"value": {"tensor": {"dtype": "DT_INT32", "tensorShape": {}}}, "dtype": {"type": "DT_INT32"}}}, {"name": "StatefulPartitionedCall/CRNN/bigru2/backward_gru_3/PartitionedCall/transpose/perm", "op": "Const", "attr": {"dtype": {"type": "DT_INT32"}, "value": {"tensor": {"dtype": "DT_INT32", "tensorShape": {"dim": [{"size": "3"}]}}}}}, {"name": "StatefulPartitionedCall/CRNN/bigru2/backward_gru_3/PartitionedCall/strided_slice/stack", "op": "Const", "attr": {"dtype": {"type": "DT_INT32"}, "value": {"tensor": {"dtype": "DT_INT32", "tensorShape": {"dim": [{"size": "1"}]}}}}}, {"name": "StatefulPartitionedCall/CRNN/bigru2/backward_gru_3/PartitionedCall/strided_slice/stack_1", "op": "Const", "attr": {"dtype": {"type": "DT_INT32"}, "value": {"tensor": {"dtype": "DT_INT32", "tensorShape": {"dim": [{"size": "1"}]}}}}}, {"name": "StatefulPartitionedCall/CRNN/bigru2/backward_gru_3/PartitionedCall/strided_slice/stack_2", "op": "Const", "attr": {"dtype": {"type": "DT_INT32"}, "value": {"tensor": {"dtype": "DT_INT32", "tensorShape": {"dim": [{"size": "1"}]}}}}}, {"name": "StatefulPartitionedCall/CRNN/bigru2/backward_gru_3/PartitionedCall/while/loop_counter", "op": "Const", "attr": {"dtype": {"type": "DT_INT32"}, "value": {"tensor": {"dtype": "DT_INT32", "tensorShape": {}}}}}, {"name": "StatefulPartitionedCall/CRNN/bigru2/backward_gru_3/PartitionedCall/TensorArrayV2Stack/TensorListStack/element_shape", "op": "Const", "attr": {"value": {"tensor": {"dtype": "DT_INT32", "tensorShape": {"dim": [{"size": "2"}]}}}, "dtype": {"type": "DT_INT32"}}}, {"name": "StatefulPartitionedCall/CRNN/bigru2/backward_gru_3/PartitionedCall/transpose_1/perm", "op": "Const", "attr": {"value": {"tensor": {"dtype": "DT_INT32", "tensorShape": {"dim": [{"size": "3"}]}}}, "dtype": {"type": "DT_INT32"}}}, {"name": "StatefulPartitionedCall/CRNN/bigru2/ReverseV2/axis", "op": "Const", "attr": {"dtype": {"type": "DT_INT32"}, "value": {"tensor": {"dtype": "DT_INT32", "tensorShape": {"dim": [{"size": "1"}]}}}}}, {"name": "StatefulPartitionedCall/CRNN/bigru2/concat/axis", "op": "Const", "attr": {"value": {"tensor": {"dtype": "DT_INT32", "tensorShape": {}}}, "dtype": {"type": "DT_INT32"}}}, {"name": "StatefulPartitionedCall/CRNN/rnn_output/Tensordot/free", "op": "Const", "attr": {"value": {"tensor": {"dtype": "DT_INT32", "tensorShape": {"dim": [{"size": "2"}]}}}, "dtype": {"type": "DT_INT32"}}}, {"name": "StatefulPartitionedCall/CRNN/rnn_output/Tensordot/GatherV2/axis", "op": "Const", "attr": {"dtype": {"type": "DT_INT32"}, "value": {"tensor": {"dtype": "DT_INT32", "tensorShape": {}}}}}, {"name": "StatefulPartitionedCall/CRNN/rnn_output/Tensordot/Const_2", "op": "Const", "attr": {"value": {"tensor": {"dtype": "DT_INT32", "tensorShape": {"dim": [{"size": "1"}]}}}, "dtype": {"type": "DT_INT32"}}}, {"name": "StatefulPartitionedCall/CRNN/rnn_output/Tensordot/concat_1/axis", "op": "Const", "attr": {"dtype": {"type": "DT_INT32"}, "value": {"tensor": {"dtype": "DT_INT32", "tensorShape": {}}}}}, {"name": "StatefulPartitionedCall/CRNN/rnn_output/BiasAdd/ReadVariableOp", "op": "Const", "attr": {"dtype": {"type": "DT_FLOAT"}, "value": {"tensor": {"dtype": "DT_FLOAT", "tensorShape": {"dim": [{"size": "7482"}]}}}}}, {"name": "image", "op": "Placeholder", "attr": {"dtype": {"type": "DT_FLOAT"}, "shape": {"shape": {"dim": [{"size": "-1"}, {"size": "432"}, {"size": "48"}, {"size": "3"}]}}}}, {"name": "StatefulPartitionedCall/CRNN/block1_convbn/conv2d_18/Conv2D_weights", "op": "Const", "attr": {"dtype": {"type": "DT_FLOAT"}, "value": {"tensor": {"dtype": "DT_FLOAT", "tensorShape": {"dim": [{"size": "3"}, {"size": "3"}, {"size": "3"}, {"size": "64"}]}}}}}, {"name": "StatefulPartitionedCall/CRNN/block1_convbn/conv2d_18/Conv2D_bn_offset", "op": "Const", "attr": {"value": {"tensor": {"dtype": "DT_FLOAT", "tensorShape": {"dim": [{"size": "64"}]}}}, "dtype": {"type": "DT_FLOAT"}}}, {"name": "StatefulPartitionedCall/CRNN/block2_convbn/conv2d_19/Conv2D_weights", "op": "Const", "attr": {"dtype": {"type": "DT_FLOAT"}, "value": {"tensor": {"dtype": "DT_FLOAT", "tensorShape": {"dim": [{"size": "3"}, {"size": "3"}, {"size": "64"}, {"size": "128"}]}}}}}, {"name": "StatefulPartitionedCall/CRNN/block2_convbn/conv2d_19/Conv2D_bn_offset", "op": "Const", "attr": {"value": {"tensor": {"dtype": "DT_FLOAT", "tensorShape": {"dim": [{"size": "128"}]}}}, "dtype": {"type": "DT_FLOAT"}}}, {"name": "StatefulPartitionedCall/CRNN/block3_convbn1/conv2d_20/Conv2D_weights", "op": "Const", "attr": {"dtype": {"type": "DT_FLOAT"}, "value": {"tensor": {"dtype": "DT_FLOAT", "tensorShape": {"dim": [{"size": "3"}, {"size": "3"}, {"size": "128"}, {"size": "256"}]}}}}}, {"name": "StatefulPartitionedCall/CRNN/block3_convbn1/conv2d_20/Conv2D_bn_offset", "op": "Const", "attr": {"dtype": {"type": "DT_FLOAT"}, "value": {"tensor": {"dtype": "DT_FLOAT", "tensorShape": {"dim": [{"size": "256"}]}}}}}, {"name": "StatefulPartitionedCall/CRNN/block3_convbn2/conv2d_21/Conv2D_weights", "op": "Const", "attr": {"value": {"tensor": {"dtype": "DT_FLOAT", "tensorShape": {"dim": [{"size": "3"}, {"size": "3"}, {"size": "256"}, {"size": "256"}]}}}, "dtype": {"type": "DT_FLOAT"}}}, {"name": "StatefulPartitionedCall/CRNN/block3_convbn2/conv2d_21/Conv2D_bn_offset", "op": "Const", "attr": {"dtype": {"type": "DT_FLOAT"}, "value": {"tensor": {"dtype": "DT_FLOAT", "tensorShape": {"dim": [{"size": "256"}]}}}}}, {"name": "StatefulPartitionedCall/CRNN/block4_convbn1/conv2d_22/Conv2D_weights", "op": "Const", "attr": {"dtype": {"type": "DT_FLOAT"}, "value": {"tensor": {"dtype": "DT_FLOAT", "tensorShape": {"dim": [{"size": "3"}, {"size": "3"}, {"size": "256"}, {"size": "512"}]}}}}}, {"name": "StatefulPartitionedCall/CRNN/block4_convbn1/conv2d_22/Conv2D_bn_offset", "op": "Const", "attr": {"value": {"tensor": {"dtype": "DT_FLOAT", "tensorShape": {"dim": [{"size": "512"}]}}}, "dtype": {"type": "DT_FLOAT"}}}, {"name": "StatefulPartitionedCall/CRNN/block4_convbn2/conv2d_23/Conv2D_weights", "op": "Const", "attr": {"dtype": {"type": "DT_FLOAT"}, "value": {"tensor": {"dtype": "DT_FLOAT", "tensorShape": {"dim": [{"size": "3"}, {"size": "3"}, {"size": "512"}, {"size": "512"}]}}}}}, {"name": "StatefulPartitionedCall/CRNN/block4_convbn2/conv2d_23/Conv2D_bn_offset", "op": "Const", "attr": {"dtype": {"type": "DT_FLOAT"}, "value": {"tensor": {"dtype": "DT_FLOAT", "tensorShape": {"dim": [{"size": "512"}]}}}}}, {"name": "StatefulPartitionedCall/CRNN/block5_convbn1/conv2d_24/Conv2D_weights", "op": "Const", "attr": {"dtype": {"type": "DT_FLOAT"}, "value": {"tensor": {"dtype": "DT_FLOAT", "tensorShape": {"dim": [{"size": "2"}, {"size": "2"}, {"size": "512"}, {"size": "512"}]}}}}}, {"name": "StatefulPartitionedCall/CRNN/block5_convbn1/conv2d_24/Conv2D_bn_offset", "op": "Const", "attr": {"dtype": {"type": "DT_FLOAT"}, "value": {"tensor": {"dtype": "DT_FLOAT", "tensorShape": {"dim": [{"size": "512"}]}}}}}, {"name": "StatefulPartitionedCall/CRNN/block5_convbn2/conv2d_25/Conv2D_weights", "op": "Const", "attr": {"dtype": {"type": "DT_FLOAT"}, "value": {"tensor": {"dtype": "DT_FLOAT", "tensorShape": {"dim": [{"size": "2"}, {"size": "2"}, {"size": "512"}, {"size": "512"}]}}}}}, {"name": "StatefulPartitionedCall/CRNN/block5_convbn2/conv2d_25/Conv2D_bn_offset", "op": "Const", "attr": {"dtype": {"type": "DT_FLOAT"}, "value": {"tensor": {"dtype": "DT_FLOAT", "tensorShape": {"dim": [{"size": "512"}]}}}}}, {"name": "StatefulPartitionedCall/CRNN/bigru2/forward_gru_3/PartitionedCall/while/enter/_230", "op": "Enter", "input": ["StatefulPartitionedCall/CRNN/bigru2/forward_gru_3/Read/ReadVariableOp"], "attr": {"frame_name": {"s": "U3RhdGVmdWxQYXJ0aXRpb25lZENhbGwvQ1JOTi9iaWdydTIvZm9yd2FyZF9ncnVfMy9QYXJ0aXRpb25lZENhbGwvd2hpbGU="}, "parallel_iterations": {"i": "32"}, "T": {"type": "DT_FLOAT"}, "is_constant": {"b": false}}}, {"name": "StatefulPartitionedCall/CRNN/bigru2/forward_gru_3/PartitionedCall/while/enter/_231", "op": "Enter", "input": ["ConstantFolding/StatefulPartitionedCall/CRNN/bigru2/forward_gru_3/PartitionedCall/unstack-folded-0"], "attr": {"frame_name": {"s": "U3RhdGVmdWxQYXJ0aXRpb25lZENhbGwvQ1JOTi9iaWdydTIvZm9yd2FyZF9ncnVfMy9QYXJ0aXRpb25lZENhbGwvd2hpbGU="}, "T": {"type": "DT_FLOAT"}, "is_constant": {"b": false}, "parallel_iterations": {"i": "32"}}}, {"name": "StatefulPartitionedCall/CRNN/bigru2/forward_gru_3/PartitionedCall/while/enter/_232", "op": "Enter", "input": ["StatefulPartitionedCall/CRNN/bigru2/forward_gru_3/Read_1/ReadVariableOp"], "attr": {"frame_name": {"s": "U3RhdGVmdWxQYXJ0aXRpb25lZENhbGwvQ1JOTi9iaWdydTIvZm9yd2FyZF9ncnVfMy9QYXJ0aXRpb25lZENhbGwvd2hpbGU="}, "is_constant": {"b": false}, "T": {"type": "DT_FLOAT"}, "parallel_iterations": {"i": "32"}}}, {"name": "StatefulPartitionedCall/CRNN/bigru2/forward_gru_3/PartitionedCall/while/enter/_233", "op": "Enter", "input": ["ConstantFolding/StatefulPartitionedCall/CRNN/bigru2/forward_gru_3/PartitionedCall/unstack-folded-1"], "attr": {"parallel_iterations": {"i": "32"}, "frame_name": {"s": "U3RhdGVmdWxQYXJ0aXRpb25lZENhbGwvQ1JOTi9iaWdydTIvZm9yd2FyZF9ncnVfMy9QYXJ0aXRpb25lZENhbGwvd2hpbGU="}, "T": {"type": "DT_FLOAT"}, "is_constant": {"b": false}}}, {"name": "StatefulPartitionedCall/CRNN/bigru2/forward_gru_3/PartitionedCall/while/enter/_225", "op": "Enter", "input": ["StatefulPartitionedCall/CRNN/bigru2/forward_gru_3/PartitionedCall/time"], "attr": {"frame_name": {"s": "U3RhdGVmdWxQYXJ0aXRpb25lZENhbGwvQ1JOTi9iaWdydTIvZm9yd2FyZF9ncnVfMy9QYXJ0aXRpb25lZENhbGwvd2hpbGU="}, "T": {"type": "DT_INT32"}, "parallel_iterations": {"i": "32"}, "is_constant": {"b": false}}}, {"name": "StatefulPartitionedCall/CRNN/bigru2/forward_gru_3/PartitionedCall/while/enter/_223", "op": "Enter", "input": ["StatefulPartitionedCall/CRNN/bigru2/forward_gru_3/PartitionedCall/while/loop_counter"], "attr": {"frame_name": {"s": "U3RhdGVmdWxQYXJ0aXRpb25lZENhbGwvQ1JOTi9iaWdydTIvZm9yd2FyZF9ncnVfMy9QYXJ0aXRpb25lZENhbGwvd2hpbGU="}, "parallel_iterations": {"i": "32"}, "is_constant": {"b": false}, "T": {"type": "DT_INT32"}}}, {"name": "StatefulPartitionedCall/CRNN/bigru2/backward_gru_3/PartitionedCall/while/enter/_290", "op": "Enter", "input": ["StatefulPartitionedCall/CRNN/bigru2/backward_gru_3/Read/ReadVariableOp"], "attr": {"parallel_iterations": {"i": "32"}, "T": {"type": "DT_FLOAT"}, "is_constant": {"b": false}, "frame_name": {"s": "U3RhdGVmdWxQYXJ0aXRpb25lZENhbGwvQ1JOTi9iaWdydTIvYmFja3dhcmRfZ3J1XzMvUGFydGl0aW9uZWRDYWxsL3doaWxl"}}}, {"name": "StatefulPartitionedCall/CRNN/bigru2/backward_gru_3/PartitionedCall/while/enter/_291", "op": "Enter", "input": ["ConstantFolding/StatefulPartitionedCall/CRNN/bigru2/backward_gru_3/PartitionedCall/unstack-folded-0"], "attr": {"parallel_iterations": {"i": "32"}, "T": {"type": "DT_FLOAT"}, "frame_name": {"s": "U3RhdGVmdWxQYXJ0aXRpb25lZENhbGwvQ1JOTi9iaWdydTIvYmFja3dhcmRfZ3J1XzMvUGFydGl0aW9uZWRDYWxsL3doaWxl"}, "is_constant": {"b": false}}}, {"name": "StatefulPartitionedCall/CRNN/bigru2/backward_gru_3/PartitionedCall/while/enter/_292", "op": "Enter", "input": ["StatefulPartitionedCall/CRNN/bigru2/backward_gru_3/Read_1/ReadVariableOp"], "attr": {"frame_name": {"s": "U3RhdGVmdWxQYXJ0aXRpb25lZENhbGwvQ1JOTi9iaWdydTIvYmFja3dhcmRfZ3J1XzMvUGFydGl0aW9uZWRDYWxsL3doaWxl"}, "parallel_iterations": {"i": "32"}, "T": {"type": "DT_FLOAT"}, "is_constant": {"b": false}}}, {"name": "StatefulPartitionedCall/CRNN/bigru2/backward_gru_3/PartitionedCall/while/enter/_293", "op": "Enter", "input": ["ConstantFolding/StatefulPartitionedCall/CRNN/bigru2/backward_gru_3/PartitionedCall/unstack-folded-1"], "attr": {"is_constant": {"b": false}, "frame_name": {"s": "U3RhdGVmdWxQYXJ0aXRpb25lZENhbGwvQ1JOTi9iaWdydTIvYmFja3dhcmRfZ3J1XzMvUGFydGl0aW9uZWRDYWxsL3doaWxl"}, "T": {"type": "DT_FLOAT"}, "parallel_iterations": {"i": "32"}}}, {"name": "StatefulPartitionedCall/CRNN/bigru2/backward_gru_3/PartitionedCall/while/enter/_285", "op": "Enter", "input": ["StatefulPartitionedCall/CRNN/bigru2/backward_gru_3/PartitionedCall/time"], "attr": {"T": {"type": "DT_INT32"}, "parallel_iterations": {"i": "32"}, "frame_name": {"s": "U3RhdGVmdWxQYXJ0aXRpb25lZENhbGwvQ1JOTi9iaWdydTIvYmFja3dhcmRfZ3J1XzMvUGFydGl0aW9uZWRDYWxsL3doaWxl"}, "is_constant": {"b": false}}}, {"name": "StatefulPartitionedCall/CRNN/bigru1/forward_gru_2/PartitionedCall/while/enter/_110", "op": "Enter", "input": ["StatefulPartitionedCall/CRNN/bigru1/forward_gru_2/Read/ReadVariableOp"], "attr": {"is_constant": {"b": false}, "frame_name": {"s": "U3RhdGVmdWxQYXJ0aXRpb25lZENhbGwvQ1JOTi9iaWdydTEvZm9yd2FyZF9ncnVfMi9QYXJ0aXRpb25lZENhbGwvd2hpbGU="}, "parallel_iterations": {"i": "32"}, "T": {"type": "DT_FLOAT"}}}, {"name": "StatefulPartitionedCall/CRNN/bigru1/forward_gru_2/PartitionedCall/while/enter/_111", "op": "Enter", "input": ["ConstantFolding/StatefulPartitionedCall/CRNN/bigru1/forward_gru_2/PartitionedCall/unstack-folded-0"], "attr": {"parallel_iterations": {"i": "32"}, "is_constant": {"b": false}, "T": {"type": "DT_FLOAT"}, "frame_name": {"s": "U3RhdGVmdWxQYXJ0aXRpb25lZENhbGwvQ1JOTi9iaWdydTEvZm9yd2FyZF9ncnVfMi9QYXJ0aXRpb25lZENhbGwvd2hpbGU="}}}, {"name": "StatefulPartitionedCall/CRNN/bigru1/forward_gru_2/PartitionedCall/while/enter/_112", "op": "Enter", "input": ["StatefulPartitionedCall/CRNN/bigru1/forward_gru_2/Read_1/ReadVariableOp"], "attr": {"parallel_iterations": {"i": "32"}, "T": {"type": "DT_FLOAT"}, "is_constant": {"b": false}, "frame_name": {"s": "U3RhdGVmdWxQYXJ0aXRpb25lZENhbGwvQ1JOTi9iaWdydTEvZm9yd2FyZF9ncnVfMi9QYXJ0aXRpb25lZENhbGwvd2hpbGU="}}}, {"name": "StatefulPartitionedCall/CRNN/bigru1/forward_gru_2/PartitionedCall/while/enter/_113", "op": "Enter", "input": ["ConstantFolding/StatefulPartitionedCall/CRNN/bigru1/forward_gru_2/PartitionedCall/unstack-folded-1"], "attr": {"T": {"type": "DT_FLOAT"}, "is_constant": {"b": false}, "frame_name": {"s": "U3RhdGVmdWxQYXJ0aXRpb25lZENhbGwvQ1JOTi9iaWdydTEvZm9yd2FyZF9ncnVfMi9QYXJ0aXRpb25lZENhbGwvd2hpbGU="}, "parallel_iterations": {"i": "32"}}}, {"name": "StatefulPartitionedCall/CRNN/bigru1/forward_gru_2/PartitionedCall/while/enter/_105", "op": "Enter", "input": ["StatefulPartitionedCall/CRNN/bigru1/forward_gru_2/PartitionedCall/time"], "attr": {"T": {"type": "DT_INT32"}, "is_constant": {"b": false}, "frame_name": {"s": "U3RhdGVmdWxQYXJ0aXRpb25lZENhbGwvQ1JOTi9iaWdydTEvZm9yd2FyZF9ncnVfMi9QYXJ0aXRpb25lZENhbGwvd2hpbGU="}, "parallel_iterations": {"i": "32"}}}, {"name": "StatefulPartitionedCall/CRNN/bigru1/forward_gru_2/PartitionedCall/while/enter/_103", "op": "Enter", "input": ["StatefulPartitionedCall/CRNN/bigru1/forward_gru_2/PartitionedCall/while/loop_counter"], "attr": {"parallel_iterations": {"i": "32"}, "T": {"type": "DT_INT32"}, "is_constant": {"b": false}, "frame_name": {"s": "U3RhdGVmdWxQYXJ0aXRpb25lZENhbGwvQ1JOTi9iaWdydTEvZm9yd2FyZF9ncnVfMi9QYXJ0aXRpb25lZENhbGwvd2hpbGU="}}}, {"name": "StatefulPartitionedCall/CRNN/bigru1/backward_gru_2/PartitionedCall/while/enter/_170", "op": "Enter", "input": ["StatefulPartitionedCall/CRNN/bigru1/backward_gru_2/Read/ReadVariableOp"], "attr": {"T": {"type": "DT_FLOAT"}, "is_constant": {"b": false}, "parallel_iterations": {"i": "32"}, "frame_name": {"s": "U3RhdGVmdWxQYXJ0aXRpb25lZENhbGwvQ1JOTi9iaWdydTEvYmFja3dhcmRfZ3J1XzIvUGFydGl0aW9uZWRDYWxsL3doaWxl"}}}, {"name": "StatefulPartitionedCall/CRNN/bigru1/backward_gru_2/PartitionedCall/while/enter/_171", "op": "Enter", "input": ["ConstantFolding/StatefulPartitionedCall/CRNN/bigru1/backward_gru_2/PartitionedCall/unstack-folded-0"], "attr": {"is_constant": {"b": false}, "T": {"type": "DT_FLOAT"}, "parallel_iterations": {"i": "32"}, "frame_name": {"s": "U3RhdGVmdWxQYXJ0aXRpb25lZENhbGwvQ1JOTi9iaWdydTEvYmFja3dhcmRfZ3J1XzIvUGFydGl0aW9uZWRDYWxsL3doaWxl"}}}, {"name": "StatefulPartitionedCall/CRNN/bigru1/backward_gru_2/PartitionedCall/while/enter/_172", "op": "Enter", "input": ["StatefulPartitionedCall/CRNN/bigru1/backward_gru_2/Read_1/ReadVariableOp"], "attr": {"parallel_iterations": {"i": "32"}, "T": {"type": "DT_FLOAT"}, "is_constant": {"b": false}, "frame_name": {"s": "U3RhdGVmdWxQYXJ0aXRpb25lZENhbGwvQ1JOTi9iaWdydTEvYmFja3dhcmRfZ3J1XzIvUGFydGl0aW9uZWRDYWxsL3doaWxl"}}}, {"name": "StatefulPartitionedCall/CRNN/bigru1/backward_gru_2/PartitionedCall/while/enter/_173", "op": "Enter", "input": ["ConstantFolding/StatefulPartitionedCall/CRNN/bigru1/backward_gru_2/PartitionedCall/unstack-folded-1"], "attr": {"is_constant": {"b": false}, "frame_name": {"s": "U3RhdGVmdWxQYXJ0aXRpb25lZENhbGwvQ1JOTi9iaWdydTEvYmFja3dhcmRfZ3J1XzIvUGFydGl0aW9uZWRDYWxsL3doaWxl"}, "T": {"type": "DT_FLOAT"}, "parallel_iterations": {"i": "32"}}}, {"name": "StatefulPartitionedCall/CRNN/bigru1/backward_gru_2/PartitionedCall/while/enter/_165", "op": "Enter", "input": ["StatefulPartitionedCall/CRNN/bigru1/backward_gru_2/PartitionedCall/time"], "attr": {"frame_name": {"s": "U3RhdGVmdWxQYXJ0aXRpb25lZENhbGwvQ1JOTi9iaWdydTEvYmFja3dhcmRfZ3J1XzIvUGFydGl0aW9uZWRDYWxsL3doaWxl"}, "parallel_iterations": {"i": "32"}, "is_constant": {"b": false}, "T": {"type": "DT_INT32"}}}, {"name": "StatefulPartitionedCall/CRNN/bigru1/backward_gru_2/PartitionedCall/while/enter/_163", "op": "Enter", "input": ["StatefulPartitionedCall/CRNN/bigru1/backward_gru_2/PartitionedCall/while/loop_counter"], "attr": {"frame_name": {"s": "U3RhdGVmdWxQYXJ0aXRpb25lZENhbGwvQ1JOTi9iaWdydTEvYmFja3dhcmRfZ3J1XzIvUGFydGl0aW9uZWRDYWxsL3doaWxl"}, "T": {"type": "DT_INT32"}, "parallel_iterations": {"i": "32"}, "is_constant": {"b": false}}}, {"name": "StatefulPartitionedCall/CRNN/bigru2/backward_gru_3/PartitionedCall/while/enter/_283", "op": "Enter", "input": ["StatefulPartitionedCall/CRNN/bigru2/backward_gru_3/PartitionedCall/while/loop_counter"], "attr": {"is_constant": {"b": false}, "T": {"type": "DT_INT32"}, "frame_name": {"s": "U3RhdGVmdWxQYXJ0aXRpb25lZENhbGwvQ1JOTi9iaWdydTIvYmFja3dhcmRfZ3J1XzMvUGFydGl0aW9uZWRDYWxsL3doaWxl"}, "parallel_iterations": {"i": "32"}}}, {"name": "StatefulPartitionedCall/CRNN/block1_convbn/re_lu_20/Relu", "op": "_FusedConv2D", "input": ["image", "StatefulPartitionedCall/CRNN/block1_convbn/conv2d_18/Conv2D_weights", "StatefulPartitionedCall/CRNN/block1_convbn/conv2d_18/Conv2D_bn_offset"], "device": "/device:CPU:0", "attr": {"num_args": {"i": "1"}, "epsilon": {"f": 0.0}, "strides": {"list": {"i": ["1", "1", "1", "1"]}}, "padding": {"s": "U0FNRQ=="}, "data_format": {"s": "TkhXQw=="}, "explicit_paddings": {"list": {}}, "use_cudnn_on_gpu": {"b": true}, "dilations": {"list": {"i": ["1", "1", "1", "1"]}}, "T": {"type": "DT_FLOAT"}, "fused_ops": {"list": {"s": ["Qmlhc0FkZA==", "UmVsdQ=="]}}}}, {"name": "StatefulPartitionedCall/CRNN/bigru2/forward_gru_3/PartitionedCall/while/merge/_241", "op": "Merge", "input": ["StatefulPartitionedCall/CRNN/bigru2/forward_gru_3/PartitionedCall/while/enter/_230", "StatefulPartitionedCall/CRNN/bigru2/forward_gru_3/PartitionedCall/while/next_iteration/_277"], "attr": {"N": {"i": "2"}, "T": {"type": "DT_FLOAT"}}}, {"name": "StatefulPartitionedCall/CRNN/bigru2/forward_gru_3/PartitionedCall/while/merge/_242", "op": "Merge", "input": ["StatefulPartitionedCall/CRNN/bigru2/forward_gru_3/PartitionedCall/while/enter/_231", "StatefulPartitionedCall/CRNN/bigru2/forward_gru_3/PartitionedCall/while/next_iteration/_278"], "attr": {"T": {"type": "DT_FLOAT"}, "N": {"i": "2"}}}, {"name": "StatefulPartitionedCall/CRNN/bigru2/forward_gru_3/PartitionedCall/while/merge/_243", "op": "Merge", "input": ["StatefulPartitionedCall/CRNN/bigru2/forward_gru_3/PartitionedCall/while/enter/_232", "StatefulPartitionedCall/CRNN/bigru2/forward_gru_3/PartitionedCall/while/next_iteration/_279"], "attr": {"T": {"type": "DT_FLOAT"}, "N": {"i": "2"}}}, {"name": "StatefulPartitionedCall/CRNN/bigru2/forward_gru_3/PartitionedCall/while/merge/_244", "op": "Merge", "input": ["StatefulPartitionedCall/CRNN/bigru2/forward_gru_3/PartitionedCall/while/enter/_233", "StatefulPartitionedCall/CRNN/bigru2/forward_gru_3/PartitionedCall/while/next_iteration/_280"], "attr": {"N": {"i": "2"}, "T": {"type": "DT_FLOAT"}}}, {"name": "StatefulPartitionedCall/CRNN/bigru2/forward_gru_3/PartitionedCall/while/merge/_236", "op": "Merge", "input": ["StatefulPartitionedCall/CRNN/bigru2/forward_gru_3/PartitionedCall/while/enter/_225", "StatefulPartitionedCall/CRNN/bigru2/forward_gru_3/PartitionedCall/while/next_iteration/_272"], "attr": {"N": {"i": "2"}, "T": {"type": "DT_INT32"}}}, {"name": "StatefulPartitionedCall/CRNN/bigru2/forward_gru_3/PartitionedCall/while/merge/_234", "op": "Merge", "input": ["StatefulPartitionedCall/CRNN/bigru2/forward_gru_3/PartitionedCall/while/enter/_223", "StatefulPartitionedCall/CRNN/bigru2/forward_gru_3/PartitionedCall/while/next_iteration/_270"], "attr": {"T": {"type": "DT_INT32"}, "N": {"i": "2"}}}, {"name": "StatefulPartitionedCall/CRNN/bigru2/backward_gru_3/PartitionedCall/while/merge/_301", "op": "Merge", "input": ["StatefulPartitionedCall/CRNN/bigru2/backward_gru_3/PartitionedCall/while/enter/_290", "StatefulPartitionedCall/CRNN/bigru2/backward_gru_3/PartitionedCall/while/next_iteration/_337"], "attr": {"N": {"i": "2"}, "T": {"type": "DT_FLOAT"}}}, {"name": "StatefulPartitionedCall/CRNN/bigru2/backward_gru_3/PartitionedCall/while/merge/_302", "op": "Merge", "input": ["StatefulPartitionedCall/CRNN/bigru2/backward_gru_3/PartitionedCall/while/enter/_291", "StatefulPartitionedCall/CRNN/bigru2/backward_gru_3/PartitionedCall/while/next_iteration/_338"], "attr": {"N": {"i": "2"}, "T": {"type": "DT_FLOAT"}}}, {"name": "StatefulPartitionedCall/CRNN/bigru2/backward_gru_3/PartitionedCall/while/merge/_303", "op": "Merge", "input": ["StatefulPartitionedCall/CRNN/bigru2/backward_gru_3/PartitionedCall/while/enter/_292", "StatefulPartitionedCall/CRNN/bigru2/backward_gru_3/PartitionedCall/while/next_iteration/_339"], "attr": {"T": {"type": "DT_FLOAT"}, "N": {"i": "2"}}}, {"name": "StatefulPartitionedCall/CRNN/bigru2/backward_gru_3/PartitionedCall/while/merge/_304", "op": "Merge", "input": ["StatefulPartitionedCall/CRNN/bigru2/backward_gru_3/PartitionedCall/while/enter/_293", "StatefulPartitionedCall/CRNN/bigru2/backward_gru_3/PartitionedCall/while/next_iteration/_340"], "attr": {"N": {"i": "2"}, "T": {"type": "DT_FLOAT"}}}, {"name": "StatefulPartitionedCall/CRNN/bigru2/backward_gru_3/PartitionedCall/while/merge/_296", "op": "Merge", "input": ["StatefulPartitionedCall/CRNN/bigru2/backward_gru_3/PartitionedCall/while/enter/_285", "StatefulPartitionedCall/CRNN/bigru2/backward_gru_3/PartitionedCall/while/next_iteration/_332"], "attr": {"N": {"i": "2"}, "T": {"type": "DT_INT32"}}}, {"name": "StatefulPartitionedCall/CRNN/bigru1/forward_gru_2/PartitionedCall/while/merge/_121", "op": "Merge", "input": ["StatefulPartitionedCall/CRNN/bigru1/forward_gru_2/PartitionedCall/while/enter/_110", "StatefulPartitionedCall/CRNN/bigru1/forward_gru_2/PartitionedCall/while/next_iteration/_157"], "attr": {"T": {"type": "DT_FLOAT"}, "N": {"i": "2"}}}, {"name": "StatefulPartitionedCall/CRNN/bigru1/forward_gru_2/PartitionedCall/while/merge/_122", "op": "Merge", "input": ["StatefulPartitionedCall/CRNN/bigru1/forward_gru_2/PartitionedCall/while/enter/_111", "StatefulPartitionedCall/CRNN/bigru1/forward_gru_2/PartitionedCall/while/next_iteration/_158"], "attr": {"N": {"i": "2"}, "T": {"type": "DT_FLOAT"}}}, {"name": "StatefulPartitionedCall/CRNN/bigru1/forward_gru_2/PartitionedCall/while/merge/_123", "op": "Merge", "input": ["StatefulPartitionedCall/CRNN/bigru1/forward_gru_2/PartitionedCall/while/enter/_112", "StatefulPartitionedCall/CRNN/bigru1/forward_gru_2/PartitionedCall/while/next_iteration/_159"], "attr": {"T": {"type": "DT_FLOAT"}, "N": {"i": "2"}}}, {"name": "StatefulPartitionedCall/CRNN/bigru1/forward_gru_2/PartitionedCall/while/merge/_124", "op": "Merge", "input": ["StatefulPartitionedCall/CRNN/bigru1/forward_gru_2/PartitionedCall/while/enter/_113", "StatefulPartitionedCall/CRNN/bigru1/forward_gru_2/PartitionedCall/while/next_iteration/_160"], "attr": {"T": {"type": "DT_FLOAT"}, "N": {"i": "2"}}}, {"name": "StatefulPartitionedCall/CRNN/bigru1/forward_gru_2/PartitionedCall/while/merge/_116", "op": "Merge", "input": ["StatefulPartitionedCall/CRNN/bigru1/forward_gru_2/PartitionedCall/while/enter/_105", "StatefulPartitionedCall/CRNN/bigru1/forward_gru_2/PartitionedCall/while/next_iteration/_152"], "attr": {"N": {"i": "2"}, "T": {"type": "DT_INT32"}}}, {"name": "StatefulPartitionedCall/CRNN/bigru1/forward_gru_2/PartitionedCall/while/merge/_114", "op": "Merge", "input": ["StatefulPartitionedCall/CRNN/bigru1/forward_gru_2/PartitionedCall/while/enter/_103", "StatefulPartitionedCall/CRNN/bigru1/forward_gru_2/PartitionedCall/while/next_iteration/_150"], "attr": {"N": {"i": "2"}, "T": {"type": "DT_INT32"}}}, {"name": "StatefulPartitionedCall/CRNN/bigru1/backward_gru_2/PartitionedCall/while/merge/_181", "op": "Merge", "input": ["StatefulPartitionedCall/CRNN/bigru1/backward_gru_2/PartitionedCall/while/enter/_170", "StatefulPartitionedCall/CRNN/bigru1/backward_gru_2/PartitionedCall/while/next_iteration/_217"], "attr": {"T": {"type": "DT_FLOAT"}, "N": {"i": "2"}}}, {"name": "StatefulPartitionedCall/CRNN/bigru1/backward_gru_2/PartitionedCall/while/merge/_182", "op": "Merge", "input": ["StatefulPartitionedCall/CRNN/bigru1/backward_gru_2/PartitionedCall/while/enter/_171", "StatefulPartitionedCall/CRNN/bigru1/backward_gru_2/PartitionedCall/while/next_iteration/_218"], "attr": {"N": {"i": "2"}, "T": {"type": "DT_FLOAT"}}}, {"name": "StatefulPartitionedCall/CRNN/bigru1/backward_gru_2/PartitionedCall/while/merge/_183", "op": "Merge", "input": ["StatefulPartitionedCall/CRNN/bigru1/backward_gru_2/PartitionedCall/while/enter/_172", "StatefulPartitionedCall/CRNN/bigru1/backward_gru_2/PartitionedCall/while/next_iteration/_219"], "attr": {"T": {"type": "DT_FLOAT"}, "N": {"i": "2"}}}, {"name": "StatefulPartitionedCall/CRNN/bigru1/backward_gru_2/PartitionedCall/while/merge/_184", "op": "Merge", "input": ["StatefulPartitionedCall/CRNN/bigru1/backward_gru_2/PartitionedCall/while/enter/_173", "StatefulPartitionedCall/CRNN/bigru1/backward_gru_2/PartitionedCall/while/next_iteration/_220"], "attr": {"N": {"i": "2"}, "T": {"type": "DT_FLOAT"}}}, {"name": "StatefulPartitionedCall/CRNN/bigru1/backward_gru_2/PartitionedCall/while/merge/_176", "op": "Merge", "input": ["StatefulPartitionedCall/CRNN/bigru1/backward_gru_2/PartitionedCall/while/enter/_165", "StatefulPartitionedCall/CRNN/bigru1/backward_gru_2/PartitionedCall/while/next_iteration/_212"], "attr": {"N": {"i": "2"}, "T": {"type": "DT_INT32"}}}, {"name": "StatefulPartitionedCall/CRNN/bigru1/backward_gru_2/PartitionedCall/while/merge/_174", "op": "Merge", "input": ["StatefulPartitionedCall/CRNN/bigru1/backward_gru_2/PartitionedCall/while/enter/_163", "StatefulPartitionedCall/CRNN/bigru1/backward_gru_2/PartitionedCall/while/next_iteration/_210"], "attr": {"T": {"type": "DT_INT32"}, "N": {"i": "2"}}}, {"name": "StatefulPartitionedCall/CRNN/bigru2/backward_gru_3/PartitionedCall/while/merge/_294", "op": "Merge", "input": ["StatefulPartitionedCall/CRNN/bigru2/backward_gru_3/PartitionedCall/while/enter/_283", "StatefulPartitionedCall/CRNN/bigru2/backward_gru_3/PartitionedCall/while/next_iteration/_330"], "attr": {"N": {"i": "2"}, "T": {"type": "DT_INT32"}}}, {"name": "StatefulPartitionedCall/CRNN/block1_pool/MaxPool", "op": "MaxPool", "input": ["StatefulPartitionedCall/CRNN/block1_convbn/re_lu_20/Relu"], "attr": {"explicit_paddings": {"list": {}}, "padding": {"s": "VkFMSUQ="}, "data_format": {"s": "TkhXQw=="}, "ksize": {"list": {"i": ["1", "2", "2", "1"]}}, "T": {"type": "DT_FLOAT"}, "strides": {"list": {"i": ["1", "2", "2", "1"]}}}}, {"name": "StatefulPartitionedCall/CRNN/block2_convbn/re_lu_21/Relu", "op": "_FusedConv2D", "input": ["StatefulPartitionedCall/CRNN/block1_pool/MaxPool", "StatefulPartitionedCall/CRNN/block2_convbn/conv2d_19/Conv2D_weights", "StatefulPartitionedCall/CRNN/block2_convbn/conv2d_19/Conv2D_bn_offset"], "device": "/device:CPU:0", "attr": {"explicit_paddings": {"list": {}}, "dilations": {"list": {"i": ["1", "1", "1", "1"]}}, "num_args": {"i": "1"}, "use_cudnn_on_gpu": {"b": true}, "fused_ops": {"list": {"s": ["Qmlhc0FkZA==", "UmVsdQ=="]}}, "padding": {"s": "U0FNRQ=="}, "strides": {"list": {"i": ["1", "1", "1", "1"]}}, "data_format": {"s": "TkhXQw=="}, "epsilon": {"f": 0.0}, "T": {"type": "DT_FLOAT"}}}, {"name": "StatefulPartitionedCall/CRNN/block2_pool/MaxPool", "op": "MaxPool", "input": ["StatefulPartitionedCall/CRNN/block2_convbn/re_lu_21/Relu"], "attr": {"strides": {"list": {"i": ["1", "2", "2", "1"]}}, "padding": {"s": "VkFMSUQ="}, "T": {"type": "DT_FLOAT"}, "ksize": {"list": {"i": ["1", "2", "2", "1"]}}, "data_format": {"s": "TkhXQw=="}, "explicit_paddings": {"list": {}}}}, {"name": "StatefulPartitionedCall/CRNN/block3_convbn1/re_lu_22/Relu", "op": "_FusedConv2D", "input": ["StatefulPartitionedCall/CRNN/block2_pool/MaxPool", "StatefulPartitionedCall/CRNN/block3_convbn1/conv2d_20/Conv2D_weights", "StatefulPartitionedCall/CRNN/block3_convbn1/conv2d_20/Conv2D_bn_offset"], "device": "/device:CPU:0", "attr": {"use_cudnn_on_gpu": {"b": true}, "T": {"type": "DT_FLOAT"}, "fused_ops": {"list": {"s": ["Qmlhc0FkZA==", "UmVsdQ=="]}}, "epsilon": {"f": 0.0}, "strides": {"list": {"i": ["1", "1", "1", "1"]}}, "dilations": {"list": {"i": ["1", "1", "1", "1"]}}, "padding": {"s": "U0FNRQ=="}, "num_args": {"i": "1"}, "explicit_paddings": {"list": {}}, "data_format": {"s": "TkhXQw=="}}}, {"name": "StatefulPartitionedCall/CRNN/block3_convbn2/re_lu_23/Relu", "op": "_FusedConv2D", "input": ["StatefulPartitionedCall/CRNN/block3_convbn1/re_lu_22/Relu", "StatefulPartitionedCall/CRNN/block3_convbn2/conv2d_21/Conv2D_weights", "StatefulPartitionedCall/CRNN/block3_convbn2/conv2d_21/Conv2D_bn_offset"], "device": "/device:CPU:0", "attr": {"use_cudnn_on_gpu": {"b": true}, "strides": {"list": {"i": ["1", "1", "1", "1"]}}, "num_args": {"i": "1"}, "padding": {"s": "U0FNRQ=="}, "data_format": {"s": "TkhXQw=="}, "T": {"type": "DT_FLOAT"}, "dilations": {"list": {"i": ["1", "1", "1", "1"]}}, "epsilon": {"f": 0.0}, "explicit_paddings": {"list": {}}, "fused_ops": {"list": {"s": ["Qmlhc0FkZA==", "UmVsdQ=="]}}}}, {"name": "StatefulPartitionedCall/CRNN/block3_pool/MaxPool", "op": "MaxPool", "input": ["StatefulPartitionedCall/CRNN/block3_convbn2/re_lu_23/Relu"], "attr": {"strides": {"list": {"i": ["1", "2", "2", "1"]}}, "padding": {"s": "VkFMSUQ="}, "data_format": {"s": "TkhXQw=="}, "T": {"type": "DT_FLOAT"}, "explicit_paddings": {"list": {}}, "ksize": {"list": {"i": ["1", "2", "2", "1"]}}}}, {"name": "StatefulPartitionedCall/CRNN/block4_convbn1/re_lu_24/Relu", "op": "_FusedConv2D", "input": ["StatefulPartitionedCall/CRNN/block3_pool/MaxPool", "StatefulPartitionedCall/CRNN/block4_convbn1/conv2d_22/Conv2D_weights", "StatefulPartitionedCall/CRNN/block4_convbn1/conv2d_22/Conv2D_bn_offset"], "device": "/device:CPU:0", "attr": {"num_args": {"i": "1"}, "strides": {"list": {"i": ["1", "1", "1", "1"]}}, "T": {"type": "DT_FLOAT"}, "fused_ops": {"list": {"s": ["Qmlhc0FkZA==", "UmVsdQ=="]}}, "epsilon": {"f": 0.0}, "padding": {"s": "U0FNRQ=="}, "explicit_paddings": {"list": {}}, "dilations": {"list": {"i": ["1", "1", "1", "1"]}}, "data_format": {"s": "TkhXQw=="}, "use_cudnn_on_gpu": {"b": true}}}, {"name": "StatefulPartitionedCall/CRNN/block4_convbn2/re_lu_25/Relu", "op": "_FusedConv2D", "input": ["StatefulPartitionedCall/CRNN/block4_convbn1/re_lu_24/Relu", "StatefulPartitionedCall/CRNN/block4_convbn2/conv2d_23/Conv2D_weights", "StatefulPartitionedCall/CRNN/block4_convbn2/conv2d_23/Conv2D_bn_offset"], "device": "/device:CPU:0", "attr": {"epsilon": {"f": 0.0}, "use_cudnn_on_gpu": {"b": true}, "num_args": {"i": "1"}, "dilations": {"list": {"i": ["1", "1", "1", "1"]}}, "explicit_paddings": {"list": {}}, "padding": {"s": "U0FNRQ=="}, "fused_ops": {"list": {"s": ["Qmlhc0FkZA==", "UmVsdQ=="]}}, "data_format": {"s": "TkhXQw=="}, "T": {"type": "DT_FLOAT"}, "strides": {"list": {"i": ["1", "1", "1", "1"]}}}}, {"name": "StatefulPartitionedCall/CRNN/block4_pool/MaxPool", "op": "MaxPool", "input": ["StatefulPartitionedCall/CRNN/block4_convbn2/re_lu_25/Relu"], "attr": {"T": {"type": "DT_FLOAT"}, "data_format": {"s": "TkhXQw=="}, "padding": {"s": "VkFMSUQ="}, "explicit_paddings": {"list": {}}, "strides": {"list": {"i": ["1", "2", "2", "1"]}}, "ksize": {"list": {"i": ["1", "2", "2", "1"]}}}}, {"name": "StatefulPartitionedCall/CRNN/block5_convbn1/re_lu_26/Relu", "op": "_FusedConv2D", "input": ["StatefulPartitionedCall/CRNN/block4_pool/MaxPool", "StatefulPartitionedCall/CRNN/block5_convbn1/conv2d_24/Conv2D_weights", "StatefulPartitionedCall/CRNN/block5_convbn1/conv2d_24/Conv2D_bn_offset"], "device": "/device:CPU:0", "attr": {"use_cudnn_on_gpu": {"b": true}, "fused_ops": {"list": {"s": ["Qmlhc0FkZA==", "UmVsdQ=="]}}, "data_format": {"s": "TkhXQw=="}, "epsilon": {"f": 0.0}, "explicit_paddings": {"list": {}}, "strides": {"list": {"i": ["1", "1", "1", "1"]}}, "num_args": {"i": "1"}, "padding": {"s": "VkFMSUQ="}, "T": {"type": "DT_FLOAT"}, "dilations": {"list": {"i": ["1", "1", "1", "1"]}}}}, {"name": "StatefulPartitionedCall/CRNN/block5_convbn2/re_lu_27/Relu", "op": "_FusedConv2D", "input": ["StatefulPartitionedCall/CRNN/block5_convbn1/re_lu_26/Relu", "StatefulPartitionedCall/CRNN/block5_convbn2/conv2d_25/Conv2D_weights", "StatefulPartitionedCall/CRNN/block5_convbn2/conv2d_25/Conv2D_bn_offset"], "device": "/device:CPU:0", "attr": {"T": {"type": "DT_FLOAT"}, "dilations": {"list": {"i": ["1", "1", "1", "1"]}}, "epsilon": {"f": 0.0}, "num_args": {"i": "1"}, "strides": {"list": {"i": ["1", "1", "1", "1"]}}, "explicit_paddings": {"list": {}}, "padding": {"s": "VkFMSUQ="}, "data_format": {"s": "TkhXQw=="}, "fused_ops": {"list": {"s": ["Qmlhc0FkZA==", "UmVsdQ=="]}}, "use_cudnn_on_gpu": {"b": true}}}, {"name": "StatefulPartitionedCall/CRNN/reshape_1/Shape", "op": "Shape", "input": ["StatefulPartitionedCall/CRNN/block5_convbn2/re_lu_27/Relu"], "attr": {"T": {"type": "DT_FLOAT"}, "out_type": {"type": "DT_INT32"}}}, {"name": "StatefulPartitionedCall/CRNN/reshape_1/strided_slice", "op": "StridedSlice", "input": ["StatefulPartitionedCall/CRNN/reshape_1/Shape", "StatefulPartitionedCall/CRNN/reshape_1/strided_slice/stack", "StatefulPartitionedCall/CRNN/reshape_1/strided_slice/stack_1", "StatefulPartitionedCall/CRNN/reshape_1/strided_slice/stack_2"], "attr": {"begin_mask": {"i": "0"}, "shrink_axis_mask": {"i": "1"}, "end_mask": {"i": "0"}, "Index": {"type": "DT_INT32"}, "new_axis_mask": {"i": "0"}, "T": {"type": "DT_INT32"}, "ellipsis_mask": {"i": "0"}}}, {"name": "StatefulPartitionedCall/CRNN/reshape_1/Reshape/shape", "op": "Pack", "input": ["StatefulPartitionedCall/CRNN/reshape_1/strided_slice", "StatefulPartitionedCall/CRNN/reshape_1/Reshape/shape/1", "StatefulPartitionedCall/CRNN/reshape_1/Reshape/shape/2"], "attr": {"axis": {"i": "0"}, "N": {"i": "3"}, "T": {"type": "DT_INT32"}}}, {"name": "StatefulPartitionedCall/CRNN/reshape_1/Reshape", "op": "Reshape", "input": ["StatefulPartitionedCall/CRNN/block5_convbn2/re_lu_27/Relu", "StatefulPartitionedCall/CRNN/reshape_1/Reshape/shape"], "attr": {"Tshape": {"type": "DT_INT32"}, "T": {"type": "DT_FLOAT"}}}, {"name": "StatefulPartitionedCall/CRNN/bigru1/forward_gru_2/Shape", "op": "Shape", "input": ["StatefulPartitionedCall/CRNN/reshape_1/Reshape"], "attr": {"T": {"type": "DT_FLOAT"}, "out_type": {"type": "DT_INT32"}}}, {"name": "StatefulPartitionedCall/CRNN/bigru1/forward_gru_2/PartitionedCall/transpose", "op": "Transpose", "input": ["StatefulPartitionedCall/CRNN/reshape_1/Reshape", "StatefulPartitionedCall/CRNN/bigru1/forward_gru_2/PartitionedCall/transpose/perm"], "attr": {"T": {"type": "DT_FLOAT"}, "Tperm": {"type": "DT_INT32"}}}, {"name": "StatefulPartitionedCall/CRNN/bigru1/backward_gru_2/Shape", "op": "Shape", "input": ["StatefulPartitionedCall/CRNN/reshape_1/Reshape"], "attr": {"T": {"type": "DT_FLOAT"}, "out_type": {"type": "DT_INT32"}}}, {"name": "StatefulPartitionedCall/CRNN/bigru1/backward_gru_2/PartitionedCall/transpose", "op": "Transpose", "input": ["StatefulPartitionedCall/CRNN/reshape_1/Reshape", "StatefulPartitionedCall/CRNN/bigru1/backward_gru_2/PartitionedCall/transpose/perm"], "attr": {"Tperm": {"type": "DT_INT32"}, "T": {"type": "DT_FLOAT"}}}, {"name": "StatefulPartitionedCall/CRNN/bigru1/forward_gru_2/strided_slice", "op": "StridedSlice", "input": ["StatefulPartitionedCall/CRNN/bigru1/forward_gru_2/Shape", "StatefulPartitionedCall/CRNN/bigru1/forward_gru_2/strided_slice/stack", "StatefulPartitionedCall/CRNN/bigru1/forward_gru_2/strided_slice/stack_1", "StatefulPartitionedCall/CRNN/bigru1/forward_gru_2/strided_slice/stack_2"], "attr": {"ellipsis_mask": {"i": "0"}, "begin_mask": {"i": "0"}, "T": {"type": "DT_INT32"}, "end_mask": {"i": "0"}, "shrink_axis_mask": {"i": "1"}, "new_axis_mask": {"i": "0"}, "Index": {"type": "DT_INT32"}}}, {"name": "StatefulPartitionedCall/CRNN/bigru1/forward_gru_2/PartitionedCall/TensorArrayUnstack/TensorListFromTensor", "op": "TensorListFromTensor", "input": ["StatefulPartitionedCall/CRNN/bigru1/forward_gru_2/PartitionedCall/transpose", "StatefulPartitionedCall/CRNN/bigru1/forward_gru_2/PartitionedCall/TensorArrayUnstack/TensorListFromTensor/element_shape"], "attr": {"shape_type": {"type": "DT_INT32"}, "element_dtype": {"type": "DT_FLOAT"}}}, {"name": "StatefulPartitionedCall/CRNN/bigru1/forward_gru_2/PartitionedCall/Shape", "op": "Shape", "input": ["StatefulPartitionedCall/CRNN/bigru1/forward_gru_2/PartitionedCall/transpose"], "attr": {"T": {"type": "DT_FLOAT"}, "out_type": {"type": "DT_INT32"}}}, {"name": "StatefulPartitionedCall/CRNN/bigru1/backward_gru_2/strided_slice", "op": "StridedSlice", "input": ["StatefulPartitionedCall/CRNN/bigru1/backward_gru_2/Shape", "StatefulPartitionedCall/CRNN/bigru1/backward_gru_2/strided_slice/stack", "StatefulPartitionedCall/CRNN/bigru1/backward_gru_2/strided_slice/stack_1", "StatefulPartitionedCall/CRNN/bigru1/backward_gru_2/strided_slice/stack_2"], "attr": {"ellipsis_mask": {"i": "0"}, "shrink_axis_mask": {"i": "1"}, "Index": {"type": "DT_INT32"}, "new_axis_mask": {"i": "0"}, "end_mask": {"i": "0"}, "T": {"type": "DT_INT32"}, "begin_mask": {"i": "0"}}}, {"name": "StatefulPartitionedCall/CRNN/bigru1/backward_gru_2/PartitionedCall/ReverseV2", "op": "ReverseV2", "input": ["StatefulPartitionedCall/CRNN/bigru1/backward_gru_2/PartitionedCall/transpose", "StatefulPartitionedCall/CRNN/bigru1/backward_gru_2/PartitionedCall/ReverseV2/axis"], "attr": {"Tidx": {"type": "DT_INT32"}, "T": {"type": "DT_FLOAT"}}}, {"name": "StatefulPartitionedCall/CRNN/bigru1/backward_gru_2/PartitionedCall/Shape", "op": "Shape", "input": ["StatefulPartitionedCall/CRNN/bigru1/backward_gru_2/PartitionedCall/transpose"], "attr": {"T": {"type": "DT_FLOAT"}, "out_type": {"type": "DT_INT32"}}}, {"name": "StatefulPartitionedCall/CRNN/bigru1/forward_gru_2/zeros/packed", "op": "Pack", "input": ["StatefulPartitionedCall/CRNN/bigru1/forward_gru_2/strided_slice", "StatefulPartitionedCall/CRNN/bigru1/forward_gru_2/zeros/packed/1"], "attr": {"T": {"type": "DT_INT32"}, "N": {"i": "2"}, "axis": {"i": "0"}}}, {"name": "StatefulPartitionedCall/CRNN/bigru1/forward_gru_2/PartitionedCall/while/enter/_109", "op": "Enter", "input": ["StatefulPartitionedCall/CRNN/bigru1/forward_gru_2/PartitionedCall/TensorArrayUnstack/TensorListFromTensor"], "attr": {"is_constant": {"b": false}, "frame_name": {"s": "U3RhdGVmdWxQYXJ0aXRpb25lZENhbGwvQ1JOTi9iaWdydTEvZm9yd2FyZF9ncnVfMi9QYXJ0aXRpb25lZENhbGwvd2hpbGU="}, "T": {"type": "DT_VARIANT"}, "parallel_iterations": {"i": "32"}}}, {"name": "StatefulPartitionedCall/CRNN/bigru1/forward_gru_2/PartitionedCall/strided_slice", "op": "StridedSlice", "input": ["StatefulPartitionedCall/CRNN/bigru1/forward_gru_2/PartitionedCall/Shape", "StatefulPartitionedCall/CRNN/bigru1/forward_gru_2/PartitionedCall/strided_slice/stack", "StatefulPartitionedCall/CRNN/bigru1/forward_gru_2/PartitionedCall/strided_slice/stack_1", "StatefulPartitionedCall/CRNN/bigru1/forward_gru_2/PartitionedCall/strided_slice/stack_2"], "attr": {"T": {"type": "DT_INT32"}, "Index": {"type": "DT_INT32"}, "new_axis_mask": {"i": "0"}, "shrink_axis_mask": {"i": "1"}, "begin_mask": {"i": "0"}, "end_mask": {"i": "0"}, "ellipsis_mask": {"i": "0"}}}, {"name": "StatefulPartitionedCall/CRNN/bigru1/backward_gru_2/zeros/packed", "op": "Pack", "input": ["StatefulPartitionedCall/CRNN/bigru1/backward_gru_2/strided_slice", "StatefulPartitionedCall/CRNN/bigru1/backward_gru_2/zeros/packed/1"], "attr": {"T": {"type": "DT_INT32"}, "N": {"i": "2"}, "axis": {"i": "0"}}}, {"name": "StatefulPartitionedCall/CRNN/bigru1/backward_gru_2/PartitionedCall/TensorArrayUnstack/TensorListFromTensor", "op": "TensorListFromTensor", "input": ["StatefulPartitionedCall/CRNN/bigru1/backward_gru_2/PartitionedCall/ReverseV2", "StatefulPartitionedCall/CRNN/bigru1/backward_gru_2/PartitionedCall/TensorArrayUnstack/TensorListFromTensor/element_shape"], "attr": {"element_dtype": {"type": "DT_FLOAT"}, "shape_type": {"type": "DT_INT32"}}}, {"name": "StatefulPartitionedCall/CRNN/bigru1/backward_gru_2/PartitionedCall/strided_slice", "op": "StridedSlice", "input": ["StatefulPartitionedCall/CRNN/bigru1/backward_gru_2/PartitionedCall/Shape", "StatefulPartitionedCall/CRNN/bigru1/backward_gru_2/PartitionedCall/strided_slice/stack", "StatefulPartitionedCall/CRNN/bigru1/backward_gru_2/PartitionedCall/strided_slice/stack_1", "StatefulPartitionedCall/CRNN/bigru1/backward_gru_2/PartitionedCall/strided_slice/stack_2"], "attr": {"Index": {"type": "DT_INT32"}, "begin_mask": {"i": "0"}, "end_mask": {"i": "0"}, "new_axis_mask": {"i": "0"}, "shrink_axis_mask": {"i": "1"}, "T": {"type": "DT_INT32"}, "ellipsis_mask": {"i": "0"}}}, {"name": "StatefulPartitionedCall/CRNN/bigru1/forward_gru_2/zeros", "op": "Fill", "input": ["StatefulPartitionedCall/CRNN/bigru1/forward_gru_2/zeros/packed", "StatefulPartitionedCall/CRNN/bigru1/forward_gru_2/zeros/Const"], "attr": {"T": {"type": "DT_FLOAT"}, "index_type": {"type": "DT_INT32"}}}, {"name": "StatefulPartitionedCall/CRNN/bigru1/forward_gru_2/PartitionedCall/while/merge/_120", "op": "Merge", "input": ["StatefulPartitionedCall/CRNN/bigru1/forward_gru_2/PartitionedCall/while/enter/_109", "StatefulPartitionedCall/CRNN/bigru1/forward_gru_2/PartitionedCall/while/next_iteration/_156"], "attr": {"T": {"type": "DT_VARIANT"}, "N": {"i": "2"}}}, {"name": "StatefulPartitionedCall/CRNN/bigru1/forward_gru_2/PartitionedCall/TensorArrayV2_1", "op": "TensorListReserve", "input": ["StatefulPartitionedCall/CRNN/bigru1/forward_gru_2/PartitionedCall/TensorArrayV2_1/element_shape", "StatefulPartitionedCall/CRNN/bigru1/forward_gru_2/PartitionedCall/strided_slice"], "attr": {"element_dtype": {"type": "DT_FLOAT"}, "shape_type": {"type": "DT_INT32"}}}, {"name": "StatefulPartitionedCall/CRNN/bigru1/forward_gru_2/PartitionedCall/while/enter/_108", "op": "Enter", "input": ["StatefulPartitionedCall/CRNN/bigru1/forward_gru_2/PartitionedCall/strided_slice"], "attr": {"is_constant": {"b": false}, "frame_name": {"s": "U3RhdGVmdWxQYXJ0aXRpb25lZENhbGwvQ1JOTi9iaWdydTEvZm9yd2FyZF9ncnVfMi9QYXJ0aXRpb25lZENhbGwvd2hpbGU="}, "parallel_iterations": {"i": "32"}, "T": {"type": "DT_INT32"}}}, {"name": "StatefulPartitionedCall/CRNN/bigru1/backward_gru_2/zeros", "op": "Fill", "input": ["StatefulPartitionedCall/CRNN/bigru1/backward_gru_2/zeros/packed", "StatefulPartitionedCall/CRNN/bigru1/backward_gru_2/zeros/Const"], "attr": {"index_type": {"type": "DT_INT32"}, "T": {"type": "DT_FLOAT"}}}, {"name": "StatefulPartitionedCall/CRNN/bigru1/backward_gru_2/PartitionedCall/while/enter/_169", "op": "Enter", "input": ["StatefulPartitionedCall/CRNN/bigru1/backward_gru_2/PartitionedCall/TensorArrayUnstack/TensorListFromTensor"], "attr": {"is_constant": {"b": false}, "T": {"type": "DT_VARIANT"}, "frame_name": {"s": "U3RhdGVmdWxQYXJ0aXRpb25lZENhbGwvQ1JOTi9iaWdydTEvYmFja3dhcmRfZ3J1XzIvUGFydGl0aW9uZWRDYWxsL3doaWxl"}, "parallel_iterations": {"i": "32"}}}, {"name": "StatefulPartitionedCall/CRNN/bigru1/backward_gru_2/PartitionedCall/TensorArrayV2_1", "op": "TensorListReserve", "input": ["StatefulPartitionedCall/CRNN/bigru1/backward_gru_2/PartitionedCall/TensorArrayV2_1/element_shape", "StatefulPartitionedCall/CRNN/bigru1/backward_gru_2/PartitionedCall/strided_slice"], "attr": {"element_dtype": {"type": "DT_FLOAT"}, "shape_type": {"type": "DT_INT32"}}}, {"name": "StatefulPartitionedCall/CRNN/bigru1/backward_gru_2/PartitionedCall/while/enter/_168", "op": "Enter", "input": ["StatefulPartitionedCall/CRNN/bigru1/backward_gru_2/PartitionedCall/strided_slice"], "attr": {"frame_name": {"s": "U3RhdGVmdWxQYXJ0aXRpb25lZENhbGwvQ1JOTi9iaWdydTEvYmFja3dhcmRfZ3J1XzIvUGFydGl0aW9uZWRDYWxsL3doaWxl"}, "parallel_iterations": {"i": "32"}, "is_constant": {"b": false}, "T": {"type": "DT_INT32"}}}, {"name": "StatefulPartitionedCall/CRNN/bigru1/forward_gru_2/PartitionedCall/while/enter/_107", "op": "Enter", "input": ["StatefulPartitionedCall/CRNN/bigru1/forward_gru_2/zeros"], "attr": {"frame_name": {"s": "U3RhdGVmdWxQYXJ0aXRpb25lZENhbGwvQ1JOTi9iaWdydTEvZm9yd2FyZF9ncnVfMi9QYXJ0aXRpb25lZENhbGwvd2hpbGU="}, "is_constant": {"b": false}, "parallel_iterations": {"i": "32"}, "T": {"type": "DT_FLOAT"}}}, {"name": "StatefulPartitionedCall/CRNN/bigru1/forward_gru_2/PartitionedCall/while/enter/_106", "op": "Enter", "input": ["StatefulPartitionedCall/CRNN/bigru1/forward_gru_2/PartitionedCall/TensorArrayV2_1"], "attr": {"parallel_iterations": {"i": "32"}, "T": {"type": "DT_VARIANT"}, "is_constant": {"b": false}, "frame_name": {"s": "U3RhdGVmdWxQYXJ0aXRpb25lZENhbGwvQ1JOTi9iaWdydTEvZm9yd2FyZF9ncnVfMi9QYXJ0aXRpb25lZENhbGwvd2hpbGU="}}}, {"name": "StatefulPartitionedCall/CRNN/bigru1/forward_gru_2/PartitionedCall/while/merge/_119", "op": "Merge", "input": ["StatefulPartitionedCall/CRNN/bigru1/forward_gru_2/PartitionedCall/while/enter/_108", "StatefulPartitionedCall/CRNN/bigru1/forward_gru_2/PartitionedCall/while/next_iteration/_155"], "attr": {"T": {"type": "DT_INT32"}, "N": {"i": "2"}}}, {"name": "StatefulPartitionedCall/CRNN/bigru1/backward_gru_2/PartitionedCall/while/enter/_167", "op": "Enter", "input": ["StatefulPartitionedCall/CRNN/bigru1/backward_gru_2/zeros"], "attr": {"is_constant": {"b": false}, "frame_name": {"s": "U3RhdGVmdWxQYXJ0aXRpb25lZENhbGwvQ1JOTi9iaWdydTEvYmFja3dhcmRfZ3J1XzIvUGFydGl0aW9uZWRDYWxsL3doaWxl"}, "T": {"type": "DT_FLOAT"}, "parallel_iterations": {"i": "32"}}}, {"name": "StatefulPartitionedCall/CRNN/bigru1/backward_gru_2/PartitionedCall/while/merge/_180", "op": "Merge", "input": ["StatefulPartitionedCall/CRNN/bigru1/backward_gru_2/PartitionedCall/while/enter/_169", "StatefulPartitionedCall/CRNN/bigru1/backward_gru_2/PartitionedCall/while/next_iteration/_216"], "attr": {"T": {"type": "DT_VARIANT"}, "N": {"i": "2"}}}, {"name": "StatefulPartitionedCall/CRNN/bigru1/backward_gru_2/PartitionedCall/while/enter/_166", "op": "Enter", "input": ["StatefulPartitionedCall/CRNN/bigru1/backward_gru_2/PartitionedCall/TensorArrayV2_1"], "attr": {"parallel_iterations": {"i": "32"}, "frame_name": {"s": "U3RhdGVmdWxQYXJ0aXRpb25lZENhbGwvQ1JOTi9iaWdydTEvYmFja3dhcmRfZ3J1XzIvUGFydGl0aW9uZWRDYWxsL3doaWxl"}, "is_constant": {"b": false}, "T": {"type": "DT_VARIANT"}}}, {"name": "StatefulPartitionedCall/CRNN/bigru1/backward_gru_2/PartitionedCall/while/merge/_179", "op": "Merge", "input": ["StatefulPartitionedCall/CRNN/bigru1/backward_gru_2/PartitionedCall/while/enter/_168", "StatefulPartitionedCall/CRNN/bigru1/backward_gru_2/PartitionedCall/while/next_iteration/_215"], "attr": {"N": {"i": "2"}, "T": {"type": "DT_INT32"}}}, {"name": "StatefulPartitionedCall/CRNN/bigru1/forward_gru_2/PartitionedCall/while/merge/_118", "op": "Merge", "input": ["StatefulPartitionedCall/CRNN/bigru1/forward_gru_2/PartitionedCall/while/enter/_107", "StatefulPartitionedCall/CRNN/bigru1/forward_gru_2/PartitionedCall/while/next_iteration/_154"], "attr": {"N": {"i": "2"}, "T": {"type": "DT_FLOAT"}}}, {"name": "StatefulPartitionedCall/CRNN/bigru1/forward_gru_2/PartitionedCall/while/merge/_117", "op": "Merge", "input": ["StatefulPartitionedCall/CRNN/bigru1/forward_gru_2/PartitionedCall/while/enter/_106", "StatefulPartitionedCall/CRNN/bigru1/forward_gru_2/PartitionedCall/while/next_iteration/_153"], "attr": {"N": {"i": "2"}, "T": {"type": "DT_VARIANT"}}}, {"name": "StatefulPartitionedCall/CRNN/bigru1/forward_gru_2/PartitionedCall/while/cond/_101/while/Less", "op": "Less", "input": ["StatefulPartitionedCall/CRNN/bigru1/forward_gru_2/PartitionedCall/while/merge/_116", "StatefulPartitionedCall/CRNN/bigru1/forward_gru_2/PartitionedCall/while/merge/_119", "^StatefulPartitionedCall/CRNN/bigru1/forward_gru_2/PartitionedCall/while/merge/_114"], "attr": {"T": {"type": "DT_INT32"}}}, {"name": "StatefulPartitionedCall/CRNN/bigru1/backward_gru_2/PartitionedCall/while/merge/_178", "op": "Merge", "input": ["StatefulPartitionedCall/CRNN/bigru1/backward_gru_2/PartitionedCall/while/enter/_167", "StatefulPartitionedCall/CRNN/bigru1/backward_gru_2/PartitionedCall/while/next_iteration/_214"], "attr": {"N": {"i": "2"}, "T": {"type": "DT_FLOAT"}}}, {"name": "StatefulPartitionedCall/CRNN/bigru1/backward_gru_2/PartitionedCall/while/merge/_177", "op": "Merge", "input": ["StatefulPartitionedCall/CRNN/bigru1/backward_gru_2/PartitionedCall/while/enter/_166", "StatefulPartitionedCall/CRNN/bigru1/backward_gru_2/PartitionedCall/while/next_iteration/_213"], "attr": {"N": {"i": "2"}, "T": {"type": "DT_VARIANT"}}}, {"name": "StatefulPartitionedCall/CRNN/bigru1/backward_gru_2/PartitionedCall/while/cond/_161/while/Less", "op": "Less", "input": ["StatefulPartitionedCall/CRNN/bigru1/backward_gru_2/PartitionedCall/while/merge/_176", "StatefulPartitionedCall/CRNN/bigru1/backward_gru_2/PartitionedCall/while/merge/_179", "^StatefulPartitionedCall/CRNN/bigru1/backward_gru_2/PartitionedCall/while/merge/_174"], "attr": {"T": {"type": "DT_INT32"}}}, {"name": "StatefulPartitionedCall/CRNN/bigru1/forward_gru_2/PartitionedCall/while/LoopCond/_125", "op": "LoopCond", "input": ["StatefulPartitionedCall/CRNN/bigru1/forward_gru_2/PartitionedCall/while/cond/_101/while/Less"]}, {"name": "StatefulPartitionedCall/CRNN/bigru1/backward_gru_2/PartitionedCall/while/LoopCond/_185", "op": "LoopCond", "input": ["StatefulPartitionedCall/CRNN/bigru1/backward_gru_2/PartitionedCall/while/cond/_161/while/Less"]}, {"name": "StatefulPartitionedCall/CRNN/bigru1/forward_gru_2/PartitionedCall/while/StatefulPartitionedCall/CRNN/bigru1/forward_gru_2/PartitionedCall/TensorArrayUnstack/TensorListFromTensor_switch/_132", "op": "Switch", "input": ["StatefulPartitionedCall/CRNN/bigru1/forward_gru_2/PartitionedCall/while/merge/_120", "StatefulPartitionedCall/CRNN/bigru1/forward_gru_2/PartitionedCall/while/LoopCond/_125"], "attr": {"T": {"type": "DT_VARIANT"}}}, {"name": "StatefulPartitionedCall/CRNN/bigru1/forward_gru_2/PartitionedCall/while/Func/StatefulPartitionedCall/CRNN/bigru1/forward_gru_2/PartitionedCall/input/_67_switch/_133", "op": "Switch", "input": ["StatefulPartitionedCall/CRNN/bigru1/forward_gru_2/PartitionedCall/while/merge/_121", "StatefulPartitionedCall/CRNN/bigru1/forward_gru_2/PartitionedCall/while/LoopCond/_125"], "attr": {"T": {"type": "DT_FLOAT"}}}, {"name": "StatefulPartitionedCall/CRNN/bigru1/forward_gru_2/PartitionedCall/while/StatefulPartitionedCall/CRNN/bigru1/forward_gru_2/PartitionedCall/unstack_switch/_134", "op": "Switch", "input": ["StatefulPartitionedCall/CRNN/bigru1/forward_gru_2/PartitionedCall/while/merge/_122", "StatefulPartitionedCall/CRNN/bigru1/forward_gru_2/PartitionedCall/while/LoopCond/_125"], "attr": {"T": {"type": "DT_FLOAT"}}}, {"name": "StatefulPartitionedCall/CRNN/bigru1/forward_gru_2/PartitionedCall/while/Func/StatefulPartitionedCall/CRNN/bigru1/forward_gru_2/PartitionedCall/input/_66_switch/_130", "op": "Switch", "input": ["StatefulPartitionedCall/CRNN/bigru1/forward_gru_2/PartitionedCall/while/merge/_118", "StatefulPartitionedCall/CRNN/bigru1/forward_gru_2/PartitionedCall/while/LoopCond/_125"], "attr": {"T": {"type": "DT_FLOAT"}}}, {"name": "StatefulPartitionedCall/CRNN/bigru1/forward_gru_2/PartitionedCall/while/Func/StatefulPartitionedCall/CRNN/bigru1/forward_gru_2/PartitionedCall/input/_68_switch/_135", "op": "Switch", "input": ["StatefulPartitionedCall/CRNN/bigru1/forward_gru_2/PartitionedCall/while/merge/_123", "StatefulPartitionedCall/CRNN/bigru1/forward_gru_2/PartitionedCall/while/LoopCond/_125"], "attr": {"T": {"type": "DT_FLOAT"}}}, {"name": "StatefulPartitionedCall/CRNN/bigru1/forward_gru_2/PartitionedCall/while/StatefulPartitionedCall/CRNN/bigru1/forward_gru_2/PartitionedCall/unstack_switch/_136", "op": "Switch", "input": ["StatefulPartitionedCall/CRNN/bigru1/forward_gru_2/PartitionedCall/while/merge/_124", "StatefulPartitionedCall/CRNN/bigru1/forward_gru_2/PartitionedCall/while/LoopCond/_125"], "attr": {"T": {"type": "DT_FLOAT"}}}, {"name": "StatefulPartitionedCall/CRNN/bigru1/forward_gru_2/PartitionedCall/while/StatefulPartitionedCall/CRNN/bigru1/forward_gru_2/PartitionedCall/time_switch/_128", "op": "Switch", "input": ["StatefulPartitionedCall/CRNN/bigru1/forward_gru_2/PartitionedCall/while/merge/_116", "StatefulPartitionedCall/CRNN/bigru1/forward_gru_2/PartitionedCall/while/LoopCond/_125"], "attr": {"T": {"type": "DT_INT32"}}}, {"name": "StatefulPartitionedCall/CRNN/bigru1/forward_gru_2/PartitionedCall/while/StatefulPartitionedCall/CRNN/bigru1/forward_gru_2/PartitionedCall/while/loop_counter_switch/_126", "op": "Switch", "input": ["StatefulPartitionedCall/CRNN/bigru1/forward_gru_2/PartitionedCall/while/merge/_114", "StatefulPartitionedCall/CRNN/bigru1/forward_gru_2/PartitionedCall/while/LoopCond/_125"], "attr": {"T": {"type": "DT_INT32"}}}, {"name": "StatefulPartitionedCall/CRNN/bigru1/forward_gru_2/PartitionedCall/while/StatefulPartitionedCall/CRNN/bigru1/forward_gru_2/PartitionedCall/TensorArrayV2_1_switch/_129", "op": "Switch", "input": ["StatefulPartitionedCall/CRNN/bigru1/forward_gru_2/PartitionedCall/while/merge/_117", "StatefulPartitionedCall/CRNN/bigru1/forward_gru_2/PartitionedCall/while/LoopCond/_125"], "attr": {"T": {"type": "DT_VARIANT"}}}, {"name": "StatefulPartitionedCall/CRNN/bigru1/forward_gru_2/PartitionedCall/while/StatefulPartitionedCall/CRNN/bigru1/forward_gru_2/PartitionedCall/strided_slice_switch/_131", "op": "Switch", "input": ["StatefulPartitionedCall/CRNN/bigru1/forward_gru_2/PartitionedCall/while/merge/_119", "StatefulPartitionedCall/CRNN/bigru1/forward_gru_2/PartitionedCall/while/LoopCond/_125"], "attr": {"T": {"type": "DT_INT32"}}}, {"name": "StatefulPartitionedCall/CRNN/bigru1/backward_gru_2/PartitionedCall/while/StatefulPartitionedCall/CRNN/bigru1/backward_gru_2/PartitionedCall/TensorArrayUnstack/TensorListFromTensor_switch/_192", "op": "Switch", "input": ["StatefulPartitionedCall/CRNN/bigru1/backward_gru_2/PartitionedCall/while/merge/_180", "StatefulPartitionedCall/CRNN/bigru1/backward_gru_2/PartitionedCall/while/LoopCond/_185"], "attr": {"T": {"type": "DT_VARIANT"}}}, {"name": "StatefulPartitionedCall/CRNN/bigru1/backward_gru_2/PartitionedCall/while/Func/StatefulPartitionedCall/CRNN/bigru1/backward_gru_2/PartitionedCall/input/_76_switch/_193", "op": "Switch", "input": ["StatefulPartitionedCall/CRNN/bigru1/backward_gru_2/PartitionedCall/while/merge/_181", "StatefulPartitionedCall/CRNN/bigru1/backward_gru_2/PartitionedCall/while/LoopCond/_185"], "attr": {"T": {"type": "DT_FLOAT"}}}, {"name": "StatefulPartitionedCall/CRNN/bigru1/backward_gru_2/PartitionedCall/while/StatefulPartitionedCall/CRNN/bigru1/backward_gru_2/PartitionedCall/unstack_switch/_194", "op": "Switch", "input": ["StatefulPartitionedCall/CRNN/bigru1/backward_gru_2/PartitionedCall/while/merge/_182", "StatefulPartitionedCall/CRNN/bigru1/backward_gru_2/PartitionedCall/while/LoopCond/_185"], "attr": {"T": {"type": "DT_FLOAT"}}}, {"name": "StatefulPartitionedCall/CRNN/bigru1/backward_gru_2/PartitionedCall/while/Func/StatefulPartitionedCall/CRNN/bigru1/backward_gru_2/PartitionedCall/input/_75_switch/_190", "op": "Switch", "input": ["StatefulPartitionedCall/CRNN/bigru1/backward_gru_2/PartitionedCall/while/merge/_178", "StatefulPartitionedCall/CRNN/bigru1/backward_gru_2/PartitionedCall/while/LoopCond/_185"], "attr": {"T": {"type": "DT_FLOAT"}}}, {"name": "StatefulPartitionedCall/CRNN/bigru1/backward_gru_2/PartitionedCall/while/Func/StatefulPartitionedCall/CRNN/bigru1/backward_gru_2/PartitionedCall/input/_77_switch/_195", "op": "Switch", "input": ["StatefulPartitionedCall/CRNN/bigru1/backward_gru_2/PartitionedCall/while/merge/_183", "StatefulPartitionedCall/CRNN/bigru1/backward_gru_2/PartitionedCall/while/LoopCond/_185"], "attr": {"T": {"type": "DT_FLOAT"}}}, {"name": "StatefulPartitionedCall/CRNN/bigru1/backward_gru_2/PartitionedCall/while/StatefulPartitionedCall/CRNN/bigru1/backward_gru_2/PartitionedCall/unstack_switch/_196", "op": "Switch", "input": ["StatefulPartitionedCall/CRNN/bigru1/backward_gru_2/PartitionedCall/while/merge/_184", "StatefulPartitionedCall/CRNN/bigru1/backward_gru_2/PartitionedCall/while/LoopCond/_185"], "attr": {"T": {"type": "DT_FLOAT"}}}, {"name": "StatefulPartitionedCall/CRNN/bigru1/backward_gru_2/PartitionedCall/while/StatefulPartitionedCall/CRNN/bigru1/backward_gru_2/PartitionedCall/time_switch/_188", "op": "Switch", "input": ["StatefulPartitionedCall/CRNN/bigru1/backward_gru_2/PartitionedCall/while/merge/_176", "StatefulPartitionedCall/CRNN/bigru1/backward_gru_2/PartitionedCall/while/LoopCond/_185"], "attr": {"T": {"type": "DT_INT32"}}}, {"name": "StatefulPartitionedCall/CRNN/bigru1/backward_gru_2/PartitionedCall/while/StatefulPartitionedCall/CRNN/bigru1/backward_gru_2/PartitionedCall/while/loop_counter_switch/_186", "op": "Switch", "input": ["StatefulPartitionedCall/CRNN/bigru1/backward_gru_2/PartitionedCall/while/merge/_174", "StatefulPartitionedCall/CRNN/bigru1/backward_gru_2/PartitionedCall/while/LoopCond/_185"], "attr": {"T": {"type": "DT_INT32"}}}, {"name": "StatefulPartitionedCall/CRNN/bigru1/backward_gru_2/PartitionedCall/while/StatefulPartitionedCall/CRNN/bigru1/backward_gru_2/PartitionedCall/TensorArrayV2_1_switch/_189", "op": "Switch", "input": ["StatefulPartitionedCall/CRNN/bigru1/backward_gru_2/PartitionedCall/while/merge/_177", "StatefulPartitionedCall/CRNN/bigru1/backward_gru_2/PartitionedCall/while/LoopCond/_185"], "attr": {"T": {"type": "DT_VARIANT"}}}, {"name": "StatefulPartitionedCall/CRNN/bigru1/backward_gru_2/PartitionedCall/while/StatefulPartitionedCall/CRNN/bigru1/backward_gru_2/PartitionedCall/strided_slice_switch/_191", "op": "Switch", "input": ["StatefulPartitionedCall/CRNN/bigru1/backward_gru_2/PartitionedCall/while/merge/_179", "StatefulPartitionedCall/CRNN/bigru1/backward_gru_2/PartitionedCall/while/LoopCond/_185"], "attr": {"T": {"type": "DT_INT32"}}}, {"name": "StatefulPartitionedCall/CRNN/bigru1/forward_gru_2/PartitionedCall/while/loop_body_control/_137", "op": "Identity", "input": ["StatefulPartitionedCall/CRNN/bigru1/forward_gru_2/PartitionedCall/while/StatefulPartitionedCall/CRNN/bigru1/forward_gru_2/PartitionedCall/while/loop_counter_switch/_126:1"], "attr": {"T": {"type": "DT_INT32"}}}, {"name": "StatefulPartitionedCall/CRNN/bigru1/forward_gru_2/PartitionedCall/while/exit/_141", "op": "Exit", "input": ["StatefulPartitionedCall/CRNN/bigru1/forward_gru_2/PartitionedCall/while/StatefulPartitionedCall/CRNN/bigru1/forward_gru_2/PartitionedCall/TensorArrayV2_1_switch/_129"], "attr": {"T": {"type": "DT_VARIANT"}}}, {"name": "StatefulPartitionedCall/CRNN/bigru1/backward_gru_2/PartitionedCall/while/loop_body_control/_197", "op": "Identity", "input": ["StatefulPartitionedCall/CRNN/bigru1/backward_gru_2/PartitionedCall/while/StatefulPartitionedCall/CRNN/bigru1/backward_gru_2/PartitionedCall/while/loop_counter_switch/_186:1"], "attr": {"T": {"type": "DT_INT32"}}}, {"name": "StatefulPartitionedCall/CRNN/bigru1/backward_gru_2/PartitionedCall/while/exit/_201", "op": "Exit", "input": ["StatefulPartitionedCall/CRNN/bigru1/backward_gru_2/PartitionedCall/while/StatefulPartitionedCall/CRNN/bigru1/backward_gru_2/PartitionedCall/TensorArrayV2_1_switch/_189"], "attr": {"T": {"type": "DT_VARIANT"}}}, {"name": "StatefulPartitionedCall/CRNN/bigru1/forward_gru_2/PartitionedCall/while/body/_102/while/sub/x", "op": "Const", "input": ["^StatefulPartitionedCall/CRNN/bigru1/forward_gru_2/PartitionedCall/while/loop_body_control/_137"], "attr": {"value": {"tensor": {"dtype": "DT_FLOAT", "tensorShape": {}}}, "dtype": {"type": "DT_FLOAT"}}}, {"name": "StatefulPartitionedCall/CRNN/bigru1/forward_gru_2/PartitionedCall/while/body/_102/while/split/split_dim", "op": "Const", "input": ["^StatefulPartitionedCall/CRNN/bigru1/forward_gru_2/PartitionedCall/while/loop_body_control/_137"], "attr": {"value": {"tensor": {"dtype": "DT_INT32", "tensorShape": {}}}, "dtype": {"type": "DT_INT32"}}}, {"name": "StatefulPartitionedCall/CRNN/bigru1/forward_gru_2/PartitionedCall/while/next_iteration/_156", "op": "NextIteration", "input": ["StatefulPartitionedCall/CRNN/bigru1/forward_gru_2/PartitionedCall/while/StatefulPartitionedCall/CRNN/bigru1/forward_gru_2/PartitionedCall/TensorArrayUnstack/TensorListFromTensor_switch/_132:1", "^StatefulPartitionedCall/CRNN/bigru1/forward_gru_2/PartitionedCall/while/loop_body_control/_137"], "attr": {"T": {"type": "DT_VARIANT"}}}, {"name": "StatefulPartitionedCall/CRNN/bigru1/forward_gru_2/PartitionedCall/while/body/_102/while/TensorArrayV2Read/TensorListGetItem/element_shape", "op": "Const", "input": ["^StatefulPartitionedCall/CRNN/bigru1/forward_gru_2/PartitionedCall/while/loop_body_control/_137"], "attr": {"value": {"tensor": {"dtype": "DT_INT32", "tensorShape": {"dim": [{"size": "2"}]}}}, "dtype": {"type": "DT_INT32"}}}, {"name": "StatefulPartitionedCall/CRNN/bigru1/forward_gru_2/PartitionedCall/while/next_iteration/_157", "op": "NextIteration", "input": ["StatefulPartitionedCall/CRNN/bigru1/forward_gru_2/PartitionedCall/while/Func/StatefulPartitionedCall/CRNN/bigru1/forward_gru_2/PartitionedCall/input/_67_switch/_133:1", "^StatefulPartitionedCall/CRNN/bigru1/forward_gru_2/PartitionedCall/while/loop_body_control/_137"], "attr": {"T": {"type": "DT_FLOAT"}}}, {"name": "StatefulPartitionedCall/CRNN/bigru1/forward_gru_2/PartitionedCall/while/next_iteration/_158", "op": "NextIteration", "input": ["StatefulPartitionedCall/CRNN/bigru1/forward_gru_2/PartitionedCall/while/StatefulPartitionedCall/CRNN/bigru1/forward_gru_2/PartitionedCall/unstack_switch/_134:1", "^StatefulPartitionedCall/CRNN/bigru1/forward_gru_2/PartitionedCall/while/loop_body_control/_137"], "attr": {"T": {"type": "DT_FLOAT"}}}, {"name": "StatefulPartitionedCall/CRNN/bigru1/forward_gru_2/PartitionedCall/while/body/_102/while/split_1/split_dim", "op": "Const", "input": ["^StatefulPartitionedCall/CRNN/bigru1/forward_gru_2/PartitionedCall/while/loop_body_control/_137"], "attr": {"dtype": {"type": "DT_INT32"}, "value": {"tensor": {"dtype": "DT_INT32", "tensorShape": {}}}}}, {"name": "StatefulPartitionedCall/CRNN/bigru1/forward_gru_2/PartitionedCall/while/next_iteration/_159", "op": "NextIteration", "input": ["StatefulPartitionedCall/CRNN/bigru1/forward_gru_2/PartitionedCall/while/Func/StatefulPartitionedCall/CRNN/bigru1/forward_gru_2/PartitionedCall/input/_68_switch/_135:1", "^StatefulPartitionedCall/CRNN/bigru1/forward_gru_2/PartitionedCall/while/loop_body_control/_137"], "attr": {"T": {"type": "DT_FLOAT"}}}, {"name": "StatefulPartitionedCall/CRNN/bigru1/forward_gru_2/PartitionedCall/while/body/_102/while/MatMul_1", "op": "MatMul", "input": ["StatefulPartitionedCall/CRNN/bigru1/forward_gru_2/PartitionedCall/while/Func/StatefulPartitionedCall/CRNN/bigru1/forward_gru_2/PartitionedCall/input/_66_switch/_130:1", "StatefulPartitionedCall/CRNN/bigru1/forward_gru_2/PartitionedCall/while/Func/StatefulPartitionedCall/CRNN/bigru1/forward_gru_2/PartitionedCall/input/_68_switch/_135:1", "^StatefulPartitionedCall/CRNN/bigru1/forward_gru_2/PartitionedCall/while/loop_body_control/_137"], "device": "/device:CPU:0", "attr": {"T": {"type": "DT_FLOAT"}, "transpose_b": {"b": false}, "transpose_a": {"b": false}}}, {"name": "StatefulPartitionedCall/CRNN/bigru1/forward_gru_2/PartitionedCall/while/next_iteration/_160", "op": "NextIteration", "input": ["StatefulPartitionedCall/CRNN/bigru1/forward_gru_2/PartitionedCall/while/StatefulPartitionedCall/CRNN/bigru1/forward_gru_2/PartitionedCall/unstack_switch/_136:1", "^StatefulPartitionedCall/CRNN/bigru1/forward_gru_2/PartitionedCall/while/loop_body_control/_137"], "attr": {"T": {"type": "DT_FLOAT"}}}, {"name": "Func/StatefulPartitionedCall/CRNN/bigru1/forward_gru_2/PartitionedCall/while/body/_102/input/_357", "op": "Identity", "input": ["StatefulPartitionedCall/CRNN/bigru1/forward_gru_2/PartitionedCall/while/StatefulPartitionedCall/CRNN/bigru1/forward_gru_2/PartitionedCall/time_switch/_128:1", "^StatefulPartitionedCall/CRNN/bigru1/forward_gru_2/PartitionedCall/while/loop_body_control/_137"], "attr": {"T": {"type": "DT_INT32"}}}, {"name": "StatefulPartitionedCall/CRNN/bigru1/forward_gru_2/PartitionedCall/while/body/_102/while/add_4/y", "op": "Const", "input": ["^StatefulPartitionedCall/CRNN/bigru1/forward_gru_2/PartitionedCall/while/loop_body_control/_137"], "attr": {"value": {"tensor": {"dtype": "DT_INT32", "tensorShape": {}}}, "dtype": {"type": "DT_INT32"}}}, {"name": "StatefulPartitionedCall/CRNN/bigru1/forward_gru_2/PartitionedCall/while/body/_102/while/add_5/y", "op": "Const", "input": ["^StatefulPartitionedCall/CRNN/bigru1/forward_gru_2/PartitionedCall/while/loop_body_control/_137"], "attr": {"dtype": {"type": "DT_INT32"}, "value": {"tensor": {"dtype": "DT_INT32", "tensorShape": {}}}}}, {"name": "StatefulPartitionedCall/CRNN/bigru1/forward_gru_2/PartitionedCall/while/next_iteration/_155", "op": "NextIteration", "input": ["StatefulPartitionedCall/CRNN/bigru1/forward_gru_2/PartitionedCall/while/StatefulPartitionedCall/CRNN/bigru1/forward_gru_2/PartitionedCall/strided_slice_switch/_131:1", "^StatefulPartitionedCall/CRNN/bigru1/forward_gru_2/PartitionedCall/while/loop_body_control/_137"], "attr": {"T": {"type": "DT_INT32"}}}, {"name": "StatefulPartitionedCall/CRNN/bigru1/forward_gru_2/PartitionedCall/TensorArrayV2Stack/TensorListStack", "op": "TensorListStack", "input": ["StatefulPartitionedCall/CRNN/bigru1/forward_gru_2/PartitionedCall/while/exit/_141", "StatefulPartitionedCall/CRNN/bigru1/forward_gru_2/PartitionedCall/TensorArrayV2Stack/TensorListStack/element_shape"], "attr": {"element_dtype": {"type": "DT_FLOAT"}, "num_elements": {"i": "-1"}}}, {"name": "StatefulPartitionedCall/CRNN/bigru1/backward_gru_2/PartitionedCall/while/body/_162/while/sub/x", "op": "Const", "input": ["^StatefulPartitionedCall/CRNN/bigru1/backward_gru_2/PartitionedCall/while/loop_body_control/_197"], "attr": {"value": {"tensor": {"dtype": "DT_FLOAT", "tensorShape": {}}}, "dtype": {"type": "DT_FLOAT"}}}, {"name": "StatefulPartitionedCall/CRNN/bigru1/backward_gru_2/PartitionedCall/while/body/_162/while/split/split_dim", "op": "Const", "input": ["^StatefulPartitionedCall/CRNN/bigru1/backward_gru_2/PartitionedCall/while/loop_body_control/_197"], "attr": {"value": {"tensor": {"dtype": "DT_INT32", "tensorShape": {}}}, "dtype": {"type": "DT_INT32"}}}, {"name": "StatefulPartitionedCall/CRNN/bigru1/backward_gru_2/PartitionedCall/while/next_iteration/_216", "op": "NextIteration", "input": ["StatefulPartitionedCall/CRNN/bigru1/backward_gru_2/PartitionedCall/while/StatefulPartitionedCall/CRNN/bigru1/backward_gru_2/PartitionedCall/TensorArrayUnstack/TensorListFromTensor_switch/_192:1", "^StatefulPartitionedCall/CRNN/bigru1/backward_gru_2/PartitionedCall/while/loop_body_control/_197"], "attr": {"T": {"type": "DT_VARIANT"}}}, {"name": "StatefulPartitionedCall/CRNN/bigru1/backward_gru_2/PartitionedCall/while/body/_162/while/TensorArrayV2Read/TensorListGetItem/element_shape", "op": "Const", "input": ["^StatefulPartitionedCall/CRNN/bigru1/backward_gru_2/PartitionedCall/while/loop_body_control/_197"], "attr": {"value": {"tensor": {"dtype": "DT_INT32", "tensorShape": {"dim": [{"size": "2"}]}}}, "dtype": {"type": "DT_INT32"}}}, {"name": "StatefulPartitionedCall/CRNN/bigru1/backward_gru_2/PartitionedCall/while/next_iteration/_217", "op": "NextIteration", "input": ["StatefulPartitionedCall/CRNN/bigru1/backward_gru_2/PartitionedCall/while/Func/StatefulPartitionedCall/CRNN/bigru1/backward_gru_2/PartitionedCall/input/_76_switch/_193:1", "^StatefulPartitionedCall/CRNN/bigru1/backward_gru_2/PartitionedCall/while/loop_body_control/_197"], "attr": {"T": {"type": "DT_FLOAT"}}}, {"name": "StatefulPartitionedCall/CRNN/bigru1/backward_gru_2/PartitionedCall/while/next_iteration/_218", "op": "NextIteration", "input": ["StatefulPartitionedCall/CRNN/bigru1/backward_gru_2/PartitionedCall/while/StatefulPartitionedCall/CRNN/bigru1/backward_gru_2/PartitionedCall/unstack_switch/_194:1", "^StatefulPartitionedCall/CRNN/bigru1/backward_gru_2/PartitionedCall/while/loop_body_control/_197"], "attr": {"T": {"type": "DT_FLOAT"}}}, {"name": "StatefulPartitionedCall/CRNN/bigru1/backward_gru_2/PartitionedCall/while/body/_162/while/split_1/split_dim", "op": "Const", "input": ["^StatefulPartitionedCall/CRNN/bigru1/backward_gru_2/PartitionedCall/while/loop_body_control/_197"], "attr": {"value": {"tensor": {"dtype": "DT_INT32", "tensorShape": {}}}, "dtype": {"type": "DT_INT32"}}}, {"name": "StatefulPartitionedCall/CRNN/bigru1/backward_gru_2/PartitionedCall/while/next_iteration/_219", "op": "NextIteration", "input": ["StatefulPartitionedCall/CRNN/bigru1/backward_gru_2/PartitionedCall/while/Func/StatefulPartitionedCall/CRNN/bigru1/backward_gru_2/PartitionedCall/input/_77_switch/_195:1", "^StatefulPartitionedCall/CRNN/bigru1/backward_gru_2/PartitionedCall/while/loop_body_control/_197"], "attr": {"T": {"type": "DT_FLOAT"}}}, {"name": "StatefulPartitionedCall/CRNN/bigru1/backward_gru_2/PartitionedCall/while/body/_162/while/MatMul_1", "op": "MatMul", "input": ["StatefulPartitionedCall/CRNN/bigru1/backward_gru_2/PartitionedCall/while/Func/StatefulPartitionedCall/CRNN/bigru1/backward_gru_2/PartitionedCall/input/_75_switch/_190:1", "StatefulPartitionedCall/CRNN/bigru1/backward_gru_2/PartitionedCall/while/Func/StatefulPartitionedCall/CRNN/bigru1/backward_gru_2/PartitionedCall/input/_77_switch/_195:1", "^StatefulPartitionedCall/CRNN/bigru1/backward_gru_2/PartitionedCall/while/loop_body_control/_197"], "device": "/device:CPU:0", "attr": {"transpose_b": {"b": false}, "transpose_a": {"b": false}, "T": {"type": "DT_FLOAT"}}}, {"name": "StatefulPartitionedCall/CRNN/bigru1/backward_gru_2/PartitionedCall/while/next_iteration/_220", "op": "NextIteration", "input": ["StatefulPartitionedCall/CRNN/bigru1/backward_gru_2/PartitionedCall/while/StatefulPartitionedCall/CRNN/bigru1/backward_gru_2/PartitionedCall/unstack_switch/_196:1", "^StatefulPartitionedCall/CRNN/bigru1/backward_gru_2/PartitionedCall/while/loop_body_control/_197"], "attr": {"T": {"type": "DT_FLOAT"}}}, {"name": "Func/StatefulPartitionedCall/CRNN/bigru1/backward_gru_2/PartitionedCall/while/body/_162/input/_394", "op": "Identity", "input": ["StatefulPartitionedCall/CRNN/bigru1/backward_gru_2/PartitionedCall/while/StatefulPartitionedCall/CRNN/bigru1/backward_gru_2/PartitionedCall/time_switch/_188:1", "^StatefulPartitionedCall/CRNN/bigru1/backward_gru_2/PartitionedCall/while/loop_body_control/_197"], "attr": {"T": {"type": "DT_INT32"}}}, {"name": "StatefulPartitionedCall/CRNN/bigru1/backward_gru_2/PartitionedCall/while/body/_162/while/add_4/y", "op": "Const", "input": ["^StatefulPartitionedCall/CRNN/bigru1/backward_gru_2/PartitionedCall/while/loop_body_control/_197"], "attr": {"value": {"tensor": {"dtype": "DT_INT32", "tensorShape": {}}}, "dtype": {"type": "DT_INT32"}}}, {"name": "StatefulPartitionedCall/CRNN/bigru1/backward_gru_2/PartitionedCall/while/body/_162/while/add_5/y", "op": "Const", "input": ["^StatefulPartitionedCall/CRNN/bigru1/backward_gru_2/PartitionedCall/while/loop_body_control/_197"], "attr": {"dtype": {"type": "DT_INT32"}, "value": {"tensor": {"dtype": "DT_INT32", "tensorShape": {}}}}}, {"name": "StatefulPartitionedCall/CRNN/bigru1/backward_gru_2/PartitionedCall/while/next_iteration/_215", "op": "NextIteration", "input": ["StatefulPartitionedCall/CRNN/bigru1/backward_gru_2/PartitionedCall/while/StatefulPartitionedCall/CRNN/bigru1/backward_gru_2/PartitionedCall/strided_slice_switch/_191:1", "^StatefulPartitionedCall/CRNN/bigru1/backward_gru_2/PartitionedCall/while/loop_body_control/_197"], "attr": {"T": {"type": "DT_INT32"}}}, {"name": "StatefulPartitionedCall/CRNN/bigru1/backward_gru_2/PartitionedCall/TensorArrayV2Stack/TensorListStack", "op": "TensorListStack", "input": ["StatefulPartitionedCall/CRNN/bigru1/backward_gru_2/PartitionedCall/while/exit/_201", "StatefulPartitionedCall/CRNN/bigru1/backward_gru_2/PartitionedCall/TensorArrayV2Stack/TensorListStack/element_shape"], "attr": {"element_dtype": {"type": "DT_FLOAT"}, "num_elements": {"i": "-1"}}}, {"name": "StatefulPartitionedCall/CRNN/bigru1/forward_gru_2/PartitionedCall/while/body/_102/while/BiasAdd_1", "op": "BiasAdd", "input": ["StatefulPartitionedCall/CRNN/bigru1/forward_gru_2/PartitionedCall/while/body/_102/while/MatMul_1", "StatefulPartitionedCall/CRNN/bigru1/forward_gru_2/PartitionedCall/while/StatefulPartitionedCall/CRNN/bigru1/forward_gru_2/PartitionedCall/unstack_switch/_136:1"], "attr": {"data_format": {"s": "TkhXQw=="}, "T": {"type": "DT_FLOAT"}}}, {"name": "StatefulPartitionedCall/CRNN/bigru1/forward_gru_2/PartitionedCall/while/body/_102/while/TensorArrayV2Read/TensorListGetItem", "op": "TensorListGetItem", "input": ["StatefulPartitionedCall/CRNN/bigru1/forward_gru_2/PartitionedCall/while/StatefulPartitionedCall/CRNN/bigru1/forward_gru_2/PartitionedCall/TensorArrayUnstack/TensorListFromTensor_switch/_132:1", "Func/StatefulPartitionedCall/CRNN/bigru1/forward_gru_2/PartitionedCall/while/body/_102/input/_357", "StatefulPartitionedCall/CRNN/bigru1/forward_gru_2/PartitionedCall/while/body/_102/while/TensorArrayV2Read/TensorListGetItem/element_shape"], "attr": {"element_dtype": {"type": "DT_FLOAT"}}}, {"name": "StatefulPartitionedCall/CRNN/bigru1/forward_gru_2/PartitionedCall/while/body/_102/while/add_4", "op": "AddV2", "input": ["Func/StatefulPartitionedCall/CRNN/bigru1/forward_gru_2/PartitionedCall/while/body/_102/input/_357", "StatefulPartitionedCall/CRNN/bigru1/forward_gru_2/PartitionedCall/while/body/_102/while/add_4/y"], "attr": {"T": {"type": "DT_INT32"}}}, {"name": "StatefulPartitionedCall/CRNN/bigru1/forward_gru_2/PartitionedCall/while/body/_102/while/add_5", "op": "AddV2", "input": ["StatefulPartitionedCall/CRNN/bigru1/forward_gru_2/PartitionedCall/while/StatefulPartitionedCall/CRNN/bigru1/forward_gru_2/PartitionedCall/while/loop_counter_switch/_126:1", "StatefulPartitionedCall/CRNN/bigru1/forward_gru_2/PartitionedCall/while/body/_102/while/add_5/y"], "attr": {"T": {"type": "DT_INT32"}}}, {"name": "StatefulPartitionedCall/CRNN/bigru1/forward_gru_2/PartitionedCall/transpose_1", "op": "Transpose", "input": ["StatefulPartitionedCall/CRNN/bigru1/forward_gru_2/PartitionedCall/TensorArrayV2Stack/TensorListStack", "StatefulPartitionedCall/CRNN/bigru1/forward_gru_2/PartitionedCall/transpose_1/perm"], "attr": {"T": {"type": "DT_FLOAT"}, "Tperm": {"type": "DT_INT32"}}}, {"name": "StatefulPartitionedCall/CRNN/bigru1/backward_gru_2/PartitionedCall/while/body/_162/while/BiasAdd_1", "op": "BiasAdd", "input": ["StatefulPartitionedCall/CRNN/bigru1/backward_gru_2/PartitionedCall/while/body/_162/while/MatMul_1", "StatefulPartitionedCall/CRNN/bigru1/backward_gru_2/PartitionedCall/while/StatefulPartitionedCall/CRNN/bigru1/backward_gru_2/PartitionedCall/unstack_switch/_196:1"], "attr": {"data_format": {"s": "TkhXQw=="}, "T": {"type": "DT_FLOAT"}}}, {"name": "StatefulPartitionedCall/CRNN/bigru1/backward_gru_2/PartitionedCall/while/body/_162/while/TensorArrayV2Read/TensorListGetItem", "op": "TensorListGetItem", "input": ["StatefulPartitionedCall/CRNN/bigru1/backward_gru_2/PartitionedCall/while/StatefulPartitionedCall/CRNN/bigru1/backward_gru_2/PartitionedCall/TensorArrayUnstack/TensorListFromTensor_switch/_192:1", "Func/StatefulPartitionedCall/CRNN/bigru1/backward_gru_2/PartitionedCall/while/body/_162/input/_394", "StatefulPartitionedCall/CRNN/bigru1/backward_gru_2/PartitionedCall/while/body/_162/while/TensorArrayV2Read/TensorListGetItem/element_shape"], "attr": {"element_dtype": {"type": "DT_FLOAT"}}}, {"name": "StatefulPartitionedCall/CRNN/bigru1/backward_gru_2/PartitionedCall/while/body/_162/while/add_4", "op": "AddV2", "input": ["Func/StatefulPartitionedCall/CRNN/bigru1/backward_gru_2/PartitionedCall/while/body/_162/input/_394", "StatefulPartitionedCall/CRNN/bigru1/backward_gru_2/PartitionedCall/while/body/_162/while/add_4/y"], "attr": {"T": {"type": "DT_INT32"}}}, {"name": "StatefulPartitionedCall/CRNN/bigru1/backward_gru_2/PartitionedCall/while/body/_162/while/add_5", "op": "AddV2", "input": ["StatefulPartitionedCall/CRNN/bigru1/backward_gru_2/PartitionedCall/while/StatefulPartitionedCall/CRNN/bigru1/backward_gru_2/PartitionedCall/while/loop_counter_switch/_186:1", "StatefulPartitionedCall/CRNN/bigru1/backward_gru_2/PartitionedCall/while/body/_162/while/add_5/y"], "attr": {"T": {"type": "DT_INT32"}}}, {"name": "StatefulPartitionedCall/CRNN/bigru1/backward_gru_2/PartitionedCall/transpose_1", "op": "Transpose", "input": ["StatefulPartitionedCall/CRNN/bigru1/backward_gru_2/PartitionedCall/TensorArrayV2Stack/TensorListStack", "StatefulPartitionedCall/CRNN/bigru1/backward_gru_2/PartitionedCall/transpose_1/perm"], "attr": {"T": {"type": "DT_FLOAT"}, "Tperm": {"type": "DT_INT32"}}}, {"name": "StatefulPartitionedCall/CRNN/bigru1/forward_gru_2/PartitionedCall/while/body/_102/while/split_1", "op": "Split", "input": ["StatefulPartitionedCall/CRNN/bigru1/forward_gru_2/PartitionedCall/while/body/_102/while/split_1/split_dim", "StatefulPartitionedCall/CRNN/bigru1/forward_gru_2/PartitionedCall/while/body/_102/while/BiasAdd_1"], "attr": {"T": {"type": "DT_FLOAT"}, "num_split": {"i": "3"}}}, {"name": "StatefulPartitionedCall/CRNN/bigru1/forward_gru_2/PartitionedCall/while/body/_102/while/BiasAdd", "op": "_FusedMatMul", "input": ["StatefulPartitionedCall/CRNN/bigru1/forward_gru_2/PartitionedCall/while/body/_102/while/TensorArrayV2Read/TensorListGetItem", "StatefulPartitionedCall/CRNN/bigru1/forward_gru_2/PartitionedCall/while/Func/StatefulPartitionedCall/CRNN/bigru1/forward_gru_2/PartitionedCall/input/_67_switch/_133:1", "StatefulPartitionedCall/CRNN/bigru1/forward_gru_2/PartitionedCall/while/StatefulPartitionedCall/CRNN/bigru1/forward_gru_2/PartitionedCall/unstack_switch/_134:1"], "device": "/device:CPU:0", "attr": {"T": {"type": "DT_FLOAT"}, "transpose_b": {"b": false}, "transpose_a": {"b": false}, "epsilon": {"f": 0.0}, "num_args": {"i": "1"}, "fused_ops": {"list": {"s": ["Qmlhc0FkZA=="]}}}}, {"name": "StatefulPartitionedCall/CRNN/bigru1/forward_gru_2/PartitionedCall/while/next_iteration/_152", "op": "NextIteration", "input": ["StatefulPartitionedCall/CRNN/bigru1/forward_gru_2/PartitionedCall/while/body/_102/while/add_4", "^StatefulPartitionedCall/CRNN/bigru1/forward_gru_2/PartitionedCall/while/loop_body_control/_137"], "attr": {"T": {"type": "DT_INT32"}}}, {"name": "StatefulPartitionedCall/CRNN/bigru1/forward_gru_2/PartitionedCall/while/next_iteration/_150", "op": "NextIteration", "input": ["StatefulPartitionedCall/CRNN/bigru1/forward_gru_2/PartitionedCall/while/body/_102/while/add_5", "^StatefulPartitionedCall/CRNN/bigru1/forward_gru_2/PartitionedCall/while/loop_body_control/_137"], "attr": {"T": {"type": "DT_INT32"}}}, {"name": "StatefulPartitionedCall/CRNN/bigru1/backward_gru_2/PartitionedCall/while/body/_162/while/split_1", "op": "Split", "input": ["StatefulPartitionedCall/CRNN/bigru1/backward_gru_2/PartitionedCall/while/body/_162/while/split_1/split_dim", "StatefulPartitionedCall/CRNN/bigru1/backward_gru_2/PartitionedCall/while/body/_162/while/BiasAdd_1"], "attr": {"T": {"type": "DT_FLOAT"}, "num_split": {"i": "3"}}}, {"name": "StatefulPartitionedCall/CRNN/bigru1/backward_gru_2/PartitionedCall/while/body/_162/while/BiasAdd", "op": "_FusedMatMul", "input": ["StatefulPartitionedCall/CRNN/bigru1/backward_gru_2/PartitionedCall/while/body/_162/while/TensorArrayV2Read/TensorListGetItem", "StatefulPartitionedCall/CRNN/bigru1/backward_gru_2/PartitionedCall/while/Func/StatefulPartitionedCall/CRNN/bigru1/backward_gru_2/PartitionedCall/input/_76_switch/_193:1", "StatefulPartitionedCall/CRNN/bigru1/backward_gru_2/PartitionedCall/while/StatefulPartitionedCall/CRNN/bigru1/backward_gru_2/PartitionedCall/unstack_switch/_194:1"], "device": "/device:CPU:0", "attr": {"transpose_b": {"b": false}, "transpose_a": {"b": false}, "T": {"type": "DT_FLOAT"}, "epsilon": {"f": 0.0}, "num_args": {"i": "1"}, "fused_ops": {"list": {"s": ["Qmlhc0FkZA=="]}}}}, {"name": "StatefulPartitionedCall/CRNN/bigru1/backward_gru_2/PartitionedCall/while/next_iteration/_212", "op": "NextIteration", "input": ["StatefulPartitionedCall/CRNN/bigru1/backward_gru_2/PartitionedCall/while/body/_162/while/add_4", "^StatefulPartitionedCall/CRNN/bigru1/backward_gru_2/PartitionedCall/while/loop_body_control/_197"], "attr": {"T": {"type": "DT_INT32"}}}, {"name": "StatefulPartitionedCall/CRNN/bigru1/backward_gru_2/PartitionedCall/while/next_iteration/_210", "op": "NextIteration", "input": ["StatefulPartitionedCall/CRNN/bigru1/backward_gru_2/PartitionedCall/while/body/_162/while/add_5", "^StatefulPartitionedCall/CRNN/bigru1/backward_gru_2/PartitionedCall/while/loop_body_control/_197"], "attr": {"T": {"type": "DT_INT32"}}}, {"name": "StatefulPartitionedCall/CRNN/bigru1/ReverseV2", "op": "ReverseV2", "input": ["StatefulPartitionedCall/CRNN/bigru1/backward_gru_2/PartitionedCall/transpose_1", "StatefulPartitionedCall/CRNN/bigru1/ReverseV2/axis"], "attr": {"Tidx": {"type": "DT_INT32"}, "T": {"type": "DT_FLOAT"}}}, {"name": "StatefulPartitionedCall/CRNN/bigru1/forward_gru_2/PartitionedCall/while/body/_102/while/split", "op": "Split", "input": ["StatefulPartitionedCall/CRNN/bigru1/forward_gru_2/PartitionedCall/while/body/_102/while/split/split_dim", "StatefulPartitionedCall/CRNN/bigru1/forward_gru_2/PartitionedCall/while/body/_102/while/BiasAdd"], "attr": {"num_split": {"i": "3"}, "T": {"type": "DT_FLOAT"}}}, {"name": "StatefulPartitionedCall/CRNN/bigru1/backward_gru_2/PartitionedCall/while/body/_162/while/split", "op": "Split", "input": ["StatefulPartitionedCall/CRNN/bigru1/backward_gru_2/PartitionedCall/while/body/_162/while/split/split_dim", "StatefulPartitionedCall/CRNN/bigru1/backward_gru_2/PartitionedCall/while/body/_162/while/BiasAdd"], "attr": {"T": {"type": "DT_FLOAT"}, "num_split": {"i": "3"}}}, {"name": "StatefulPartitionedCall/CRNN/bigru1/concat", "op": "ConcatV2", "input": ["StatefulPartitionedCall/CRNN/bigru1/forward_gru_2/PartitionedCall/transpose_1", "StatefulPartitionedCall/CRNN/bigru1/ReverseV2", "StatefulPartitionedCall/CRNN/bigru1/concat/axis"], "attr": {"T": {"type": "DT_FLOAT"}, "Tidx": {"type": "DT_INT32"}, "N": {"i": "2"}}}, {"name": "StatefulPartitionedCall/CRNN/bigru1/forward_gru_2/PartitionedCall/while/body/_102/while/add", "op": "AddV2", "input": ["StatefulPartitionedCall/CRNN/bigru1/forward_gru_2/PartitionedCall/while/body/_102/while/split", "StatefulPartitionedCall/CRNN/bigru1/forward_gru_2/PartitionedCall/while/body/_102/while/split_1"], "attr": {"T": {"type": "DT_FLOAT"}}}, {"name": "StatefulPartitionedCall/CRNN/bigru1/forward_gru_2/PartitionedCall/while/body/_102/while/add_1", "op": "AddV2", "input": ["StatefulPartitionedCall/CRNN/bigru1/forward_gru_2/PartitionedCall/while/body/_102/while/split:1", "StatefulPartitionedCall/CRNN/bigru1/forward_gru_2/PartitionedCall/while/body/_102/while/split_1:1"], "attr": {"T": {"type": "DT_FLOAT"}}}, {"name": "StatefulPartitionedCall/CRNN/bigru1/backward_gru_2/PartitionedCall/while/body/_162/while/add", "op": "AddV2", "input": ["StatefulPartitionedCall/CRNN/bigru1/backward_gru_2/PartitionedCall/while/body/_162/while/split", "StatefulPartitionedCall/CRNN/bigru1/backward_gru_2/PartitionedCall/while/body/_162/while/split_1"], "attr": {"T": {"type": "DT_FLOAT"}}}, {"name": "StatefulPartitionedCall/CRNN/bigru1/backward_gru_2/PartitionedCall/while/body/_162/while/add_1", "op": "AddV2", "input": ["StatefulPartitionedCall/CRNN/bigru1/backward_gru_2/PartitionedCall/while/body/_162/while/split:1", "StatefulPartitionedCall/CRNN/bigru1/backward_gru_2/PartitionedCall/while/body/_162/while/split_1:1"], "attr": {"T": {"type": "DT_FLOAT"}}}, {"name": "StatefulPartitionedCall/CRNN/bigru2/forward_gru_3/Shape", "op": "Shape", "input": ["StatefulPartitionedCall/CRNN/bigru1/concat"], "attr": {"out_type": {"type": "DT_INT32"}, "T": {"type": "DT_FLOAT"}}}, {"name": "StatefulPartitionedCall/CRNN/bigru2/forward_gru_3/PartitionedCall/transpose", "op": "Transpose", "input": ["StatefulPartitionedCall/CRNN/bigru1/concat", "StatefulPartitionedCall/CRNN/bigru2/forward_gru_3/PartitionedCall/transpose/perm"], "attr": {"T": {"type": "DT_FLOAT"}, "Tperm": {"type": "DT_INT32"}}}, {"name": "StatefulPartitionedCall/CRNN/bigru2/backward_gru_3/Shape", "op": "Shape", "input": ["StatefulPartitionedCall/CRNN/bigru1/concat"], "attr": {"out_type": {"type": "DT_INT32"}, "T": {"type": "DT_FLOAT"}}}, {"name": "StatefulPartitionedCall/CRNN/bigru2/backward_gru_3/PartitionedCall/transpose", "op": "Transpose", "input": ["StatefulPartitionedCall/CRNN/bigru1/concat", "StatefulPartitionedCall/CRNN/bigru2/backward_gru_3/PartitionedCall/transpose/perm"], "attr": {"T": {"type": "DT_FLOAT"}, "Tperm": {"type": "DT_INT32"}}}, {"name": "StatefulPartitionedCall/CRNN/bigru1/forward_gru_2/PartitionedCall/while/body/_102/while/Sigmoid", "op": "Sigmoid", "input": ["StatefulPartitionedCall/CRNN/bigru1/forward_gru_2/PartitionedCall/while/body/_102/while/add"], "attr": {"T": {"type": "DT_FLOAT"}}}, {"name": "StatefulPartitionedCall/CRNN/bigru1/forward_gru_2/PartitionedCall/while/body/_102/while/Sigmoid_1", "op": "Sigmoid", "input": ["StatefulPartitionedCall/CRNN/bigru1/forward_gru_2/PartitionedCall/while/body/_102/while/add_1"], "attr": {"T": {"type": "DT_FLOAT"}}}, {"name": "StatefulPartitionedCall/CRNN/bigru1/backward_gru_2/PartitionedCall/while/body/_162/while/Sigmoid", "op": "Sigmoid", "input": ["StatefulPartitionedCall/CRNN/bigru1/backward_gru_2/PartitionedCall/while/body/_162/while/add"], "attr": {"T": {"type": "DT_FLOAT"}}}, {"name": "StatefulPartitionedCall/CRNN/bigru1/backward_gru_2/PartitionedCall/while/body/_162/while/Sigmoid_1", "op": "Sigmoid", "input": ["StatefulPartitionedCall/CRNN/bigru1/backward_gru_2/PartitionedCall/while/body/_162/while/add_1"], "attr": {"T": {"type": "DT_FLOAT"}}}, {"name": "StatefulPartitionedCall/CRNN/bigru2/forward_gru_3/strided_slice", "op": "StridedSlice", "input": ["StatefulPartitionedCall/CRNN/bigru2/forward_gru_3/Shape", "StatefulPartitionedCall/CRNN/bigru2/forward_gru_3/strided_slice/stack", "StatefulPartitionedCall/CRNN/bigru2/forward_gru_3/strided_slice/stack_1", "StatefulPartitionedCall/CRNN/bigru2/forward_gru_3/strided_slice/stack_2"], "attr": {"begin_mask": {"i": "0"}, "end_mask": {"i": "0"}, "new_axis_mask": {"i": "0"}, "T": {"type": "DT_INT32"}, "Index": {"type": "DT_INT32"}, "shrink_axis_mask": {"i": "1"}, "ellipsis_mask": {"i": "0"}}}, {"name": "StatefulPartitionedCall/CRNN/bigru2/forward_gru_3/PartitionedCall/TensorArrayUnstack/TensorListFromTensor", "op": "TensorListFromTensor", "input": ["StatefulPartitionedCall/CRNN/bigru2/forward_gru_3/PartitionedCall/transpose", "StatefulPartitionedCall/CRNN/bigru2/forward_gru_3/PartitionedCall/TensorArrayUnstack/TensorListFromTensor/element_shape"], "attr": {"element_dtype": {"type": "DT_FLOAT"}, "shape_type": {"type": "DT_INT32"}}}, {"name": "StatefulPartitionedCall/CRNN/bigru2/forward_gru_3/PartitionedCall/Shape", "op": "Shape", "input": ["StatefulPartitionedCall/CRNN/bigru2/forward_gru_3/PartitionedCall/transpose"], "attr": {"T": {"type": "DT_FLOAT"}, "out_type": {"type": "DT_INT32"}}}, {"name": "StatefulPartitionedCall/CRNN/bigru2/backward_gru_3/strided_slice", "op": "StridedSlice", "input": ["StatefulPartitionedCall/CRNN/bigru2/backward_gru_3/Shape", "StatefulPartitionedCall/CRNN/bigru2/backward_gru_3/strided_slice/stack", "StatefulPartitionedCall/CRNN/bigru2/backward_gru_3/strided_slice/stack_1", "StatefulPartitionedCall/CRNN/bigru2/backward_gru_3/strided_slice/stack_2"], "attr": {"Index": {"type": "DT_INT32"}, "shrink_axis_mask": {"i": "1"}, "T": {"type": "DT_INT32"}, "new_axis_mask": {"i": "0"}, "end_mask": {"i": "0"}, "ellipsis_mask": {"i": "0"}, "begin_mask": {"i": "0"}}}, {"name": "StatefulPartitionedCall/CRNN/bigru2/backward_gru_3/PartitionedCall/ReverseV2", "op": "ReverseV2", "input": ["StatefulPartitionedCall/CRNN/bigru2/backward_gru_3/PartitionedCall/transpose", "StatefulPartitionedCall/CRNN/bigru2/backward_gru_3/PartitionedCall/ReverseV2/axis"], "attr": {"Tidx": {"type": "DT_INT32"}, "T": {"type": "DT_FLOAT"}}}, {"name": "StatefulPartitionedCall/CRNN/bigru2/backward_gru_3/PartitionedCall/Shape", "op": "Shape", "input": ["StatefulPartitionedCall/CRNN/bigru2/backward_gru_3/PartitionedCall/transpose"], "attr": {"T": {"type": "DT_FLOAT"}, "out_type": {"type": "DT_INT32"}}}, {"name": "StatefulPartitionedCall/CRNN/bigru1/forward_gru_2/PartitionedCall/while/body/_102/while/mul_1", "op": "Mul", "input": ["StatefulPartitionedCall/CRNN/bigru1/forward_gru_2/PartitionedCall/while/body/_102/while/Sigmoid", "StatefulPartitionedCall/CRNN/bigru1/forward_gru_2/PartitionedCall/while/Func/StatefulPartitionedCall/CRNN/bigru1/forward_gru_2/PartitionedCall/input/_66_switch/_130:1"], "attr": {"T": {"type": "DT_FLOAT"}}}, {"name": "StatefulPartitionedCall/CRNN/bigru1/forward_gru_2/PartitionedCall/while/body/_102/while/sub", "op": "Sub", "input": ["StatefulPartitionedCall/CRNN/bigru1/forward_gru_2/PartitionedCall/while/body/_102/while/sub/x", "StatefulPartitionedCall/CRNN/bigru1/forward_gru_2/PartitionedCall/while/body/_102/while/Sigmoid"], "attr": {"T": {"type": "DT_FLOAT"}}}, {"name": "StatefulPartitionedCall/CRNN/bigru1/forward_gru_2/PartitionedCall/while/body/_102/while/mul", "op": "Mul", "input": ["StatefulPartitionedCall/CRNN/bigru1/forward_gru_2/PartitionedCall/while/body/_102/while/Sigmoid_1", "StatefulPartitionedCall/CRNN/bigru1/forward_gru_2/PartitionedCall/while/body/_102/while/split_1:2"], "attr": {"T": {"type": "DT_FLOAT"}}}, {"name": "StatefulPartitionedCall/CRNN/bigru1/backward_gru_2/PartitionedCall/while/body/_162/while/mul_1", "op": "Mul", "input": ["StatefulPartitionedCall/CRNN/bigru1/backward_gru_2/PartitionedCall/while/body/_162/while/Sigmoid", "StatefulPartitionedCall/CRNN/bigru1/backward_gru_2/PartitionedCall/while/Func/StatefulPartitionedCall/CRNN/bigru1/backward_gru_2/PartitionedCall/input/_75_switch/_190:1"], "attr": {"T": {"type": "DT_FLOAT"}}}, {"name": "StatefulPartitionedCall/CRNN/bigru1/backward_gru_2/PartitionedCall/while/body/_162/while/sub", "op": "Sub", "input": ["StatefulPartitionedCall/CRNN/bigru1/backward_gru_2/PartitionedCall/while/body/_162/while/sub/x", "StatefulPartitionedCall/CRNN/bigru1/backward_gru_2/PartitionedCall/while/body/_162/while/Sigmoid"], "attr": {"T": {"type": "DT_FLOAT"}}}, {"name": "StatefulPartitionedCall/CRNN/bigru1/backward_gru_2/PartitionedCall/while/body/_162/while/mul", "op": "Mul", "input": ["StatefulPartitionedCall/CRNN/bigru1/backward_gru_2/PartitionedCall/while/body/_162/while/Sigmoid_1", "StatefulPartitionedCall/CRNN/bigru1/backward_gru_2/PartitionedCall/while/body/_162/while/split_1:2"], "attr": {"T": {"type": "DT_FLOAT"}}}, {"name": "StatefulPartitionedCall/CRNN/bigru2/forward_gru_3/zeros/packed", "op": "Pack", "input": ["StatefulPartitionedCall/CRNN/bigru2/forward_gru_3/strided_slice", "StatefulPartitionedCall/CRNN/bigru2/forward_gru_3/zeros/packed/1"], "attr": {"T": {"type": "DT_INT32"}, "N": {"i": "2"}, "axis": {"i": "0"}}}, {"name": "StatefulPartitionedCall/CRNN/bigru2/forward_gru_3/PartitionedCall/while/enter/_229", "op": "Enter", "input": ["StatefulPartitionedCall/CRNN/bigru2/forward_gru_3/PartitionedCall/TensorArrayUnstack/TensorListFromTensor"], "attr": {"frame_name": {"s": "U3RhdGVmdWxQYXJ0aXRpb25lZENhbGwvQ1JOTi9iaWdydTIvZm9yd2FyZF9ncnVfMy9QYXJ0aXRpb25lZENhbGwvd2hpbGU="}, "is_constant": {"b": false}, "parallel_iterations": {"i": "32"}, "T": {"type": "DT_VARIANT"}}}, {"name": "StatefulPartitionedCall/CRNN/bigru2/forward_gru_3/PartitionedCall/strided_slice", "op": "StridedSlice", "input": ["StatefulPartitionedCall/CRNN/bigru2/forward_gru_3/PartitionedCall/Shape", "StatefulPartitionedCall/CRNN/bigru2/forward_gru_3/PartitionedCall/strided_slice/stack", "StatefulPartitionedCall/CRNN/bigru2/forward_gru_3/PartitionedCall/strided_slice/stack_1", "StatefulPartitionedCall/CRNN/bigru2/forward_gru_3/PartitionedCall/strided_slice/stack_2"], "attr": {"new_axis_mask": {"i": "0"}, "T": {"type": "DT_INT32"}, "shrink_axis_mask": {"i": "1"}, "begin_mask": {"i": "0"}, "ellipsis_mask": {"i": "0"}, "end_mask": {"i": "0"}, "Index": {"type": "DT_INT32"}}}, {"name": "StatefulPartitionedCall/CRNN/bigru2/backward_gru_3/zeros/packed", "op": "Pack", "input": ["StatefulPartitionedCall/CRNN/bigru2/backward_gru_3/strided_slice", "StatefulPartitionedCall/CRNN/bigru2/backward_gru_3/zeros/packed/1"], "attr": {"T": {"type": "DT_INT32"}, "N": {"i": "2"}, "axis": {"i": "0"}}}, {"name": "StatefulPartitionedCall/CRNN/bigru2/backward_gru_3/PartitionedCall/TensorArrayUnstack/TensorListFromTensor", "op": "TensorListFromTensor", "input": ["StatefulPartitionedCall/CRNN/bigru2/backward_gru_3/PartitionedCall/ReverseV2", "StatefulPartitionedCall/CRNN/bigru2/backward_gru_3/PartitionedCall/TensorArrayUnstack/TensorListFromTensor/element_shape"], "attr": {"element_dtype": {"type": "DT_FLOAT"}, "shape_type": {"type": "DT_INT32"}}}, {"name": "StatefulPartitionedCall/CRNN/bigru2/backward_gru_3/PartitionedCall/strided_slice", "op": "StridedSlice", "input": ["StatefulPartitionedCall/CRNN/bigru2/backward_gru_3/PartitionedCall/Shape", "StatefulPartitionedCall/CRNN/bigru2/backward_gru_3/PartitionedCall/strided_slice/stack", "StatefulPartitionedCall/CRNN/bigru2/backward_gru_3/PartitionedCall/strided_slice/stack_1", "StatefulPartitionedCall/CRNN/bigru2/backward_gru_3/PartitionedCall/strided_slice/stack_2"], "attr": {"begin_mask": {"i": "0"}, "end_mask": {"i": "0"}, "shrink_axis_mask": {"i": "1"}, "T": {"type": "DT_INT32"}, "ellipsis_mask": {"i": "0"}, "Index": {"type": "DT_INT32"}, "new_axis_mask": {"i": "0"}}}, {"name": "StatefulPartitionedCall/CRNN/bigru1/forward_gru_2/PartitionedCall/while/body/_102/while/add_2", "op": "AddV2", "input": ["StatefulPartitionedCall/CRNN/bigru1/forward_gru_2/PartitionedCall/while/body/_102/while/split:2", "StatefulPartitionedCall/CRNN/bigru1/forward_gru_2/PartitionedCall/while/body/_102/while/mul"], "attr": {"T": {"type": "DT_FLOAT"}}}, {"name": "StatefulPartitionedCall/CRNN/bigru1/backward_gru_2/PartitionedCall/while/body/_162/while/add_2", "op": "AddV2", "input": ["StatefulPartitionedCall/CRNN/bigru1/backward_gru_2/PartitionedCall/while/body/_162/while/split:2", "StatefulPartitionedCall/CRNN/bigru1/backward_gru_2/PartitionedCall/while/body/_162/while/mul"], "attr": {"T": {"type": "DT_FLOAT"}}}, {"name": "StatefulPartitionedCall/CRNN/bigru2/forward_gru_3/zeros", "op": "Fill", "input": ["StatefulPartitionedCall/CRNN/bigru2/forward_gru_3/zeros/packed", "StatefulPartitionedCall/CRNN/bigru2/forward_gru_3/zeros/Const"], "attr": {"index_type": {"type": "DT_INT32"}, "T": {"type": "DT_FLOAT"}}}, {"name": "StatefulPartitionedCall/CRNN/bigru2/forward_gru_3/PartitionedCall/while/merge/_240", "op": "Merge", "input": ["StatefulPartitionedCall/CRNN/bigru2/forward_gru_3/PartitionedCall/while/enter/_229", "StatefulPartitionedCall/CRNN/bigru2/forward_gru_3/PartitionedCall/while/next_iteration/_276"], "attr": {"T": {"type": "DT_VARIANT"}, "N": {"i": "2"}}}, {"name": "StatefulPartitionedCall/CRNN/bigru2/forward_gru_3/PartitionedCall/TensorArrayV2_1", "op": "TensorListReserve", "input": ["StatefulPartitionedCall/CRNN/bigru2/forward_gru_3/PartitionedCall/TensorArrayV2_1/element_shape", "StatefulPartitionedCall/CRNN/bigru2/forward_gru_3/PartitionedCall/strided_slice"], "attr": {"element_dtype": {"type": "DT_FLOAT"}, "shape_type": {"type": "DT_INT32"}}}, {"name": "StatefulPartitionedCall/CRNN/bigru2/forward_gru_3/PartitionedCall/while/enter/_228", "op": "Enter", "input": ["StatefulPartitionedCall/CRNN/bigru2/forward_gru_3/PartitionedCall/strided_slice"], "attr": {"parallel_iterations": {"i": "32"}, "T": {"type": "DT_INT32"}, "is_constant": {"b": false}, "frame_name": {"s": "U3RhdGVmdWxQYXJ0aXRpb25lZENhbGwvQ1JOTi9iaWdydTIvZm9yd2FyZF9ncnVfMy9QYXJ0aXRpb25lZENhbGwvd2hpbGU="}}}, {"name": "StatefulPartitionedCall/CRNN/bigru2/backward_gru_3/zeros", "op": "Fill", "input": ["StatefulPartitionedCall/CRNN/bigru2/backward_gru_3/zeros/packed", "StatefulPartitionedCall/CRNN/bigru2/backward_gru_3/zeros/Const"], "attr": {"index_type": {"type": "DT_INT32"}, "T": {"type": "DT_FLOAT"}}}, {"name": "StatefulPartitionedCall/CRNN/bigru2/backward_gru_3/PartitionedCall/while/enter/_289", "op": "Enter", "input": ["StatefulPartitionedCall/CRNN/bigru2/backward_gru_3/PartitionedCall/TensorArrayUnstack/TensorListFromTensor"], "attr": {"T": {"type": "DT_VARIANT"}, "frame_name": {"s": "U3RhdGVmdWxQYXJ0aXRpb25lZENhbGwvQ1JOTi9iaWdydTIvYmFja3dhcmRfZ3J1XzMvUGFydGl0aW9uZWRDYWxsL3doaWxl"}, "parallel_iterations": {"i": "32"}, "is_constant": {"b": false}}}, {"name": "StatefulPartitionedCall/CRNN/bigru2/backward_gru_3/PartitionedCall/TensorArrayV2_1", "op": "TensorListReserve", "input": ["StatefulPartitionedCall/CRNN/bigru2/backward_gru_3/PartitionedCall/TensorArrayV2_1/element_shape", "StatefulPartitionedCall/CRNN/bigru2/backward_gru_3/PartitionedCall/strided_slice"], "attr": {"shape_type": {"type": "DT_INT32"}, "element_dtype": {"type": "DT_FLOAT"}}}, {"name": "StatefulPartitionedCall/CRNN/bigru2/backward_gru_3/PartitionedCall/while/enter/_288", "op": "Enter", "input": ["StatefulPartitionedCall/CRNN/bigru2/backward_gru_3/PartitionedCall/strided_slice"], "attr": {"T": {"type": "DT_INT32"}, "parallel_iterations": {"i": "32"}, "is_constant": {"b": false}, "frame_name": {"s": "U3RhdGVmdWxQYXJ0aXRpb25lZENhbGwvQ1JOTi9iaWdydTIvYmFja3dhcmRfZ3J1XzMvUGFydGl0aW9uZWRDYWxsL3doaWxl"}}}, {"name": "StatefulPartitionedCall/CRNN/bigru1/forward_gru_2/PartitionedCall/while/body/_102/while/Tanh", "op": "Tanh", "input": ["StatefulPartitionedCall/CRNN/bigru1/forward_gru_2/PartitionedCall/while/body/_102/while/add_2"], "attr": {"T": {"type": "DT_FLOAT"}}}, {"name": "StatefulPartitionedCall/CRNN/bigru1/backward_gru_2/PartitionedCall/while/body/_162/while/Tanh", "op": "Tanh", "input": ["StatefulPartitionedCall/CRNN/bigru1/backward_gru_2/PartitionedCall/while/body/_162/while/add_2"], "attr": {"T": {"type": "DT_FLOAT"}}}, {"name": "StatefulPartitionedCall/CRNN/bigru2/forward_gru_3/PartitionedCall/while/enter/_227", "op": "Enter", "input": ["StatefulPartitionedCall/CRNN/bigru2/forward_gru_3/zeros"], "attr": {"frame_name": {"s": "U3RhdGVmdWxQYXJ0aXRpb25lZENhbGwvQ1JOTi9iaWdydTIvZm9yd2FyZF9ncnVfMy9QYXJ0aXRpb25lZENhbGwvd2hpbGU="}, "is_constant": {"b": false}, "T": {"type": "DT_FLOAT"}, "parallel_iterations": {"i": "32"}}}, {"name": "StatefulPartitionedCall/CRNN/bigru2/forward_gru_3/PartitionedCall/while/enter/_226", "op": "Enter", "input": ["StatefulPartitionedCall/CRNN/bigru2/forward_gru_3/PartitionedCall/TensorArrayV2_1"], "attr": {"parallel_iterations": {"i": "32"}, "T": {"type": "DT_VARIANT"}, "is_constant": {"b": false}, "frame_name": {"s": "U3RhdGVmdWxQYXJ0aXRpb25lZENhbGwvQ1JOTi9iaWdydTIvZm9yd2FyZF9ncnVfMy9QYXJ0aXRpb25lZENhbGwvd2hpbGU="}}}, {"name": "StatefulPartitionedCall/CRNN/bigru2/forward_gru_3/PartitionedCall/while/merge/_239", "op": "Merge", "input": ["StatefulPartitionedCall/CRNN/bigru2/forward_gru_3/PartitionedCall/while/enter/_228", "StatefulPartitionedCall/CRNN/bigru2/forward_gru_3/PartitionedCall/while/next_iteration/_275"], "attr": {"N": {"i": "2"}, "T": {"type": "DT_INT32"}}}, {"name": "StatefulPartitionedCall/CRNN/bigru2/backward_gru_3/PartitionedCall/while/enter/_287", "op": "Enter", "input": ["StatefulPartitionedCall/CRNN/bigru2/backward_gru_3/zeros"], "attr": {"is_constant": {"b": false}, "parallel_iterations": {"i": "32"}, "T": {"type": "DT_FLOAT"}, "frame_name": {"s": "U3RhdGVmdWxQYXJ0aXRpb25lZENhbGwvQ1JOTi9iaWdydTIvYmFja3dhcmRfZ3J1XzMvUGFydGl0aW9uZWRDYWxsL3doaWxl"}}}, {"name": "StatefulPartitionedCall/CRNN/bigru2/backward_gru_3/PartitionedCall/while/merge/_300", "op": "Merge", "input": ["StatefulPartitionedCall/CRNN/bigru2/backward_gru_3/PartitionedCall/while/enter/_289", "StatefulPartitionedCall/CRNN/bigru2/backward_gru_3/PartitionedCall/while/next_iteration/_336"], "attr": {"N": {"i": "2"}, "T": {"type": "DT_VARIANT"}}}, {"name": "StatefulPartitionedCall/CRNN/bigru2/backward_gru_3/PartitionedCall/while/enter/_286", "op": "Enter", "input": ["StatefulPartitionedCall/CRNN/bigru2/backward_gru_3/PartitionedCall/TensorArrayV2_1"], "attr": {"T": {"type": "DT_VARIANT"}, "parallel_iterations": {"i": "32"}, "is_constant": {"b": false}, "frame_name": {"s": "U3RhdGVmdWxQYXJ0aXRpb25lZENhbGwvQ1JOTi9iaWdydTIvYmFja3dhcmRfZ3J1XzMvUGFydGl0aW9uZWRDYWxsL3doaWxl"}}}, {"name": "StatefulPartitionedCall/CRNN/bigru2/backward_gru_3/PartitionedCall/while/merge/_299", "op": "Merge", "input": ["StatefulPartitionedCall/CRNN/bigru2/backward_gru_3/PartitionedCall/while/enter/_288", "StatefulPartitionedCall/CRNN/bigru2/backward_gru_3/PartitionedCall/while/next_iteration/_335"], "attr": {"N": {"i": "2"}, "T": {"type": "DT_INT32"}}}, {"name": "StatefulPartitionedCall/CRNN/bigru1/forward_gru_2/PartitionedCall/while/body/_102/while/mul_2", "op": "Mul", "input": ["StatefulPartitionedCall/CRNN/bigru1/forward_gru_2/PartitionedCall/while/body/_102/while/sub", "StatefulPartitionedCall/CRNN/bigru1/forward_gru_2/PartitionedCall/while/body/_102/while/Tanh"], "attr": {"T": {"type": "DT_FLOAT"}}}, {"name": "StatefulPartitionedCall/CRNN/bigru1/backward_gru_2/PartitionedCall/while/body/_162/while/mul_2", "op": "Mul", "input": ["StatefulPartitionedCall/CRNN/bigru1/backward_gru_2/PartitionedCall/while/body/_162/while/sub", "StatefulPartitionedCall/CRNN/bigru1/backward_gru_2/PartitionedCall/while/body/_162/while/Tanh"], "attr": {"T": {"type": "DT_FLOAT"}}}, {"name": "StatefulPartitionedCall/CRNN/bigru2/forward_gru_3/PartitionedCall/while/merge/_238", "op": "Merge", "input": ["StatefulPartitionedCall/CRNN/bigru2/forward_gru_3/PartitionedCall/while/enter/_227", "StatefulPartitionedCall/CRNN/bigru2/forward_gru_3/PartitionedCall/while/next_iteration/_274"], "attr": {"T": {"type": "DT_FLOAT"}, "N": {"i": "2"}}}, {"name": "StatefulPartitionedCall/CRNN/bigru2/forward_gru_3/PartitionedCall/while/merge/_237", "op": "Merge", "input": ["StatefulPartitionedCall/CRNN/bigru2/forward_gru_3/PartitionedCall/while/enter/_226", "StatefulPartitionedCall/CRNN/bigru2/forward_gru_3/PartitionedCall/while/next_iteration/_273"], "attr": {"T": {"type": "DT_VARIANT"}, "N": {"i": "2"}}}, {"name": "StatefulPartitionedCall/CRNN/bigru2/forward_gru_3/PartitionedCall/while/cond/_221/while/Less", "op": "Less", "input": ["StatefulPartitionedCall/CRNN/bigru2/forward_gru_3/PartitionedCall/while/merge/_236", "StatefulPartitionedCall/CRNN/bigru2/forward_gru_3/PartitionedCall/while/merge/_239", "^StatefulPartitionedCall/CRNN/bigru2/forward_gru_3/PartitionedCall/while/merge/_234"], "attr": {"T": {"type": "DT_INT32"}}}, {"name": "StatefulPartitionedCall/CRNN/bigru2/backward_gru_3/PartitionedCall/while/merge/_298", "op": "Merge", "input": ["StatefulPartitionedCall/CRNN/bigru2/backward_gru_3/PartitionedCall/while/enter/_287", "StatefulPartitionedCall/CRNN/bigru2/backward_gru_3/PartitionedCall/while/next_iteration/_334"], "attr": {"T": {"type": "DT_FLOAT"}, "N": {"i": "2"}}}, {"name": "StatefulPartitionedCall/CRNN/bigru2/backward_gru_3/PartitionedCall/while/merge/_297", "op": "Merge", "input": ["StatefulPartitionedCall/CRNN/bigru2/backward_gru_3/PartitionedCall/while/enter/_286", "StatefulPartitionedCall/CRNN/bigru2/backward_gru_3/PartitionedCall/while/next_iteration/_333"], "attr": {"N": {"i": "2"}, "T": {"type": "DT_VARIANT"}}}, {"name": "StatefulPartitionedCall/CRNN/bigru2/backward_gru_3/PartitionedCall/while/cond/_281/while/Less", "op": "Less", "input": ["StatefulPartitionedCall/CRNN/bigru2/backward_gru_3/PartitionedCall/while/merge/_296", "StatefulPartitionedCall/CRNN/bigru2/backward_gru_3/PartitionedCall/while/merge/_299", "^StatefulPartitionedCall/CRNN/bigru2/backward_gru_3/PartitionedCall/while/merge/_294"], "attr": {"T": {"type": "DT_INT32"}}}, {"name": "StatefulPartitionedCall/CRNN/bigru1/forward_gru_2/PartitionedCall/while/body/_102/while/add_3", "op": "AddV2", "input": ["StatefulPartitionedCall/CRNN/bigru1/forward_gru_2/PartitionedCall/while/body/_102/while/mul_1", "StatefulPartitionedCall/CRNN/bigru1/forward_gru_2/PartitionedCall/while/body/_102/while/mul_2"], "attr": {"T": {"type": "DT_FLOAT"}}}, {"name": "StatefulPartitionedCall/CRNN/bigru1/backward_gru_2/PartitionedCall/while/body/_162/while/add_3", "op": "AddV2", "input": ["StatefulPartitionedCall/CRNN/bigru1/backward_gru_2/PartitionedCall/while/body/_162/while/mul_1", "StatefulPartitionedCall/CRNN/bigru1/backward_gru_2/PartitionedCall/while/body/_162/while/mul_2"], "attr": {"T": {"type": "DT_FLOAT"}}}, {"name": "StatefulPartitionedCall/CRNN/bigru2/forward_gru_3/PartitionedCall/while/LoopCond/_245", "op": "LoopCond", "input": ["StatefulPartitionedCall/CRNN/bigru2/forward_gru_3/PartitionedCall/while/cond/_221/while/Less"]}, {"name": "StatefulPartitionedCall/CRNN/bigru2/backward_gru_3/PartitionedCall/while/LoopCond/_305", "op": "LoopCond", "input": ["StatefulPartitionedCall/CRNN/bigru2/backward_gru_3/PartitionedCall/while/cond/_281/while/Less"]}, {"name": "StatefulPartitionedCall/CRNN/bigru1/forward_gru_2/PartitionedCall/while/next_iteration/_154", "op": "NextIteration", "input": ["StatefulPartitionedCall/CRNN/bigru1/forward_gru_2/PartitionedCall/while/body/_102/while/add_3", "^StatefulPartitionedCall/CRNN/bigru1/forward_gru_2/PartitionedCall/while/loop_body_control/_137"], "attr": {"T": {"type": "DT_FLOAT"}}}, {"name": "StatefulPartitionedCall/CRNN/bigru1/forward_gru_2/PartitionedCall/while/body/_102/while/TensorArrayV2Write/TensorListSetItem", "op": "TensorListSetItem", "input": ["StatefulPartitionedCall/CRNN/bigru1/forward_gru_2/PartitionedCall/while/StatefulPartitionedCall/CRNN/bigru1/forward_gru_2/PartitionedCall/TensorArrayV2_1_switch/_129:1", "Func/StatefulPartitionedCall/CRNN/bigru1/forward_gru_2/PartitionedCall/while/body/_102/input/_357", "StatefulPartitionedCall/CRNN/bigru1/forward_gru_2/PartitionedCall/while/body/_102/while/add_3"], "attr": {"element_dtype": {"type": "DT_FLOAT"}}}, {"name": "StatefulPartitionedCall/CRNN/bigru1/backward_gru_2/PartitionedCall/while/next_iteration/_214", "op": "NextIteration", "input": ["StatefulPartitionedCall/CRNN/bigru1/backward_gru_2/PartitionedCall/while/body/_162/while/add_3", "^StatefulPartitionedCall/CRNN/bigru1/backward_gru_2/PartitionedCall/while/loop_body_control/_197"], "attr": {"T": {"type": "DT_FLOAT"}}}, {"name": "StatefulPartitionedCall/CRNN/bigru1/backward_gru_2/PartitionedCall/while/body/_162/while/TensorArrayV2Write/TensorListSetItem", "op": "TensorListSetItem", "input": ["StatefulPartitionedCall/CRNN/bigru1/backward_gru_2/PartitionedCall/while/StatefulPartitionedCall/CRNN/bigru1/backward_gru_2/PartitionedCall/TensorArrayV2_1_switch/_189:1", "Func/StatefulPartitionedCall/CRNN/bigru1/backward_gru_2/PartitionedCall/while/body/_162/input/_394", "StatefulPartitionedCall/CRNN/bigru1/backward_gru_2/PartitionedCall/while/body/_162/while/add_3"], "attr": {"element_dtype": {"type": "DT_FLOAT"}}}, {"name": "StatefulPartitionedCall/CRNN/bigru2/forward_gru_3/PartitionedCall/while/StatefulPartitionedCall/CRNN/bigru2/forward_gru_3/PartitionedCall/TensorArrayUnstack/TensorListFromTensor_switch/_252", "op": "Switch", "input": ["StatefulPartitionedCall/CRNN/bigru2/forward_gru_3/PartitionedCall/while/merge/_240", "StatefulPartitionedCall/CRNN/bigru2/forward_gru_3/PartitionedCall/while/LoopCond/_245"], "attr": {"T": {"type": "DT_VARIANT"}}}, {"name": "StatefulPartitionedCall/CRNN/bigru2/forward_gru_3/PartitionedCall/while/Func/StatefulPartitionedCall/CRNN/bigru2/forward_gru_3/PartitionedCall/input/_85_switch/_253", "op": "Switch", "input": ["StatefulPartitionedCall/CRNN/bigru2/forward_gru_3/PartitionedCall/while/merge/_241", "StatefulPartitionedCall/CRNN/bigru2/forward_gru_3/PartitionedCall/while/LoopCond/_245"], "attr": {"T": {"type": "DT_FLOAT"}}}, {"name": "StatefulPartitionedCall/CRNN/bigru2/forward_gru_3/PartitionedCall/while/StatefulPartitionedCall/CRNN/bigru2/forward_gru_3/PartitionedCall/unstack_switch/_254", "op": "Switch", "input": ["StatefulPartitionedCall/CRNN/bigru2/forward_gru_3/PartitionedCall/while/merge/_242", "StatefulPartitionedCall/CRNN/bigru2/forward_gru_3/PartitionedCall/while/LoopCond/_245"], "attr": {"T": {"type": "DT_FLOAT"}}}, {"name": "StatefulPartitionedCall/CRNN/bigru2/forward_gru_3/PartitionedCall/while/Func/StatefulPartitionedCall/CRNN/bigru2/forward_gru_3/PartitionedCall/input/_84_switch/_250", "op": "Switch", "input": ["StatefulPartitionedCall/CRNN/bigru2/forward_gru_3/PartitionedCall/while/merge/_238", "StatefulPartitionedCall/CRNN/bigru2/forward_gru_3/PartitionedCall/while/LoopCond/_245"], "attr": {"T": {"type": "DT_FLOAT"}}}, {"name": "StatefulPartitionedCall/CRNN/bigru2/forward_gru_3/PartitionedCall/while/Func/StatefulPartitionedCall/CRNN/bigru2/forward_gru_3/PartitionedCall/input/_86_switch/_255", "op": "Switch", "input": ["StatefulPartitionedCall/CRNN/bigru2/forward_gru_3/PartitionedCall/while/merge/_243", "StatefulPartitionedCall/CRNN/bigru2/forward_gru_3/PartitionedCall/while/LoopCond/_245"], "attr": {"T": {"type": "DT_FLOAT"}}}, {"name": "StatefulPartitionedCall/CRNN/bigru2/forward_gru_3/PartitionedCall/while/StatefulPartitionedCall/CRNN/bigru2/forward_gru_3/PartitionedCall/unstack_switch/_256", "op": "Switch", "input": ["StatefulPartitionedCall/CRNN/bigru2/forward_gru_3/PartitionedCall/while/merge/_244", "StatefulPartitionedCall/CRNN/bigru2/forward_gru_3/PartitionedCall/while/LoopCond/_245"], "attr": {"T": {"type": "DT_FLOAT"}}}, {"name": "StatefulPartitionedCall/CRNN/bigru2/forward_gru_3/PartitionedCall/while/StatefulPartitionedCall/CRNN/bigru2/forward_gru_3/PartitionedCall/time_switch/_248", "op": "Switch", "input": ["StatefulPartitionedCall/CRNN/bigru2/forward_gru_3/PartitionedCall/while/merge/_236", "StatefulPartitionedCall/CRNN/bigru2/forward_gru_3/PartitionedCall/while/LoopCond/_245"], "attr": {"T": {"type": "DT_INT32"}}}, {"name": "StatefulPartitionedCall/CRNN/bigru2/forward_gru_3/PartitionedCall/while/StatefulPartitionedCall/CRNN/bigru2/forward_gru_3/PartitionedCall/while/loop_counter_switch/_246", "op": "Switch", "input": ["StatefulPartitionedCall/CRNN/bigru2/forward_gru_3/PartitionedCall/while/merge/_234", "StatefulPartitionedCall/CRNN/bigru2/forward_gru_3/PartitionedCall/while/LoopCond/_245"], "attr": {"T": {"type": "DT_INT32"}}}, {"name": "StatefulPartitionedCall/CRNN/bigru2/forward_gru_3/PartitionedCall/while/StatefulPartitionedCall/CRNN/bigru2/forward_gru_3/PartitionedCall/TensorArrayV2_1_switch/_249", "op": "Switch", "input": ["StatefulPartitionedCall/CRNN/bigru2/forward_gru_3/PartitionedCall/while/merge/_237", "StatefulPartitionedCall/CRNN/bigru2/forward_gru_3/PartitionedCall/while/LoopCond/_245"], "attr": {"T": {"type": "DT_VARIANT"}}}, {"name": "StatefulPartitionedCall/CRNN/bigru2/forward_gru_3/PartitionedCall/while/StatefulPartitionedCall/CRNN/bigru2/forward_gru_3/PartitionedCall/strided_slice_switch/_251", "op": "Switch", "input": ["StatefulPartitionedCall/CRNN/bigru2/forward_gru_3/PartitionedCall/while/merge/_239", "StatefulPartitionedCall/CRNN/bigru2/forward_gru_3/PartitionedCall/while/LoopCond/_245"], "attr": {"T": {"type": "DT_INT32"}}}, {"name": "StatefulPartitionedCall/CRNN/bigru2/backward_gru_3/PartitionedCall/while/StatefulPartitionedCall/CRNN/bigru2/backward_gru_3/PartitionedCall/TensorArrayUnstack/TensorListFromTensor_switch/_312", "op": "Switch", "input": ["StatefulPartitionedCall/CRNN/bigru2/backward_gru_3/PartitionedCall/while/merge/_300", "StatefulPartitionedCall/CRNN/bigru2/backward_gru_3/PartitionedCall/while/LoopCond/_305"], "attr": {"T": {"type": "DT_VARIANT"}}}, {"name": "StatefulPartitionedCall/CRNN/bigru2/backward_gru_3/PartitionedCall/while/Func/StatefulPartitionedCall/CRNN/bigru2/backward_gru_3/PartitionedCall/input/_94_switch/_313", "op": "Switch", "input": ["StatefulPartitionedCall/CRNN/bigru2/backward_gru_3/PartitionedCall/while/merge/_301", "StatefulPartitionedCall/CRNN/bigru2/backward_gru_3/PartitionedCall/while/LoopCond/_305"], "attr": {"T": {"type": "DT_FLOAT"}}}, {"name": "StatefulPartitionedCall/CRNN/bigru2/backward_gru_3/PartitionedCall/while/StatefulPartitionedCall/CRNN/bigru2/backward_gru_3/PartitionedCall/unstack_switch/_314", "op": "Switch", "input": ["StatefulPartitionedCall/CRNN/bigru2/backward_gru_3/PartitionedCall/while/merge/_302", "StatefulPartitionedCall/CRNN/bigru2/backward_gru_3/PartitionedCall/while/LoopCond/_305"], "attr": {"T": {"type": "DT_FLOAT"}}}, {"name": "StatefulPartitionedCall/CRNN/bigru2/backward_gru_3/PartitionedCall/while/Func/StatefulPartitionedCall/CRNN/bigru2/backward_gru_3/PartitionedCall/input/_93_switch/_310", "op": "Switch", "input": ["StatefulPartitionedCall/CRNN/bigru2/backward_gru_3/PartitionedCall/while/merge/_298", "StatefulPartitionedCall/CRNN/bigru2/backward_gru_3/PartitionedCall/while/LoopCond/_305"], "attr": {"T": {"type": "DT_FLOAT"}}}, {"name": "StatefulPartitionedCall/CRNN/bigru2/backward_gru_3/PartitionedCall/while/Func/StatefulPartitionedCall/CRNN/bigru2/backward_gru_3/PartitionedCall/input/_95_switch/_315", "op": "Switch", "input": ["StatefulPartitionedCall/CRNN/bigru2/backward_gru_3/PartitionedCall/while/merge/_303", "StatefulPartitionedCall/CRNN/bigru2/backward_gru_3/PartitionedCall/while/LoopCond/_305"], "attr": {"T": {"type": "DT_FLOAT"}}}, {"name": "StatefulPartitionedCall/CRNN/bigru2/backward_gru_3/PartitionedCall/while/StatefulPartitionedCall/CRNN/bigru2/backward_gru_3/PartitionedCall/unstack_switch/_316", "op": "Switch", "input": ["StatefulPartitionedCall/CRNN/bigru2/backward_gru_3/PartitionedCall/while/merge/_304", "StatefulPartitionedCall/CRNN/bigru2/backward_gru_3/PartitionedCall/while/LoopCond/_305"], "attr": {"T": {"type": "DT_FLOAT"}}}, {"name": "StatefulPartitionedCall/CRNN/bigru2/backward_gru_3/PartitionedCall/while/StatefulPartitionedCall/CRNN/bigru2/backward_gru_3/PartitionedCall/time_switch/_308", "op": "Switch", "input": ["StatefulPartitionedCall/CRNN/bigru2/backward_gru_3/PartitionedCall/while/merge/_296", "StatefulPartitionedCall/CRNN/bigru2/backward_gru_3/PartitionedCall/while/LoopCond/_305"], "attr": {"T": {"type": "DT_INT32"}}}, {"name": "StatefulPartitionedCall/CRNN/bigru2/backward_gru_3/PartitionedCall/while/StatefulPartitionedCall/CRNN/bigru2/backward_gru_3/PartitionedCall/while/loop_counter_switch/_306", "op": "Switch", "input": ["StatefulPartitionedCall/CRNN/bigru2/backward_gru_3/PartitionedCall/while/merge/_294", "StatefulPartitionedCall/CRNN/bigru2/backward_gru_3/PartitionedCall/while/LoopCond/_305"], "attr": {"T": {"type": "DT_INT32"}}}, {"name": "StatefulPartitionedCall/CRNN/bigru2/backward_gru_3/PartitionedCall/while/StatefulPartitionedCall/CRNN/bigru2/backward_gru_3/PartitionedCall/TensorArrayV2_1_switch/_309", "op": "Switch", "input": ["StatefulPartitionedCall/CRNN/bigru2/backward_gru_3/PartitionedCall/while/merge/_297", "StatefulPartitionedCall/CRNN/bigru2/backward_gru_3/PartitionedCall/while/LoopCond/_305"], "attr": {"T": {"type": "DT_VARIANT"}}}, {"name": "StatefulPartitionedCall/CRNN/bigru2/backward_gru_3/PartitionedCall/while/StatefulPartitionedCall/CRNN/bigru2/backward_gru_3/PartitionedCall/strided_slice_switch/_311", "op": "Switch", "input": ["StatefulPartitionedCall/CRNN/bigru2/backward_gru_3/PartitionedCall/while/merge/_299", "StatefulPartitionedCall/CRNN/bigru2/backward_gru_3/PartitionedCall/while/LoopCond/_305"], "attr": {"T": {"type": "DT_INT32"}}}, {"name": "StatefulPartitionedCall/CRNN/bigru1/forward_gru_2/PartitionedCall/while/next_iteration/_153", "op": "NextIteration", "input": ["StatefulPartitionedCall/CRNN/bigru1/forward_gru_2/PartitionedCall/while/body/_102/while/TensorArrayV2Write/TensorListSetItem", "^StatefulPartitionedCall/CRNN/bigru1/forward_gru_2/PartitionedCall/while/loop_body_control/_137"], "attr": {"T": {"type": "DT_VARIANT"}}}, {"name": "StatefulPartitionedCall/CRNN/bigru1/backward_gru_2/PartitionedCall/while/next_iteration/_213", "op": "NextIteration", "input": ["StatefulPartitionedCall/CRNN/bigru1/backward_gru_2/PartitionedCall/while/body/_162/while/TensorArrayV2Write/TensorListSetItem", "^StatefulPartitionedCall/CRNN/bigru1/backward_gru_2/PartitionedCall/while/loop_body_control/_197"], "attr": {"T": {"type": "DT_VARIANT"}}}, {"name": "StatefulPartitionedCall/CRNN/bigru2/forward_gru_3/PartitionedCall/while/loop_body_control/_257", "op": "Identity", "input": ["StatefulPartitionedCall/CRNN/bigru2/forward_gru_3/PartitionedCall/while/StatefulPartitionedCall/CRNN/bigru2/forward_gru_3/PartitionedCall/while/loop_counter_switch/_246:1"], "attr": {"T": {"type": "DT_INT32"}}}, {"name": "StatefulPartitionedCall/CRNN/bigru2/forward_gru_3/PartitionedCall/while/exit/_261", "op": "Exit", "input": ["StatefulPartitionedCall/CRNN/bigru2/forward_gru_3/PartitionedCall/while/StatefulPartitionedCall/CRNN/bigru2/forward_gru_3/PartitionedCall/TensorArrayV2_1_switch/_249"], "attr": {"T": {"type": "DT_VARIANT"}}}, {"name": "StatefulPartitionedCall/CRNN/bigru2/backward_gru_3/PartitionedCall/while/loop_body_control/_317", "op": "Identity", "input": ["StatefulPartitionedCall/CRNN/bigru2/backward_gru_3/PartitionedCall/while/StatefulPartitionedCall/CRNN/bigru2/backward_gru_3/PartitionedCall/while/loop_counter_switch/_306:1"], "attr": {"T": {"type": "DT_INT32"}}}, {"name": "StatefulPartitionedCall/CRNN/bigru2/backward_gru_3/PartitionedCall/while/exit/_321", "op": "Exit", "input": ["StatefulPartitionedCall/CRNN/bigru2/backward_gru_3/PartitionedCall/while/StatefulPartitionedCall/CRNN/bigru2/backward_gru_3/PartitionedCall/TensorArrayV2_1_switch/_309"], "attr": {"T": {"type": "DT_VARIANT"}}}, {"name": "StatefulPartitionedCall/CRNN/bigru2/forward_gru_3/PartitionedCall/while/body/_222/while/sub/x", "op": "Const", "input": ["^StatefulPartitionedCall/CRNN/bigru2/forward_gru_3/PartitionedCall/while/loop_body_control/_257"], "attr": {"dtype": {"type": "DT_FLOAT"}, "value": {"tensor": {"dtype": "DT_FLOAT", "tensorShape": {}}}}}, {"name": "StatefulPartitionedCall/CRNN/bigru2/forward_gru_3/PartitionedCall/while/body/_222/while/split/split_dim", "op": "Const", "input": ["^StatefulPartitionedCall/CRNN/bigru2/forward_gru_3/PartitionedCall/while/loop_body_control/_257"], "attr": {"dtype": {"type": "DT_INT32"}, "value": {"tensor": {"dtype": "DT_INT32", "tensorShape": {}}}}}, {"name": "StatefulPartitionedCall/CRNN/bigru2/forward_gru_3/PartitionedCall/while/next_iteration/_276", "op": "NextIteration", "input": ["StatefulPartitionedCall/CRNN/bigru2/forward_gru_3/PartitionedCall/while/StatefulPartitionedCall/CRNN/bigru2/forward_gru_3/PartitionedCall/TensorArrayUnstack/TensorListFromTensor_switch/_252:1", "^StatefulPartitionedCall/CRNN/bigru2/forward_gru_3/PartitionedCall/while/loop_body_control/_257"], "attr": {"T": {"type": "DT_VARIANT"}}}, {"name": "StatefulPartitionedCall/CRNN/bigru2/forward_gru_3/PartitionedCall/while/body/_222/while/TensorArrayV2Read/TensorListGetItem/element_shape", "op": "Const", "input": ["^StatefulPartitionedCall/CRNN/bigru2/forward_gru_3/PartitionedCall/while/loop_body_control/_257"], "attr": {"dtype": {"type": "DT_INT32"}, "value": {"tensor": {"dtype": "DT_INT32", "tensorShape": {"dim": [{"size": "2"}]}}}}}, {"name": "StatefulPartitionedCall/CRNN/bigru2/forward_gru_3/PartitionedCall/while/next_iteration/_277", "op": "NextIteration", "input": ["StatefulPartitionedCall/CRNN/bigru2/forward_gru_3/PartitionedCall/while/Func/StatefulPartitionedCall/CRNN/bigru2/forward_gru_3/PartitionedCall/input/_85_switch/_253:1", "^StatefulPartitionedCall/CRNN/bigru2/forward_gru_3/PartitionedCall/while/loop_body_control/_257"], "attr": {"T": {"type": "DT_FLOAT"}}}, {"name": "StatefulPartitionedCall/CRNN/bigru2/forward_gru_3/PartitionedCall/while/next_iteration/_278", "op": "NextIteration", "input": ["StatefulPartitionedCall/CRNN/bigru2/forward_gru_3/PartitionedCall/while/StatefulPartitionedCall/CRNN/bigru2/forward_gru_3/PartitionedCall/unstack_switch/_254:1", "^StatefulPartitionedCall/CRNN/bigru2/forward_gru_3/PartitionedCall/while/loop_body_control/_257"], "attr": {"T": {"type": "DT_FLOAT"}}}, {"name": "StatefulPartitionedCall/CRNN/bigru2/forward_gru_3/PartitionedCall/while/body/_222/while/split_1/split_dim", "op": "Const", "input": ["^StatefulPartitionedCall/CRNN/bigru2/forward_gru_3/PartitionedCall/while/loop_body_control/_257"], "attr": {"value": {"tensor": {"dtype": "DT_INT32", "tensorShape": {}}}, "dtype": {"type": "DT_INT32"}}}, {"name": "StatefulPartitionedCall/CRNN/bigru2/forward_gru_3/PartitionedCall/while/next_iteration/_279", "op": "NextIteration", "input": ["StatefulPartitionedCall/CRNN/bigru2/forward_gru_3/PartitionedCall/while/Func/StatefulPartitionedCall/CRNN/bigru2/forward_gru_3/PartitionedCall/input/_86_switch/_255:1", "^StatefulPartitionedCall/CRNN/bigru2/forward_gru_3/PartitionedCall/while/loop_body_control/_257"], "attr": {"T": {"type": "DT_FLOAT"}}}, {"name": "StatefulPartitionedCall/CRNN/bigru2/forward_gru_3/PartitionedCall/while/body/_222/while/MatMul_1", "op": "MatMul", "input": ["StatefulPartitionedCall/CRNN/bigru2/forward_gru_3/PartitionedCall/while/Func/StatefulPartitionedCall/CRNN/bigru2/forward_gru_3/PartitionedCall/input/_84_switch/_250:1", "StatefulPartitionedCall/CRNN/bigru2/forward_gru_3/PartitionedCall/while/Func/StatefulPartitionedCall/CRNN/bigru2/forward_gru_3/PartitionedCall/input/_86_switch/_255:1", "^StatefulPartitionedCall/CRNN/bigru2/forward_gru_3/PartitionedCall/while/loop_body_control/_257"], "device": "/device:CPU:0", "attr": {"transpose_b": {"b": false}, "transpose_a": {"b": false}, "T": {"type": "DT_FLOAT"}}}, {"name": "StatefulPartitionedCall/CRNN/bigru2/forward_gru_3/PartitionedCall/while/next_iteration/_280", "op": "NextIteration", "input": ["StatefulPartitionedCall/CRNN/bigru2/forward_gru_3/PartitionedCall/while/StatefulPartitionedCall/CRNN/bigru2/forward_gru_3/PartitionedCall/unstack_switch/_256:1", "^StatefulPartitionedCall/CRNN/bigru2/forward_gru_3/PartitionedCall/while/loop_body_control/_257"], "attr": {"T": {"type": "DT_FLOAT"}}}, {"name": "Func/StatefulPartitionedCall/CRNN/bigru2/forward_gru_3/PartitionedCall/while/body/_222/input/_431", "op": "Identity", "input": ["StatefulPartitionedCall/CRNN/bigru2/forward_gru_3/PartitionedCall/while/StatefulPartitionedCall/CRNN/bigru2/forward_gru_3/PartitionedCall/time_switch/_248:1", "^StatefulPartitionedCall/CRNN/bigru2/forward_gru_3/PartitionedCall/while/loop_body_control/_257"], "attr": {"T": {"type": "DT_INT32"}}}, {"name": "StatefulPartitionedCall/CRNN/bigru2/forward_gru_3/PartitionedCall/while/body/_222/while/add_4/y", "op": "Const", "input": ["^StatefulPartitionedCall/CRNN/bigru2/forward_gru_3/PartitionedCall/while/loop_body_control/_257"], "attr": {"dtype": {"type": "DT_INT32"}, "value": {"tensor": {"dtype": "DT_INT32", "tensorShape": {}}}}}, {"name": "StatefulPartitionedCall/CRNN/bigru2/forward_gru_3/PartitionedCall/while/body/_222/while/add_5/y", "op": "Const", "input": ["^StatefulPartitionedCall/CRNN/bigru2/forward_gru_3/PartitionedCall/while/loop_body_control/_257"], "attr": {"value": {"tensor": {"dtype": "DT_INT32", "tensorShape": {}}}, "dtype": {"type": "DT_INT32"}}}, {"name": "StatefulPartitionedCall/CRNN/bigru2/forward_gru_3/PartitionedCall/while/next_iteration/_275", "op": "NextIteration", "input": ["StatefulPartitionedCall/CRNN/bigru2/forward_gru_3/PartitionedCall/while/StatefulPartitionedCall/CRNN/bigru2/forward_gru_3/PartitionedCall/strided_slice_switch/_251:1", "^StatefulPartitionedCall/CRNN/bigru2/forward_gru_3/PartitionedCall/while/loop_body_control/_257"], "attr": {"T": {"type": "DT_INT32"}}}, {"name": "StatefulPartitionedCall/CRNN/bigru2/forward_gru_3/PartitionedCall/TensorArrayV2Stack/TensorListStack", "op": "TensorListStack", "input": ["StatefulPartitionedCall/CRNN/bigru2/forward_gru_3/PartitionedCall/while/exit/_261", "StatefulPartitionedCall/CRNN/bigru2/forward_gru_3/PartitionedCall/TensorArrayV2Stack/TensorListStack/element_shape"], "attr": {"num_elements": {"i": "-1"}, "element_dtype": {"type": "DT_FLOAT"}}}, {"name": "StatefulPartitionedCall/CRNN/bigru2/backward_gru_3/PartitionedCall/while/body/_282/while/sub/x", "op": "Const", "input": ["^StatefulPartitionedCall/CRNN/bigru2/backward_gru_3/PartitionedCall/while/loop_body_control/_317"], "attr": {"value": {"tensor": {"dtype": "DT_FLOAT", "tensorShape": {}}}, "dtype": {"type": "DT_FLOAT"}}}, {"name": "StatefulPartitionedCall/CRNN/bigru2/backward_gru_3/PartitionedCall/while/body/_282/while/split/split_dim", "op": "Const", "input": ["^StatefulPartitionedCall/CRNN/bigru2/backward_gru_3/PartitionedCall/while/loop_body_control/_317"], "attr": {"dtype": {"type": "DT_INT32"}, "value": {"tensor": {"dtype": "DT_INT32", "tensorShape": {}}}}}, {"name": "StatefulPartitionedCall/CRNN/bigru2/backward_gru_3/PartitionedCall/while/next_iteration/_336", "op": "NextIteration", "input": ["StatefulPartitionedCall/CRNN/bigru2/backward_gru_3/PartitionedCall/while/StatefulPartitionedCall/CRNN/bigru2/backward_gru_3/PartitionedCall/TensorArrayUnstack/TensorListFromTensor_switch/_312:1", "^StatefulPartitionedCall/CRNN/bigru2/backward_gru_3/PartitionedCall/while/loop_body_control/_317"], "attr": {"T": {"type": "DT_VARIANT"}}}, {"name": "StatefulPartitionedCall/CRNN/bigru2/backward_gru_3/PartitionedCall/while/body/_282/while/TensorArrayV2Read/TensorListGetItem/element_shape", "op": "Const", "input": ["^StatefulPartitionedCall/CRNN/bigru2/backward_gru_3/PartitionedCall/while/loop_body_control/_317"], "attr": {"value": {"tensor": {"dtype": "DT_INT32", "tensorShape": {"dim": [{"size": "2"}]}}}, "dtype": {"type": "DT_INT32"}}}, {"name": "StatefulPartitionedCall/CRNN/bigru2/backward_gru_3/PartitionedCall/while/next_iteration/_337", "op": "NextIteration", "input": ["StatefulPartitionedCall/CRNN/bigru2/backward_gru_3/PartitionedCall/while/Func/StatefulPartitionedCall/CRNN/bigru2/backward_gru_3/PartitionedCall/input/_94_switch/_313:1", "^StatefulPartitionedCall/CRNN/bigru2/backward_gru_3/PartitionedCall/while/loop_body_control/_317"], "attr": {"T": {"type": "DT_FLOAT"}}}, {"name": "StatefulPartitionedCall/CRNN/bigru2/backward_gru_3/PartitionedCall/while/next_iteration/_338", "op": "NextIteration", "input": ["StatefulPartitionedCall/CRNN/bigru2/backward_gru_3/PartitionedCall/while/StatefulPartitionedCall/CRNN/bigru2/backward_gru_3/PartitionedCall/unstack_switch/_314:1", "^StatefulPartitionedCall/CRNN/bigru2/backward_gru_3/PartitionedCall/while/loop_body_control/_317"], "attr": {"T": {"type": "DT_FLOAT"}}}, {"name": "StatefulPartitionedCall/CRNN/bigru2/backward_gru_3/PartitionedCall/while/body/_282/while/split_1/split_dim", "op": "Const", "input": ["^StatefulPartitionedCall/CRNN/bigru2/backward_gru_3/PartitionedCall/while/loop_body_control/_317"], "attr": {"dtype": {"type": "DT_INT32"}, "value": {"tensor": {"dtype": "DT_INT32", "tensorShape": {}}}}}, {"name": "StatefulPartitionedCall/CRNN/bigru2/backward_gru_3/PartitionedCall/while/next_iteration/_339", "op": "NextIteration", "input": ["StatefulPartitionedCall/CRNN/bigru2/backward_gru_3/PartitionedCall/while/Func/StatefulPartitionedCall/CRNN/bigru2/backward_gru_3/PartitionedCall/input/_95_switch/_315:1", "^StatefulPartitionedCall/CRNN/bigru2/backward_gru_3/PartitionedCall/while/loop_body_control/_317"], "attr": {"T": {"type": "DT_FLOAT"}}}, {"name": "StatefulPartitionedCall/CRNN/bigru2/backward_gru_3/PartitionedCall/while/body/_282/while/MatMul_1", "op": "MatMul", "input": ["StatefulPartitionedCall/CRNN/bigru2/backward_gru_3/PartitionedCall/while/Func/StatefulPartitionedCall/CRNN/bigru2/backward_gru_3/PartitionedCall/input/_93_switch/_310:1", "StatefulPartitionedCall/CRNN/bigru2/backward_gru_3/PartitionedCall/while/Func/StatefulPartitionedCall/CRNN/bigru2/backward_gru_3/PartitionedCall/input/_95_switch/_315:1", "^StatefulPartitionedCall/CRNN/bigru2/backward_gru_3/PartitionedCall/while/loop_body_control/_317"], "device": "/device:CPU:0", "attr": {"T": {"type": "DT_FLOAT"}, "transpose_a": {"b": false}, "transpose_b": {"b": false}}}, {"name": "StatefulPartitionedCall/CRNN/bigru2/backward_gru_3/PartitionedCall/while/next_iteration/_340", "op": "NextIteration", "input": ["StatefulPartitionedCall/CRNN/bigru2/backward_gru_3/PartitionedCall/while/StatefulPartitionedCall/CRNN/bigru2/backward_gru_3/PartitionedCall/unstack_switch/_316:1", "^StatefulPartitionedCall/CRNN/bigru2/backward_gru_3/PartitionedCall/while/loop_body_control/_317"], "attr": {"T": {"type": "DT_FLOAT"}}}, {"name": "Func/StatefulPartitionedCall/CRNN/bigru2/backward_gru_3/PartitionedCall/while/body/_282/input/_468", "op": "Identity", "input": ["StatefulPartitionedCall/CRNN/bigru2/backward_gru_3/PartitionedCall/while/StatefulPartitionedCall/CRNN/bigru2/backward_gru_3/PartitionedCall/time_switch/_308:1", "^StatefulPartitionedCall/CRNN/bigru2/backward_gru_3/PartitionedCall/while/loop_body_control/_317"], "attr": {"T": {"type": "DT_INT32"}}}, {"name": "StatefulPartitionedCall/CRNN/bigru2/backward_gru_3/PartitionedCall/while/body/_282/while/add_4/y", "op": "Const", "input": ["^StatefulPartitionedCall/CRNN/bigru2/backward_gru_3/PartitionedCall/while/loop_body_control/_317"], "attr": {"dtype": {"type": "DT_INT32"}, "value": {"tensor": {"dtype": "DT_INT32", "tensorShape": {}}}}}, {"name": "StatefulPartitionedCall/CRNN/bigru2/backward_gru_3/PartitionedCall/while/body/_282/while/add_5/y", "op": "Const", "input": ["^StatefulPartitionedCall/CRNN/bigru2/backward_gru_3/PartitionedCall/while/loop_body_control/_317"], "attr": {"value": {"tensor": {"dtype": "DT_INT32", "tensorShape": {}}}, "dtype": {"type": "DT_INT32"}}}, {"name": "StatefulPartitionedCall/CRNN/bigru2/backward_gru_3/PartitionedCall/while/next_iteration/_335", "op": "NextIteration", "input": ["StatefulPartitionedCall/CRNN/bigru2/backward_gru_3/PartitionedCall/while/StatefulPartitionedCall/CRNN/bigru2/backward_gru_3/PartitionedCall/strided_slice_switch/_311:1", "^StatefulPartitionedCall/CRNN/bigru2/backward_gru_3/PartitionedCall/while/loop_body_control/_317"], "attr": {"T": {"type": "DT_INT32"}}}, {"name": "StatefulPartitionedCall/CRNN/bigru2/backward_gru_3/PartitionedCall/TensorArrayV2Stack/TensorListStack", "op": "TensorListStack", "input": ["StatefulPartitionedCall/CRNN/bigru2/backward_gru_3/PartitionedCall/while/exit/_321", "StatefulPartitionedCall/CRNN/bigru2/backward_gru_3/PartitionedCall/TensorArrayV2Stack/TensorListStack/element_shape"], "attr": {"element_dtype": {"type": "DT_FLOAT"}, "num_elements": {"i": "-1"}}}, {"name": "StatefulPartitionedCall/CRNN/bigru2/forward_gru_3/PartitionedCall/while/body/_222/while/BiasAdd_1", "op": "BiasAdd", "input": ["StatefulPartitionedCall/CRNN/bigru2/forward_gru_3/PartitionedCall/while/body/_222/while/MatMul_1", "StatefulPartitionedCall/CRNN/bigru2/forward_gru_3/PartitionedCall/while/StatefulPartitionedCall/CRNN/bigru2/forward_gru_3/PartitionedCall/unstack_switch/_256:1"], "attr": {"data_format": {"s": "TkhXQw=="}, "T": {"type": "DT_FLOAT"}}}, {"name": "StatefulPartitionedCall/CRNN/bigru2/forward_gru_3/PartitionedCall/while/body/_222/while/TensorArrayV2Read/TensorListGetItem", "op": "TensorListGetItem", "input": ["StatefulPartitionedCall/CRNN/bigru2/forward_gru_3/PartitionedCall/while/StatefulPartitionedCall/CRNN/bigru2/forward_gru_3/PartitionedCall/TensorArrayUnstack/TensorListFromTensor_switch/_252:1", "Func/StatefulPartitionedCall/CRNN/bigru2/forward_gru_3/PartitionedCall/while/body/_222/input/_431", "StatefulPartitionedCall/CRNN/bigru2/forward_gru_3/PartitionedCall/while/body/_222/while/TensorArrayV2Read/TensorListGetItem/element_shape"], "attr": {"element_dtype": {"type": "DT_FLOAT"}}}, {"name": "StatefulPartitionedCall/CRNN/bigru2/forward_gru_3/PartitionedCall/while/body/_222/while/add_4", "op": "AddV2", "input": ["Func/StatefulPartitionedCall/CRNN/bigru2/forward_gru_3/PartitionedCall/while/body/_222/input/_431", "StatefulPartitionedCall/CRNN/bigru2/forward_gru_3/PartitionedCall/while/body/_222/while/add_4/y"], "attr": {"T": {"type": "DT_INT32"}}}, {"name": "StatefulPartitionedCall/CRNN/bigru2/forward_gru_3/PartitionedCall/while/body/_222/while/add_5", "op": "AddV2", "input": ["StatefulPartitionedCall/CRNN/bigru2/forward_gru_3/PartitionedCall/while/StatefulPartitionedCall/CRNN/bigru2/forward_gru_3/PartitionedCall/while/loop_counter_switch/_246:1", "StatefulPartitionedCall/CRNN/bigru2/forward_gru_3/PartitionedCall/while/body/_222/while/add_5/y"], "attr": {"T": {"type": "DT_INT32"}}}, {"name": "StatefulPartitionedCall/CRNN/bigru2/forward_gru_3/PartitionedCall/transpose_1", "op": "Transpose", "input": ["StatefulPartitionedCall/CRNN/bigru2/forward_gru_3/PartitionedCall/TensorArrayV2Stack/TensorListStack", "StatefulPartitionedCall/CRNN/bigru2/forward_gru_3/PartitionedCall/transpose_1/perm"], "attr": {"T": {"type": "DT_FLOAT"}, "Tperm": {"type": "DT_INT32"}}}, {"name": "StatefulPartitionedCall/CRNN/bigru2/backward_gru_3/PartitionedCall/while/body/_282/while/BiasAdd_1", "op": "BiasAdd", "input": ["StatefulPartitionedCall/CRNN/bigru2/backward_gru_3/PartitionedCall/while/body/_282/while/MatMul_1", "StatefulPartitionedCall/CRNN/bigru2/backward_gru_3/PartitionedCall/while/StatefulPartitionedCall/CRNN/bigru2/backward_gru_3/PartitionedCall/unstack_switch/_316:1"], "attr": {"T": {"type": "DT_FLOAT"}, "data_format": {"s": "TkhXQw=="}}}, {"name": "StatefulPartitionedCall/CRNN/bigru2/backward_gru_3/PartitionedCall/while/body/_282/while/TensorArrayV2Read/TensorListGetItem", "op": "TensorListGetItem", "input": ["StatefulPartitionedCall/CRNN/bigru2/backward_gru_3/PartitionedCall/while/StatefulPartitionedCall/CRNN/bigru2/backward_gru_3/PartitionedCall/TensorArrayUnstack/TensorListFromTensor_switch/_312:1", "Func/StatefulPartitionedCall/CRNN/bigru2/backward_gru_3/PartitionedCall/while/body/_282/input/_468", "StatefulPartitionedCall/CRNN/bigru2/backward_gru_3/PartitionedCall/while/body/_282/while/TensorArrayV2Read/TensorListGetItem/element_shape"], "attr": {"element_dtype": {"type": "DT_FLOAT"}}}, {"name": "StatefulPartitionedCall/CRNN/bigru2/backward_gru_3/PartitionedCall/while/body/_282/while/add_4", "op": "AddV2", "input": ["Func/StatefulPartitionedCall/CRNN/bigru2/backward_gru_3/PartitionedCall/while/body/_282/input/_468", "StatefulPartitionedCall/CRNN/bigru2/backward_gru_3/PartitionedCall/while/body/_282/while/add_4/y"], "attr": {"T": {"type": "DT_INT32"}}}, {"name": "StatefulPartitionedCall/CRNN/bigru2/backward_gru_3/PartitionedCall/while/body/_282/while/add_5", "op": "AddV2", "input": ["StatefulPartitionedCall/CRNN/bigru2/backward_gru_3/PartitionedCall/while/StatefulPartitionedCall/CRNN/bigru2/backward_gru_3/PartitionedCall/while/loop_counter_switch/_306:1", "StatefulPartitionedCall/CRNN/bigru2/backward_gru_3/PartitionedCall/while/body/_282/while/add_5/y"], "attr": {"T": {"type": "DT_INT32"}}}, {"name": "StatefulPartitionedCall/CRNN/bigru2/backward_gru_3/PartitionedCall/transpose_1", "op": "Transpose", "input": ["StatefulPartitionedCall/CRNN/bigru2/backward_gru_3/PartitionedCall/TensorArrayV2Stack/TensorListStack", "StatefulPartitionedCall/CRNN/bigru2/backward_gru_3/PartitionedCall/transpose_1/perm"], "attr": {"T": {"type": "DT_FLOAT"}, "Tperm": {"type": "DT_INT32"}}}, {"name": "StatefulPartitionedCall/CRNN/bigru2/forward_gru_3/PartitionedCall/while/body/_222/while/split_1", "op": "Split", "input": ["StatefulPartitionedCall/CRNN/bigru2/forward_gru_3/PartitionedCall/while/body/_222/while/split_1/split_dim", "StatefulPartitionedCall/CRNN/bigru2/forward_gru_3/PartitionedCall/while/body/_222/while/BiasAdd_1"], "attr": {"T": {"type": "DT_FLOAT"}, "num_split": {"i": "3"}}}, {"name": "StatefulPartitionedCall/CRNN/bigru2/forward_gru_3/PartitionedCall/while/body/_222/while/BiasAdd", "op": "_FusedMatMul", "input": ["StatefulPartitionedCall/CRNN/bigru2/forward_gru_3/PartitionedCall/while/body/_222/while/TensorArrayV2Read/TensorListGetItem", "StatefulPartitionedCall/CRNN/bigru2/forward_gru_3/PartitionedCall/while/Func/StatefulPartitionedCall/CRNN/bigru2/forward_gru_3/PartitionedCall/input/_85_switch/_253:1", "StatefulPartitionedCall/CRNN/bigru2/forward_gru_3/PartitionedCall/while/StatefulPartitionedCall/CRNN/bigru2/forward_gru_3/PartitionedCall/unstack_switch/_254:1"], "device": "/device:CPU:0", "attr": {"T": {"type": "DT_FLOAT"}, "transpose_b": {"b": false}, "epsilon": {"f": 0.0}, "transpose_a": {"b": false}, "num_args": {"i": "1"}, "fused_ops": {"list": {"s": ["Qmlhc0FkZA=="]}}}}, {"name": "StatefulPartitionedCall/CRNN/bigru2/forward_gru_3/PartitionedCall/while/next_iteration/_272", "op": "NextIteration", "input": ["StatefulPartitionedCall/CRNN/bigru2/forward_gru_3/PartitionedCall/while/body/_222/while/add_4", "^StatefulPartitionedCall/CRNN/bigru2/forward_gru_3/PartitionedCall/while/loop_body_control/_257"], "attr": {"T": {"type": "DT_INT32"}}}, {"name": "StatefulPartitionedCall/CRNN/bigru2/forward_gru_3/PartitionedCall/while/next_iteration/_270", "op": "NextIteration", "input": ["StatefulPartitionedCall/CRNN/bigru2/forward_gru_3/PartitionedCall/while/body/_222/while/add_5", "^StatefulPartitionedCall/CRNN/bigru2/forward_gru_3/PartitionedCall/while/loop_body_control/_257"], "attr": {"T": {"type": "DT_INT32"}}}, {"name": "StatefulPartitionedCall/CRNN/bigru2/backward_gru_3/PartitionedCall/while/body/_282/while/split_1", "op": "Split", "input": ["StatefulPartitionedCall/CRNN/bigru2/backward_gru_3/PartitionedCall/while/body/_282/while/split_1/split_dim", "StatefulPartitionedCall/CRNN/bigru2/backward_gru_3/PartitionedCall/while/body/_282/while/BiasAdd_1"], "attr": {"num_split": {"i": "3"}, "T": {"type": "DT_FLOAT"}}}, {"name": "StatefulPartitionedCall/CRNN/bigru2/backward_gru_3/PartitionedCall/while/body/_282/while/BiasAdd", "op": "_FusedMatMul", "input": ["StatefulPartitionedCall/CRNN/bigru2/backward_gru_3/PartitionedCall/while/body/_282/while/TensorArrayV2Read/TensorListGetItem", "StatefulPartitionedCall/CRNN/bigru2/backward_gru_3/PartitionedCall/while/Func/StatefulPartitionedCall/CRNN/bigru2/backward_gru_3/PartitionedCall/input/_94_switch/_313:1", "StatefulPartitionedCall/CRNN/bigru2/backward_gru_3/PartitionedCall/while/StatefulPartitionedCall/CRNN/bigru2/backward_gru_3/PartitionedCall/unstack_switch/_314:1"], "device": "/device:CPU:0", "attr": {"transpose_b": {"b": false}, "T": {"type": "DT_FLOAT"}, "transpose_a": {"b": false}, "fused_ops": {"list": {"s": ["Qmlhc0FkZA=="]}}, "num_args": {"i": "1"}, "epsilon": {"f": 0.0}}}, {"name": "StatefulPartitionedCall/CRNN/bigru2/backward_gru_3/PartitionedCall/while/next_iteration/_332", "op": "NextIteration", "input": ["StatefulPartitionedCall/CRNN/bigru2/backward_gru_3/PartitionedCall/while/body/_282/while/add_4", "^StatefulPartitionedCall/CRNN/bigru2/backward_gru_3/PartitionedCall/while/loop_body_control/_317"], "attr": {"T": {"type": "DT_INT32"}}}, {"name": "StatefulPartitionedCall/CRNN/bigru2/backward_gru_3/PartitionedCall/while/next_iteration/_330", "op": "NextIteration", "input": ["StatefulPartitionedCall/CRNN/bigru2/backward_gru_3/PartitionedCall/while/body/_282/while/add_5", "^StatefulPartitionedCall/CRNN/bigru2/backward_gru_3/PartitionedCall/while/loop_body_control/_317"], "attr": {"T": {"type": "DT_INT32"}}}, {"name": "StatefulPartitionedCall/CRNN/bigru2/ReverseV2", "op": "ReverseV2", "input": ["StatefulPartitionedCall/CRNN/bigru2/backward_gru_3/PartitionedCall/transpose_1", "StatefulPartitionedCall/CRNN/bigru2/ReverseV2/axis"], "attr": {"T": {"type": "DT_FLOAT"}, "Tidx": {"type": "DT_INT32"}}}, {"name": "StatefulPartitionedCall/CRNN/bigru2/forward_gru_3/PartitionedCall/while/body/_222/while/split", "op": "Split", "input": ["StatefulPartitionedCall/CRNN/bigru2/forward_gru_3/PartitionedCall/while/body/_222/while/split/split_dim", "StatefulPartitionedCall/CRNN/bigru2/forward_gru_3/PartitionedCall/while/body/_222/while/BiasAdd"], "attr": {"T": {"type": "DT_FLOAT"}, "num_split": {"i": "3"}}}, {"name": "StatefulPartitionedCall/CRNN/bigru2/backward_gru_3/PartitionedCall/while/body/_282/while/split", "op": "Split", "input": ["StatefulPartitionedCall/CRNN/bigru2/backward_gru_3/PartitionedCall/while/body/_282/while/split/split_dim", "StatefulPartitionedCall/CRNN/bigru2/backward_gru_3/PartitionedCall/while/body/_282/while/BiasAdd"], "attr": {"num_split": {"i": "3"}, "T": {"type": "DT_FLOAT"}}}, {"name": "StatefulPartitionedCall/CRNN/bigru2/concat", "op": "ConcatV2", "input": ["StatefulPartitionedCall/CRNN/bigru2/forward_gru_3/PartitionedCall/transpose_1", "StatefulPartitionedCall/CRNN/bigru2/ReverseV2", "StatefulPartitionedCall/CRNN/bigru2/concat/axis"], "attr": {"N": {"i": "2"}, "T": {"type": "DT_FLOAT"}, "Tidx": {"type": "DT_INT32"}}}, {"name": "StatefulPartitionedCall/CRNN/bigru2/forward_gru_3/PartitionedCall/while/body/_222/while/add", "op": "AddV2", "input": ["StatefulPartitionedCall/CRNN/bigru2/forward_gru_3/PartitionedCall/while/body/_222/while/split", "StatefulPartitionedCall/CRNN/bigru2/forward_gru_3/PartitionedCall/while/body/_222/while/split_1"], "attr": {"T": {"type": "DT_FLOAT"}}}, {"name": "StatefulPartitionedCall/CRNN/bigru2/forward_gru_3/PartitionedCall/while/body/_222/while/add_1", "op": "AddV2", "input": ["StatefulPartitionedCall/CRNN/bigru2/forward_gru_3/PartitionedCall/while/body/_222/while/split:1", "StatefulPartitionedCall/CRNN/bigru2/forward_gru_3/PartitionedCall/while/body/_222/while/split_1:1"], "attr": {"T": {"type": "DT_FLOAT"}}}, {"name": "StatefulPartitionedCall/CRNN/bigru2/backward_gru_3/PartitionedCall/while/body/_282/while/add", "op": "AddV2", "input": ["StatefulPartitionedCall/CRNN/bigru2/backward_gru_3/PartitionedCall/while/body/_282/while/split", "StatefulPartitionedCall/CRNN/bigru2/backward_gru_3/PartitionedCall/while/body/_282/while/split_1"], "attr": {"T": {"type": "DT_FLOAT"}}}, {"name": "StatefulPartitionedCall/CRNN/bigru2/backward_gru_3/PartitionedCall/while/body/_282/while/add_1", "op": "AddV2", "input": ["StatefulPartitionedCall/CRNN/bigru2/backward_gru_3/PartitionedCall/while/body/_282/while/split:1", "StatefulPartitionedCall/CRNN/bigru2/backward_gru_3/PartitionedCall/while/body/_282/while/split_1:1"], "attr": {"T": {"type": "DT_FLOAT"}}}, {"name": "StatefulPartitionedCall/CRNN/rnn_output/Tensordot/Shape", "op": "Shape", "input": ["StatefulPartitionedCall/CRNN/bigru2/concat"], "attr": {"out_type": {"type": "DT_INT32"}, "T": {"type": "DT_FLOAT"}}}, {"name": "StatefulPartitionedCall/CRNN/bigru2/forward_gru_3/PartitionedCall/while/body/_222/while/Sigmoid", "op": "Sigmoid", "input": ["StatefulPartitionedCall/CRNN/bigru2/forward_gru_3/PartitionedCall/while/body/_222/while/add"], "attr": {"T": {"type": "DT_FLOAT"}}}, {"name": "StatefulPartitionedCall/CRNN/bigru2/forward_gru_3/PartitionedCall/while/body/_222/while/Sigmoid_1", "op": "Sigmoid", "input": ["StatefulPartitionedCall/CRNN/bigru2/forward_gru_3/PartitionedCall/while/body/_222/while/add_1"], "attr": {"T": {"type": "DT_FLOAT"}}}, {"name": "StatefulPartitionedCall/CRNN/bigru2/backward_gru_3/PartitionedCall/while/body/_282/while/Sigmoid", "op": "Sigmoid", "input": ["StatefulPartitionedCall/CRNN/bigru2/backward_gru_3/PartitionedCall/while/body/_282/while/add"], "attr": {"T": {"type": "DT_FLOAT"}}}, {"name": "StatefulPartitionedCall/CRNN/bigru2/backward_gru_3/PartitionedCall/while/body/_282/while/Sigmoid_1", "op": "Sigmoid", "input": ["StatefulPartitionedCall/CRNN/bigru2/backward_gru_3/PartitionedCall/while/body/_282/while/add_1"], "attr": {"T": {"type": "DT_FLOAT"}}}, {"name": "StatefulPartitionedCall/CRNN/rnn_output/Tensordot/GatherV2_1", "op": "GatherV2", "input": ["StatefulPartitionedCall/CRNN/rnn_output/Tensordot/Shape", "StatefulPartitionedCall/CRNN/rnn_output/Tensordot/axes", "StatefulPartitionedCall/CRNN/rnn_output/Tensordot/GatherV2_1/axis"], "attr": {"Tindices": {"type": "DT_INT32"}, "batch_dims": {"i": "0"}, "Taxis": {"type": "DT_INT32"}, "Tparams": {"type": "DT_INT32"}}}, {"name": "StatefulPartitionedCall/CRNN/rnn_output/Tensordot/GatherV2", "op": "GatherV2", "input": ["StatefulPartitionedCall/CRNN/rnn_output/Tensordot/Shape", "StatefulPartitionedCall/CRNN/rnn_output/Tensordot/free", "StatefulPartitionedCall/CRNN/rnn_output/Tensordot/GatherV2/axis"], "attr": {"Tparams": {"type": "DT_INT32"}, "batch_dims": {"i": "0"}, "Taxis": {"type": "DT_INT32"}, "Tindices": {"type": "DT_INT32"}}}, {"name": "StatefulPartitionedCall/CRNN/bigru2/forward_gru_3/PartitionedCall/while/body/_222/while/mul_1", "op": "Mul", "input": ["StatefulPartitionedCall/CRNN/bigru2/forward_gru_3/PartitionedCall/while/body/_222/while/Sigmoid", "StatefulPartitionedCall/CRNN/bigru2/forward_gru_3/PartitionedCall/while/Func/StatefulPartitionedCall/CRNN/bigru2/forward_gru_3/PartitionedCall/input/_84_switch/_250:1"], "attr": {"T": {"type": "DT_FLOAT"}}}, {"name": "StatefulPartitionedCall/CRNN/bigru2/forward_gru_3/PartitionedCall/while/body/_222/while/sub", "op": "Sub", "input": ["StatefulPartitionedCall/CRNN/bigru2/forward_gru_3/PartitionedCall/while/body/_222/while/sub/x", "StatefulPartitionedCall/CRNN/bigru2/forward_gru_3/PartitionedCall/while/body/_222/while/Sigmoid"], "attr": {"T": {"type": "DT_FLOAT"}}}, {"name": "StatefulPartitionedCall/CRNN/bigru2/forward_gru_3/PartitionedCall/while/body/_222/while/mul", "op": "Mul", "input": ["StatefulPartitionedCall/CRNN/bigru2/forward_gru_3/PartitionedCall/while/body/_222/while/Sigmoid_1", "StatefulPartitionedCall/CRNN/bigru2/forward_gru_3/PartitionedCall/while/body/_222/while/split_1:2"], "attr": {"T": {"type": "DT_FLOAT"}}}, {"name": "StatefulPartitionedCall/CRNN/bigru2/backward_gru_3/PartitionedCall/while/body/_282/while/mul_1", "op": "Mul", "input": ["StatefulPartitionedCall/CRNN/bigru2/backward_gru_3/PartitionedCall/while/body/_282/while/Sigmoid", "StatefulPartitionedCall/CRNN/bigru2/backward_gru_3/PartitionedCall/while/Func/StatefulPartitionedCall/CRNN/bigru2/backward_gru_3/PartitionedCall/input/_93_switch/_310:1"], "attr": {"T": {"type": "DT_FLOAT"}}}, {"name": "StatefulPartitionedCall/CRNN/bigru2/backward_gru_3/PartitionedCall/while/body/_282/while/sub", "op": "Sub", "input": ["StatefulPartitionedCall/CRNN/bigru2/backward_gru_3/PartitionedCall/while/body/_282/while/sub/x", "StatefulPartitionedCall/CRNN/bigru2/backward_gru_3/PartitionedCall/while/body/_282/while/Sigmoid"], "attr": {"T": {"type": "DT_FLOAT"}}}, {"name": "StatefulPartitionedCall/CRNN/bigru2/backward_gru_3/PartitionedCall/while/body/_282/while/mul", "op": "Mul", "input": ["StatefulPartitionedCall/CRNN/bigru2/backward_gru_3/PartitionedCall/while/body/_282/while/Sigmoid_1", "StatefulPartitionedCall/CRNN/bigru2/backward_gru_3/PartitionedCall/while/body/_282/while/split_1:2"], "attr": {"T": {"type": "DT_FLOAT"}}}, {"name": "StatefulPartitionedCall/CRNN/rnn_output/Tensordot/Prod_1", "op": "Prod", "input": ["StatefulPartitionedCall/CRNN/rnn_output/Tensordot/GatherV2_1", "StatefulPartitionedCall/CRNN/rnn_output/Tensordot/Const_1"], "attr": {"keep_dims": {"b": false}, "T": {"type": "DT_INT32"}, "Tidx": {"type": "DT_INT32"}}}, {"name": "StatefulPartitionedCall/CRNN/rnn_output/Tensordot/Prod", "op": "Prod", "input": ["StatefulPartitionedCall/CRNN/rnn_output/Tensordot/GatherV2", "StatefulPartitionedCall/CRNN/rnn_output/Tensordot/Const"], "attr": {"T": {"type": "DT_INT32"}, "keep_dims": {"b": false}, "Tidx": {"type": "DT_INT32"}}}, {"name": "StatefulPartitionedCall/CRNN/rnn_output/Tensordot/concat_1", "op": "ConcatV2", "input": ["StatefulPartitionedCall/CRNN/rnn_output/Tensordot/GatherV2", "StatefulPartitionedCall/CRNN/rnn_output/Tensordot/Const_2", "StatefulPartitionedCall/CRNN/rnn_output/Tensordot/concat_1/axis"], "attr": {"Tidx": {"type": "DT_INT32"}, "T": {"type": "DT_INT32"}, "N": {"i": "2"}}}, {"name": "StatefulPartitionedCall/CRNN/bigru2/forward_gru_3/PartitionedCall/while/body/_222/while/add_2", "op": "AddV2", "input": ["StatefulPartitionedCall/CRNN/bigru2/forward_gru_3/PartitionedCall/while/body/_222/while/split:2", "StatefulPartitionedCall/CRNN/bigru2/forward_gru_3/PartitionedCall/while/body/_222/while/mul"], "attr": {"T": {"type": "DT_FLOAT"}}}, {"name": "StatefulPartitionedCall/CRNN/bigru2/backward_gru_3/PartitionedCall/while/body/_282/while/add_2", "op": "AddV2", "input": ["StatefulPartitionedCall/CRNN/bigru2/backward_gru_3/PartitionedCall/while/body/_282/while/split:2", "StatefulPartitionedCall/CRNN/bigru2/backward_gru_3/PartitionedCall/while/body/_282/while/mul"], "attr": {"T": {"type": "DT_FLOAT"}}}, {"name": "StatefulPartitionedCall/CRNN/rnn_output/Tensordot/stack", "op": "Pack", "input": ["StatefulPartitionedCall/CRNN/rnn_output/Tensordot/Prod", "StatefulPartitionedCall/CRNN/rnn_output/Tensordot/Prod_1"], "attr": {"T": {"type": "DT_INT32"}, "axis": {"i": "0"}, "N": {"i": "2"}}}, {"name": "StatefulPartitionedCall/CRNN/bigru2/forward_gru_3/PartitionedCall/while/body/_222/while/Tanh", "op": "Tanh", "input": ["StatefulPartitionedCall/CRNN/bigru2/forward_gru_3/PartitionedCall/while/body/_222/while/add_2"], "attr": {"T": {"type": "DT_FLOAT"}}}, {"name": "StatefulPartitionedCall/CRNN/bigru2/backward_gru_3/PartitionedCall/while/body/_282/while/Tanh", "op": "Tanh", "input": ["StatefulPartitionedCall/CRNN/bigru2/backward_gru_3/PartitionedCall/while/body/_282/while/add_2"], "attr": {"T": {"type": "DT_FLOAT"}}}, {"name": "StatefulPartitionedCall/CRNN/rnn_output/Tensordot/Reshape", "op": "Reshape", "input": ["StatefulPartitionedCall/CRNN/bigru2/concat", "StatefulPartitionedCall/CRNN/rnn_output/Tensordot/stack"], "attr": {"T": {"type": "DT_FLOAT"}, "Tshape": {"type": "DT_INT32"}}}, {"name": "StatefulPartitionedCall/CRNN/bigru2/forward_gru_3/PartitionedCall/while/body/_222/while/mul_2", "op": "Mul", "input": ["StatefulPartitionedCall/CRNN/bigru2/forward_gru_3/PartitionedCall/while/body/_222/while/sub", "StatefulPartitionedCall/CRNN/bigru2/forward_gru_3/PartitionedCall/while/body/_222/while/Tanh"], "attr": {"T": {"type": "DT_FLOAT"}}}, {"name": "StatefulPartitionedCall/CRNN/bigru2/backward_gru_3/PartitionedCall/while/body/_282/while/mul_2", "op": "Mul", "input": ["StatefulPartitionedCall/CRNN/bigru2/backward_gru_3/PartitionedCall/while/body/_282/while/sub", "StatefulPartitionedCall/CRNN/bigru2/backward_gru_3/PartitionedCall/while/body/_282/while/Tanh"], "attr": {"T": {"type": "DT_FLOAT"}}}, {"name": "StatefulPartitionedCall/CRNN/rnn_output/Tensordot/MatMul", "op": "MatMul", "input": ["StatefulPartitionedCall/CRNN/rnn_output/Tensordot/Reshape", "StatefulPartitionedCall/CRNN/rnn_output/Tensordot/ReadVariableOp"], "device": "/device:CPU:0", "attr": {"transpose_b": {"b": false}, "transpose_a": {"b": false}, "T": {"type": "DT_FLOAT"}}}, {"name": "StatefulPartitionedCall/CRNN/bigru2/forward_gru_3/PartitionedCall/while/body/_222/while/add_3", "op": "AddV2", "input": ["StatefulPartitionedCall/CRNN/bigru2/forward_gru_3/PartitionedCall/while/body/_222/while/mul_1", "StatefulPartitionedCall/CRNN/bigru2/forward_gru_3/PartitionedCall/while/body/_222/while/mul_2"], "attr": {"T": {"type": "DT_FLOAT"}}}, {"name": "StatefulPartitionedCall/CRNN/bigru2/backward_gru_3/PartitionedCall/while/body/_282/while/add_3", "op": "AddV2", "input": ["StatefulPartitionedCall/CRNN/bigru2/backward_gru_3/PartitionedCall/while/body/_282/while/mul_1", "StatefulPartitionedCall/CRNN/bigru2/backward_gru_3/PartitionedCall/while/body/_282/while/mul_2"], "attr": {"T": {"type": "DT_FLOAT"}}}, {"name": "StatefulPartitionedCall/CRNN/rnn_output/Tensordot", "op": "Reshape", "input": ["StatefulPartitionedCall/CRNN/rnn_output/Tensordot/MatMul", "StatefulPartitionedCall/CRNN/rnn_output/Tensordot/concat_1"], "attr": {"T": {"type": "DT_FLOAT"}, "Tshape": {"type": "DT_INT32"}}}, {"name": "StatefulPartitionedCall/CRNN/bigru2/forward_gru_3/PartitionedCall/while/next_iteration/_274", "op": "NextIteration", "input": ["StatefulPartitionedCall/CRNN/bigru2/forward_gru_3/PartitionedCall/while/body/_222/while/add_3", "^StatefulPartitionedCall/CRNN/bigru2/forward_gru_3/PartitionedCall/while/loop_body_control/_257"], "attr": {"T": {"type": "DT_FLOAT"}}}, {"name": "StatefulPartitionedCall/CRNN/bigru2/forward_gru_3/PartitionedCall/while/body/_222/while/TensorArrayV2Write/TensorListSetItem", "op": "TensorListSetItem", "input": ["StatefulPartitionedCall/CRNN/bigru2/forward_gru_3/PartitionedCall/while/StatefulPartitionedCall/CRNN/bigru2/forward_gru_3/PartitionedCall/TensorArrayV2_1_switch/_249:1", "Func/StatefulPartitionedCall/CRNN/bigru2/forward_gru_3/PartitionedCall/while/body/_222/input/_431", "StatefulPartitionedCall/CRNN/bigru2/forward_gru_3/PartitionedCall/while/body/_222/while/add_3"], "attr": {"element_dtype": {"type": "DT_FLOAT"}}}, {"name": "StatefulPartitionedCall/CRNN/bigru2/backward_gru_3/PartitionedCall/while/next_iteration/_334", "op": "NextIteration", "input": ["StatefulPartitionedCall/CRNN/bigru2/backward_gru_3/PartitionedCall/while/body/_282/while/add_3", "^StatefulPartitionedCall/CRNN/bigru2/backward_gru_3/PartitionedCall/while/loop_body_control/_317"], "attr": {"T": {"type": "DT_FLOAT"}}}, {"name": "StatefulPartitionedCall/CRNN/bigru2/backward_gru_3/PartitionedCall/while/body/_282/while/TensorArrayV2Write/TensorListSetItem", "op": "TensorListSetItem", "input": ["StatefulPartitionedCall/CRNN/bigru2/backward_gru_3/PartitionedCall/while/StatefulPartitionedCall/CRNN/bigru2/backward_gru_3/PartitionedCall/TensorArrayV2_1_switch/_309:1", "Func/StatefulPartitionedCall/CRNN/bigru2/backward_gru_3/PartitionedCall/while/body/_282/input/_468", "StatefulPartitionedCall/CRNN/bigru2/backward_gru_3/PartitionedCall/while/body/_282/while/add_3"], "attr": {"element_dtype": {"type": "DT_FLOAT"}}}, {"name": "StatefulPartitionedCall/CRNN/rnn_output/BiasAdd", "op": "BiasAdd", "input": ["StatefulPartitionedCall/CRNN/rnn_output/Tensordot", "StatefulPartitionedCall/CRNN/rnn_output/BiasAdd/ReadVariableOp"], "attr": {"T": {"type": "DT_FLOAT"}, "data_format": {"s": "TkhXQw=="}}}, {"name": "StatefulPartitionedCall/CRNN/bigru2/forward_gru_3/PartitionedCall/while/next_iteration/_273", "op": "NextIteration", "input": ["StatefulPartitionedCall/CRNN/bigru2/forward_gru_3/PartitionedCall/while/body/_222/while/TensorArrayV2Write/TensorListSetItem", "^StatefulPartitionedCall/CRNN/bigru2/forward_gru_3/PartitionedCall/while/loop_body_control/_257"], "attr": {"T": {"type": "DT_VARIANT"}}}, {"name": "StatefulPartitionedCall/CRNN/bigru2/backward_gru_3/PartitionedCall/while/next_iteration/_333", "op": "NextIteration", "input": ["StatefulPartitionedCall/CRNN/bigru2/backward_gru_3/PartitionedCall/while/body/_282/while/TensorArrayV2Write/TensorListSetItem", "^StatefulPartitionedCall/CRNN/bigru2/backward_gru_3/PartitionedCall/while/loop_body_control/_317"], "attr": {"T": {"type": "DT_VARIANT"}}}, {"name": "StatefulPartitionedCall/CRNN/rnn_output/Softmax", "op": "Softmax", "input": ["StatefulPartitionedCall/CRNN/rnn_output/BiasAdd"], "attr": {"T": {"type": "DT_FLOAT"}}}, {"name": "Identity", "op": "Identity", "input": ["StatefulPartitionedCall/CRNN/rnn_output/Softmax"], "attr": {"T": {"type": "DT_FLOAT"}}}], "library": {}, "versions": {"producer": 808}}, "weightsManifest": [{"paths": ["group1-shard1of13.bin", "group1-shard2of13.bin", "group1-shard3of13.bin", "group1-shard4of13.bin", "group1-shard5of13.bin", "group1-shard6of13.bin", "group1-shard7of13.bin", "group1-shard8of13.bin", "group1-shard9of13.bin", "group1-shard10of13.bin", "group1-shard11of13.bin", "group1-shard12of13.bin", "group1-shard13of13.bin"], "weights": [{"name": "StatefulPartitionedCall/CRNN/rnn_output/Tensordot/Const", "shape": [1], "dtype": "int32"}, {"name": "StatefulPartitionedCall/CRNN/rnn_output/Tensordot/axes", "shape": [1], "dtype": "int32"}, {"name": "StatefulPartitionedCall/CRNN/rnn_output/Tensordot/GatherV2_1/axis", "shape": [], "dtype": "int32"}, {"name": "StatefulPartitionedCall/CRNN/rnn_output/Tensordot/Const_1", "shape": [1], "dtype": "int32"}, {"name": "StatefulPartitionedCall/CRNN/rnn_output/Tensordot/ReadVariableOp", "shape": [512, 7482], "dtype": "float32"}, {"name": "StatefulPartitionedCall/CRNN/bigru2/forward_gru_3/PartitionedCall/TensorArrayV2_1/element_shape", "shape": [2], "dtype": "int32"}, {"name": "StatefulPartitionedCall/CRNN/bigru2/forward_gru_3/PartitionedCall/TensorArrayUnstack/TensorListFromTensor/element_shape", "shape": [2], "dtype": "int32"}, {"name": "StatefulPartitionedCall/CRNN/bigru2/forward_gru_3/Read/ReadVariableOp", "shape": [512, 768], "dtype": "float32"}, {"name": "ConstantFolding/StatefulPartitionedCall/CRNN/bigru2/forward_gru_3/PartitionedCall/unstack-folded-0", "shape": [768], "dtype": "float32"}, {"name": "StatefulPartitionedCall/CRNN/bigru2/forward_gru_3/strided_slice/stack", "shape": [1], "dtype": "int32"}, {"name": "StatefulPartitionedCall/CRNN/bigru2/forward_gru_3/strided_slice/stack_1", "shape": [1], "dtype": "int32"}, {"name": "StatefulPartitionedCall/CRNN/bigru2/forward_gru_3/strided_slice/stack_2", "shape": [1], "dtype": "int32"}, {"name": "StatefulPartitionedCall/CRNN/bigru2/forward_gru_3/zeros/packed/1", "shape": [], "dtype": "int32"}, {"name": "StatefulPartitionedCall/CRNN/bigru2/forward_gru_3/zeros/Const", "shape": [], "dtype": "float32"}, {"name": "StatefulPartitionedCall/CRNN/bigru2/forward_gru_3/Read_1/ReadVariableOp", "shape": [256, 768], "dtype": "float32"}, {"name": "ConstantFolding/StatefulPartitionedCall/CRNN/bigru2/forward_gru_3/PartitionedCall/unstack-folded-1", "shape": [768], "dtype": "float32"}, {"name": "StatefulPartitionedCall/CRNN/bigru2/forward_gru_3/PartitionedCall/time", "shape": [], "dtype": "int32"}, {"name": "StatefulPartitionedCall/CRNN/bigru2/forward_gru_3/PartitionedCall/transpose/perm", "shape": [3], "dtype": "int32"}, {"name": "StatefulPartitionedCall/CRNN/bigru2/forward_gru_3/PartitionedCall/strided_slice/stack", "shape": [1], "dtype": "int32"}, {"name": "StatefulPartitionedCall/CRNN/bigru2/forward_gru_3/PartitionedCall/strided_slice/stack_1", "shape": [1], "dtype": "int32"}, {"name": "StatefulPartitionedCall/CRNN/bigru2/forward_gru_3/PartitionedCall/strided_slice/stack_2", "shape": [1], "dtype": "int32"}, {"name": "StatefulPartitionedCall/CRNN/bigru2/forward_gru_3/PartitionedCall/while/loop_counter", "shape": [], "dtype": "int32"}, {"name": "StatefulPartitionedCall/CRNN/bigru2/forward_gru_3/PartitionedCall/TensorArrayV2Stack/TensorListStack/element_shape", "shape": [2], "dtype": "int32"}, {"name": "StatefulPartitionedCall/CRNN/bigru2/forward_gru_3/PartitionedCall/transpose_1/perm", "shape": [3], "dtype": "int32"}, {"name": "StatefulPartitionedCall/CRNN/bigru2/backward_gru_3/PartitionedCall/TensorArrayV2_1/element_shape", "shape": [2], "dtype": "int32"}, {"name": "StatefulPartitionedCall/CRNN/bigru2/backward_gru_3/PartitionedCall/ReverseV2/axis", "shape": [1], "dtype": "int32"}, {"name": "StatefulPartitionedCall/CRNN/bigru2/backward_gru_3/PartitionedCall/TensorArrayUnstack/TensorListFromTensor/element_shape", "shape": [2], "dtype": "int32"}, {"name": "StatefulPartitionedCall/CRNN/bigru2/backward_gru_3/Read/ReadVariableOp", "shape": [512, 768], "dtype": "float32"}, {"name": "ConstantFolding/StatefulPartitionedCall/CRNN/bigru2/backward_gru_3/PartitionedCall/unstack-folded-0", "shape": [768], "dtype": "float32"}, {"name": "StatefulPartitionedCall/CRNN/bigru2/backward_gru_3/strided_slice/stack", "shape": [1], "dtype": "int32"}, {"name": "StatefulPartitionedCall/CRNN/bigru2/backward_gru_3/strided_slice/stack_1", "shape": [1], "dtype": "int32"}, {"name": "StatefulPartitionedCall/CRNN/bigru2/backward_gru_3/strided_slice/stack_2", "shape": [1], "dtype": "int32"}, {"name": "StatefulPartitionedCall/CRNN/bigru2/backward_gru_3/zeros/packed/1", "shape": [], "dtype": "int32"}, {"name": "StatefulPartitionedCall/CRNN/bigru2/backward_gru_3/zeros/Const", "shape": [], "dtype": "float32"}, {"name": "StatefulPartitionedCall/CRNN/bigru2/backward_gru_3/Read_1/ReadVariableOp", "shape": [256, 768], "dtype": "float32"}, {"name": "ConstantFolding/StatefulPartitionedCall/CRNN/bigru2/backward_gru_3/PartitionedCall/unstack-folded-1", "shape": [768], "dtype": "float32"}, {"name": "StatefulPartitionedCall/CRNN/bigru2/backward_gru_3/PartitionedCall/time", "shape": [], "dtype": "int32"}, {"name": "StatefulPartitionedCall/CRNN/bigru1/forward_gru_2/PartitionedCall/TensorArrayV2_1/element_shape", "shape": [2], "dtype": "int32"}, {"name": "StatefulPartitionedCall/CRNN/bigru1/forward_gru_2/PartitionedCall/TensorArrayUnstack/TensorListFromTensor/element_shape", "shape": [2], "dtype": "int32"}, {"name": "StatefulPartitionedCall/CRNN/bigru1/forward_gru_2/Read/ReadVariableOp", "shape": [512, 768], "dtype": "float32"}, {"name": "ConstantFolding/StatefulPartitionedCall/CRNN/bigru1/forward_gru_2/PartitionedCall/unstack-folded-0", "shape": [768], "dtype": "float32"}, {"name": "StatefulPartitionedCall/CRNN/bigru1/forward_gru_2/strided_slice/stack", "shape": [1], "dtype": "int32"}, {"name": "StatefulPartitionedCall/CRNN/bigru1/forward_gru_2/strided_slice/stack_1", "shape": [1], "dtype": "int32"}, {"name": "StatefulPartitionedCall/CRNN/bigru1/forward_gru_2/strided_slice/stack_2", "shape": [1], "dtype": "int32"}, {"name": "StatefulPartitionedCall/CRNN/bigru1/forward_gru_2/zeros/packed/1", "shape": [], "dtype": "int32"}, {"name": "StatefulPartitionedCall/CRNN/bigru1/forward_gru_2/zeros/Const", "shape": [], "dtype": "float32"}, {"name": "StatefulPartitionedCall/CRNN/bigru1/forward_gru_2/Read_1/ReadVariableOp", "shape": [256, 768], "dtype": "float32"}, {"name": "ConstantFolding/StatefulPartitionedCall/CRNN/bigru1/forward_gru_2/PartitionedCall/unstack-folded-1", "shape": [768], "dtype": "float32"}, {"name": "StatefulPartitionedCall/CRNN/bigru1/forward_gru_2/PartitionedCall/time", "shape": [], "dtype": "int32"}, {"name": "StatefulPartitionedCall/CRNN/bigru1/forward_gru_2/PartitionedCall/transpose/perm", "shape": [3], "dtype": "int32"}, {"name": "StatefulPartitionedCall/CRNN/bigru1/forward_gru_2/PartitionedCall/strided_slice/stack", "shape": [1], "dtype": "int32"}, {"name": "StatefulPartitionedCall/CRNN/bigru1/forward_gru_2/PartitionedCall/strided_slice/stack_1", "shape": [1], "dtype": "int32"}, {"name": "StatefulPartitionedCall/CRNN/bigru1/forward_gru_2/PartitionedCall/strided_slice/stack_2", "shape": [1], "dtype": "int32"}, {"name": "StatefulPartitionedCall/CRNN/bigru1/forward_gru_2/PartitionedCall/while/loop_counter", "shape": [], "dtype": "int32"}, {"name": "StatefulPartitionedCall/CRNN/bigru1/forward_gru_2/PartitionedCall/TensorArrayV2Stack/TensorListStack/element_shape", "shape": [2], "dtype": "int32"}, {"name": "StatefulPartitionedCall/CRNN/bigru1/forward_gru_2/PartitionedCall/transpose_1/perm", "shape": [3], "dtype": "int32"}, {"name": "StatefulPartitionedCall/CRNN/bigru1/backward_gru_2/PartitionedCall/TensorArrayV2_1/element_shape", "shape": [2], "dtype": "int32"}, {"name": "StatefulPartitionedCall/CRNN/bigru1/backward_gru_2/PartitionedCall/ReverseV2/axis", "shape": [1], "dtype": "int32"}, {"name": "StatefulPartitionedCall/CRNN/bigru1/backward_gru_2/PartitionedCall/TensorArrayUnstack/TensorListFromTensor/element_shape", "shape": [2], "dtype": "int32"}, {"name": "StatefulPartitionedCall/CRNN/bigru1/backward_gru_2/Read/ReadVariableOp", "shape": [512, 768], "dtype": "float32"}, {"name": "ConstantFolding/StatefulPartitionedCall/CRNN/bigru1/backward_gru_2/PartitionedCall/unstack-folded-0", "shape": [768], "dtype": "float32"}, {"name": "StatefulPartitionedCall/CRNN/bigru1/backward_gru_2/strided_slice/stack", "shape": [1], "dtype": "int32"}, {"name": "StatefulPartitionedCall/CRNN/bigru1/backward_gru_2/strided_slice/stack_1", "shape": [1], "dtype": "int32"}, {"name": "StatefulPartitionedCall/CRNN/bigru1/backward_gru_2/strided_slice/stack_2", "shape": [1], "dtype": "int32"}, {"name": "StatefulPartitionedCall/CRNN/bigru1/backward_gru_2/zeros/packed/1", "shape": [], "dtype": "int32"}, {"name": "StatefulPartitionedCall/CRNN/bigru1/backward_gru_2/zeros/Const", "shape": [], "dtype": "float32"}, {"name": "StatefulPartitionedCall/CRNN/bigru1/backward_gru_2/Read_1/ReadVariableOp", "shape": [256, 768], "dtype": "float32"}, {"name": "ConstantFolding/StatefulPartitionedCall/CRNN/bigru1/backward_gru_2/PartitionedCall/unstack-folded-1", "shape": [768], "dtype": "float32"}, {"name": "StatefulPartitionedCall/CRNN/bigru1/backward_gru_2/PartitionedCall/time", "shape": [], "dtype": "int32"}, {"name": "StatefulPartitionedCall/CRNN/reshape_1/strided_slice/stack", "shape": [1], "dtype": "int32"}, {"name": "StatefulPartitionedCall/CRNN/reshape_1/strided_slice/stack_1", "shape": [1], "dtype": "int32"}, {"name": "StatefulPartitionedCall/CRNN/reshape_1/strided_slice/stack_2", "shape": [1], "dtype": "int32"}, {"name": "StatefulPartitionedCall/CRNN/reshape_1/Reshape/shape/1", "shape": [], "dtype": "int32"}, {"name": "StatefulPartitionedCall/CRNN/reshape_1/Reshape/shape/2", "shape": [], "dtype": "int32"}, {"name": "StatefulPartitionedCall/CRNN/bigru1/backward_gru_2/PartitionedCall/transpose/perm", "shape": [3], "dtype": "int32"}, {"name": "StatefulPartitionedCall/CRNN/bigru1/backward_gru_2/PartitionedCall/strided_slice/stack", "shape": [1], "dtype": "int32"}, {"name": "StatefulPartitionedCall/CRNN/bigru1/backward_gru_2/PartitionedCall/strided_slice/stack_1", "shape": [1], "dtype": "int32"}, {"name": "StatefulPartitionedCall/CRNN/bigru1/backward_gru_2/PartitionedCall/strided_slice/stack_2", "shape": [1], "dtype": "int32"}, {"name": "StatefulPartitionedCall/CRNN/bigru1/backward_gru_2/PartitionedCall/while/loop_counter", "shape": [], "dtype": "int32"}, {"name": "StatefulPartitionedCall/CRNN/bigru1/backward_gru_2/PartitionedCall/TensorArrayV2Stack/TensorListStack/element_shape", "shape": [2], "dtype": "int32"}, {"name": "StatefulPartitionedCall/CRNN/bigru1/backward_gru_2/PartitionedCall/transpose_1/perm", "shape": [3], "dtype": "int32"}, {"name": "StatefulPartitionedCall/CRNN/bigru1/ReverseV2/axis", "shape": [1], "dtype": "int32"}, {"name": "StatefulPartitionedCall/CRNN/bigru1/concat/axis", "shape": [], "dtype": "int32"}, {"name": "StatefulPartitionedCall/CRNN/bigru2/backward_gru_3/PartitionedCall/transpose/perm", "shape": [3], "dtype": "int32"}, {"name": "StatefulPartitionedCall/CRNN/bigru2/backward_gru_3/PartitionedCall/strided_slice/stack", "shape": [1], "dtype": "int32"}, {"name": "StatefulPartitionedCall/CRNN/bigru2/backward_gru_3/PartitionedCall/strided_slice/stack_1", "shape": [1], "dtype": "int32"}, {"name": "StatefulPartitionedCall/CRNN/bigru2/backward_gru_3/PartitionedCall/strided_slice/stack_2", "shape": [1], "dtype": "int32"}, {"name": "StatefulPartitionedCall/CRNN/bigru2/backward_gru_3/PartitionedCall/while/loop_counter", "shape": [], "dtype": "int32"}, {"name": "StatefulPartitionedCall/CRNN/bigru2/backward_gru_3/PartitionedCall/TensorArrayV2Stack/TensorListStack/element_shape", "shape": [2], "dtype": "int32"}, {"name": "StatefulPartitionedCall/CRNN/bigru2/backward_gru_3/PartitionedCall/transpose_1/perm", "shape": [3], "dtype": "int32"}, {"name": "StatefulPartitionedCall/CRNN/bigru2/ReverseV2/axis", "shape": [1], "dtype": "int32"}, {"name": "StatefulPartitionedCall/CRNN/bigru2/concat/axis", "shape": [], "dtype": "int32"}, {"name": "StatefulPartitionedCall/CRNN/rnn_output/Tensordot/free", "shape": [2], "dtype": "int32"}, {"name": "StatefulPartitionedCall/CRNN/rnn_output/Tensordot/GatherV2/axis", "shape": [], "dtype": "int32"}, {"name": "StatefulPartitionedCall/CRNN/rnn_output/Tensordot/Const_2", "shape": [1], "dtype": "int32"}, {"name": "StatefulPartitionedCall/CRNN/rnn_output/Tensordot/concat_1/axis", "shape": [], "dtype": "int32"}, {"name": "StatefulPartitionedCall/CRNN/rnn_output/BiasAdd/ReadVariableOp", "shape": [7482], "dtype": "float32"}, {"name": "StatefulPartitionedCall/CRNN/block1_convbn/conv2d_18/Conv2D_weights", "shape": [3, 3, 3, 64], "dtype": "float32"}, {"name": "StatefulPartitionedCall/CRNN/block1_convbn/conv2d_18/Conv2D_bn_offset", "shape": [64], "dtype": "float32"}, {"name": "StatefulPartitionedCall/CRNN/block2_convbn/conv2d_19/Conv2D_weights", "shape": [3, 3, 64, 128], "dtype": "float32"}, {"name": "StatefulPartitionedCall/CRNN/block2_convbn/conv2d_19/Conv2D_bn_offset", "shape": [128], "dtype": "float32"}, {"name": "StatefulPartitionedCall/CRNN/block3_convbn1/conv2d_20/Conv2D_weights", "shape": [3, 3, 128, 256], "dtype": "float32"}, {"name": "StatefulPartitionedCall/CRNN/block3_convbn1/conv2d_20/Conv2D_bn_offset", "shape": [256], "dtype": "float32"}, {"name": "StatefulPartitionedCall/CRNN/block3_convbn2/conv2d_21/Conv2D_weights", "shape": [3, 3, 256, 256], "dtype": "float32"}, {"name": "StatefulPartitionedCall/CRNN/block3_convbn2/conv2d_21/Conv2D_bn_offset", "shape": [256], "dtype": "float32"}, {"name": "StatefulPartitionedCall/CRNN/block4_convbn1/conv2d_22/Conv2D_weights", "shape": [3, 3, 256, 512], "dtype": "float32"}, {"name": "StatefulPartitionedCall/CRNN/block4_convbn1/conv2d_22/Conv2D_bn_offset", "shape": [512], "dtype": "float32"}, {"name": "StatefulPartitionedCall/CRNN/block4_convbn2/conv2d_23/Conv2D_weights", "shape": [3, 3, 512, 512], "dtype": "float32"}, {"name": "StatefulPartitionedCall/CRNN/block4_convbn2/conv2d_23/Conv2D_bn_offset", "shape": [512], "dtype": "float32"}, {"name": "StatefulPartitionedCall/CRNN/block5_convbn1/conv2d_24/Conv2D_weights", "shape": [2, 2, 512, 512], "dtype": "float32"}, {"name": "StatefulPartitionedCall/CRNN/block5_convbn1/conv2d_24/Conv2D_bn_offset", "shape": [512], "dtype": "float32"}, {"name": "StatefulPartitionedCall/CRNN/block5_convbn2/conv2d_25/Conv2D_weights", "shape": [2, 2, 512, 512], "dtype": "float32"}, {"name": "StatefulPartitionedCall/CRNN/block5_convbn2/conv2d_25/Conv2D_bn_offset", "shape": [512], "dtype": "float32"}, {"name": "StatefulPartitionedCall/CRNN/bigru1/forward_gru_2/PartitionedCall/while/body/_102/while/sub/x", "shape": [], "dtype": "float32"}, {"name": "StatefulPartitionedCall/CRNN/bigru1/forward_gru_2/PartitionedCall/while/body/_102/while/split/split_dim", "shape": [], "dtype": "int32"}, {"name": "StatefulPartitionedCall/CRNN/bigru1/forward_gru_2/PartitionedCall/while/body/_102/while/TensorArrayV2Read/TensorListGetItem/element_shape", "shape": [2], "dtype": "int32"}, {"name": "StatefulPartitionedCall/CRNN/bigru1/forward_gru_2/PartitionedCall/while/body/_102/while/split_1/split_dim", "shape": [], "dtype": "int32"}, {"name": "StatefulPartitionedCall/CRNN/bigru1/forward_gru_2/PartitionedCall/while/body/_102/while/add_4/y", "shape": [], "dtype": "int32"}, {"name": "StatefulPartitionedCall/CRNN/bigru1/forward_gru_2/PartitionedCall/while/body/_102/while/add_5/y", "shape": [], "dtype": "int32"}, {"name": "StatefulPartitionedCall/CRNN/bigru1/backward_gru_2/PartitionedCall/while/body/_162/while/sub/x", "shape": [], "dtype": "float32"}, {"name": "StatefulPartitionedCall/CRNN/bigru1/backward_gru_2/PartitionedCall/while/body/_162/while/split/split_dim", "shape": [], "dtype": "int32"}, {"name": "StatefulPartitionedCall/CRNN/bigru1/backward_gru_2/PartitionedCall/while/body/_162/while/TensorArrayV2Read/TensorListGetItem/element_shape", "shape": [2], "dtype": "int32"}, {"name": "StatefulPartitionedCall/CRNN/bigru1/backward_gru_2/PartitionedCall/while/body/_162/while/split_1/split_dim", "shape": [], "dtype": "int32"}, {"name": "StatefulPartitionedCall/CRNN/bigru1/backward_gru_2/PartitionedCall/while/body/_162/while/add_4/y", "shape": [], "dtype": "int32"}, {"name": "StatefulPartitionedCall/CRNN/bigru1/backward_gru_2/PartitionedCall/while/body/_162/while/add_5/y", "shape": [], "dtype": "int32"}, {"name": "StatefulPartitionedCall/CRNN/bigru2/forward_gru_3/PartitionedCall/while/body/_222/while/sub/x", "shape": [], "dtype": "float32"}, {"name": "StatefulPartitionedCall/CRNN/bigru2/forward_gru_3/PartitionedCall/while/body/_222/while/split/split_dim", "shape": [], "dtype": "int32"}, {"name": "StatefulPartitionedCall/CRNN/bigru2/forward_gru_3/PartitionedCall/while/body/_222/while/TensorArrayV2Read/TensorListGetItem/element_shape", "shape": [2], "dtype": "int32"}, {"name": "StatefulPartitionedCall/CRNN/bigru2/forward_gru_3/PartitionedCall/while/body/_222/while/split_1/split_dim", "shape": [], "dtype": "int32"}, {"name": "StatefulPartitionedCall/CRNN/bigru2/forward_gru_3/PartitionedCall/while/body/_222/while/add_4/y", "shape": [], "dtype": "int32"}, {"name": "StatefulPartitionedCall/CRNN/bigru2/forward_gru_3/PartitionedCall/while/body/_222/while/add_5/y", "shape": [], "dtype": "int32"}, {"name": "StatefulPartitionedCall/CRNN/bigru2/backward_gru_3/PartitionedCall/while/body/_282/while/sub/x", "shape": [], "dtype": "float32"}, {"name": "StatefulPartitionedCall/CRNN/bigru2/backward_gru_3/PartitionedCall/while/body/_282/while/split/split_dim", "shape": [], "dtype": "int32"}, {"name": "StatefulPartitionedCall/CRNN/bigru2/backward_gru_3/PartitionedCall/while/body/_282/while/TensorArrayV2Read/TensorListGetItem/element_shape", "shape": [2], "dtype": "int32"}, {"name": "StatefulPartitionedCall/CRNN/bigru2/backward_gru_3/PartitionedCall/while/body/_282/while/split_1/split_dim", "shape": [], "dtype": "int32"}, {"name": "StatefulPartitionedCall/CRNN/bigru2/backward_gru_3/PartitionedCall/while/body/_282/while/add_4/y", "shape": [], "dtype": "int32"}, {"name": "StatefulPartitionedCall/CRNN/bigru2/backward_gru_3/PartitionedCall/while/body/_282/while/add_5/y", "shape": [], "dtype": "int32"}]}]}