{"format": "graph-model", "generatedBy": "2.6.2", "convertedBy": "TensorFlow.js Converter v3.18.0", "signature": {"inputs": {"image": {"name": "image:0", "dtype": "DT_FLOAT", "tensorShape": {"dim": [{"size": "-1"}, {"size": "-1"}, {"size": "-1"}, {"size": "3"}]}}}, "outputs": {"Identity:0": {"name": "Identity:0", "dtype": "DT_FLOAT", "tensorShape": {"dim": [{"size": "-1"}, {"size": "-1"}, {"size": "-1"}]}}, "Identity_2:0": {"name": "Identity_2:0", "dtype": "DT_FLOAT", "tensorShape": {"dim": [{"size": "-1"}, {"size": "-1"}, {"size": "-1"}]}}, "Identity_1:0": {"name": "Identity_1:0", "dtype": "DT_FLOAT", "tensorShape": {"dim": [{"size": "-1"}, {"size": "-1"}, {"size": "-1"}]}}}}, "modelTopology": {"node": [{"name": "StatefulPartitionedCall/DBNet/approximate_binary_map/add/x", "op": "Const", "attr": {"value": {"tensor": {"dtype": "DT_FLOAT", "tensorShape": {}}}, "dtype": {"type": "DT_FLOAT"}}}, {"name": "StatefulPartitionedCall/DBNet/approximate_binary_map/mul/x", "op": "Const", "attr": {"dtype": {"type": "DT_FLOAT"}, "value": {"tensor": {"dtype": "DT_FLOAT", "tensorShape": {}}}}}, {"name": "StatefulPartitionedCall/DBNet/probability_map/conv2d_transpose_5/strided_slice/stack", "op": "Const", "attr": {"dtype": {"type": "DT_INT32"}, "value": {"tensor": {"dtype": "DT_INT32", "tensorShape": {"dim": [{"size": "1"}]}}}}}, {"name": "StatefulPartitionedCall/DBNet/probability_map/conv2d_transpose_5/strided_slice/stack_1", "op": "Const", "attr": {"dtype": {"type": "DT_INT32"}, "value": {"tensor": {"dtype": "DT_INT32", "tensorShape": {"dim": [{"size": "1"}]}}}}}, {"name": "StatefulPartitionedCall/DBNet/probability_map/conv2d_transpose_5/strided_slice/stack_2", "op": "Const", "attr": {"dtype": {"type": "DT_INT32"}, "value": {"tensor": {"dtype": "DT_INT32", "tensorShape": {"dim": [{"size": "1"}]}}}}}, {"name": "StatefulPartitionedCall/DBNet/probability_map/conv2d_transpose_5/strided_slice_1/stack", "op": "Const", "attr": {"dtype": {"type": "DT_INT32"}, "value": {"tensor": {"dtype": "DT_INT32", "tensorShape": {"dim": [{"size": "1"}]}}}}}, {"name": "StatefulPartitionedCall/DBNet/probability_map/conv2d_transpose_5/strided_slice_1/stack_1", "op": "Const", "attr": {"value": {"tensor": {"dtype": "DT_INT32", "tensorShape": {"dim": [{"size": "1"}]}}}, "dtype": {"type": "DT_INT32"}}}, {"name": "StatefulPartitionedCall/DBNet/probability_map/conv2d_transpose_5/strided_slice_1/stack_2", "op": "Const", "attr": {"value": {"tensor": {"dtype": "DT_INT32", "tensorShape": {"dim": [{"size": "1"}]}}}, "dtype": {"type": "DT_INT32"}}}, {"name": "StatefulPartitionedCall/DBNet/probability_map/conv2d_transpose_5/mul/y", "op": "Const", "attr": {"dtype": {"type": "DT_INT32"}, "value": {"tensor": {"dtype": "DT_INT32", "tensorShape": {}}}}}, {"name": "StatefulPartitionedCall/DBNet/probability_map/conv2d_transpose_5/strided_slice_2/stack", "op": "Const", "attr": {"dtype": {"type": "DT_INT32"}, "value": {"tensor": {"dtype": "DT_INT32", "tensorShape": {"dim": [{"size": "1"}]}}}}}, {"name": "StatefulPartitionedCall/DBNet/probability_map/conv2d_transpose_5/strided_slice_2/stack_1", "op": "Const", "attr": {"dtype": {"type": "DT_INT32"}, "value": {"tensor": {"dtype": "DT_INT32", "tensorShape": {"dim": [{"size": "1"}]}}}}}, {"name": "StatefulPartitionedCall/DBNet/probability_map/conv2d_transpose_5/strided_slice_2/stack_2", "op": "Const", "attr": {"value": {"tensor": {"dtype": "DT_INT32", "tensorShape": {"dim": [{"size": "1"}]}}}, "dtype": {"type": "DT_INT32"}}}, {"name": "StatefulPartitionedCall/DBNet/probability_map/conv2d_transpose_5/mul_1/y", "op": "Const", "attr": {"value": {"tensor": {"dtype": "DT_INT32", "tensorShape": {}}}, "dtype": {"type": "DT_INT32"}}}, {"name": "StatefulPartitionedCall/DBNet/probability_map/conv2d_transpose_5/stack/3", "op": "Const", "attr": {"dtype": {"type": "DT_INT32"}, "value": {"tensor": {"dtype": "DT_INT32", "tensorShape": {}}}}}, {"name": "StatefulPartitionedCall/DBNet/probability_map/conv2d_transpose_5/conv2d_transpose/ReadVariableOp", "op": "Const", "attr": {"value": {"tensor": {"dtype": "DT_FLOAT", "tensorShape": {"dim": [{"size": "2"}, {"size": "2"}, {"size": "1"}, {"size": "64"}]}}}, "dtype": {"type": "DT_FLOAT"}}}, {"name": "StatefulPartitionedCall/DBNet/probability_map/conv2d_transpose_4/strided_slice/stack", "op": "Const", "attr": {"value": {"tensor": {"dtype": "DT_INT32", "tensorShape": {"dim": [{"size": "1"}]}}}, "dtype": {"type": "DT_INT32"}}}, {"name": "StatefulPartitionedCall/DBNet/probability_map/conv2d_transpose_4/strided_slice/stack_1", "op": "Const", "attr": {"value": {"tensor": {"dtype": "DT_INT32", "tensorShape": {"dim": [{"size": "1"}]}}}, "dtype": {"type": "DT_INT32"}}}, {"name": "StatefulPartitionedCall/DBNet/probability_map/conv2d_transpose_4/strided_slice/stack_2", "op": "Const", "attr": {"value": {"tensor": {"dtype": "DT_INT32", "tensorShape": {"dim": [{"size": "1"}]}}}, "dtype": {"type": "DT_INT32"}}}, {"name": "StatefulPartitionedCall/DBNet/probability_map/conv2d_transpose_4/strided_slice_1/stack", "op": "Const", "attr": {"value": {"tensor": {"dtype": "DT_INT32", "tensorShape": {"dim": [{"size": "1"}]}}}, "dtype": {"type": "DT_INT32"}}}, {"name": "StatefulPartitionedCall/DBNet/probability_map/conv2d_transpose_4/strided_slice_1/stack_1", "op": "Const", "attr": {"dtype": {"type": "DT_INT32"}, "value": {"tensor": {"dtype": "DT_INT32", "tensorShape": {"dim": [{"size": "1"}]}}}}}, {"name": "StatefulPartitionedCall/DBNet/probability_map/conv2d_transpose_4/strided_slice_1/stack_2", "op": "Const", "attr": {"dtype": {"type": "DT_INT32"}, "value": {"tensor": {"dtype": "DT_INT32", "tensorShape": {"dim": [{"size": "1"}]}}}}}, {"name": "StatefulPartitionedCall/DBNet/probability_map/conv2d_transpose_4/mul/y", "op": "Const", "attr": {"dtype": {"type": "DT_INT32"}, "value": {"tensor": {"dtype": "DT_INT32", "tensorShape": {}}}}}, {"name": "StatefulPartitionedCall/DBNet/probability_map/conv2d_transpose_4/strided_slice_2/stack", "op": "Const", "attr": {"value": {"tensor": {"dtype": "DT_INT32", "tensorShape": {"dim": [{"size": "1"}]}}}, "dtype": {"type": "DT_INT32"}}}, {"name": "StatefulPartitionedCall/DBNet/probability_map/conv2d_transpose_4/strided_slice_2/stack_1", "op": "Const", "attr": {"dtype": {"type": "DT_INT32"}, "value": {"tensor": {"dtype": "DT_INT32", "tensorShape": {"dim": [{"size": "1"}]}}}}}, {"name": "StatefulPartitionedCall/DBNet/probability_map/conv2d_transpose_4/strided_slice_2/stack_2", "op": "Const", "attr": {"value": {"tensor": {"dtype": "DT_INT32", "tensorShape": {"dim": [{"size": "1"}]}}}, "dtype": {"type": "DT_INT32"}}}, {"name": "StatefulPartitionedCall/DBNet/probability_map/conv2d_transpose_4/mul_1/y", "op": "Const", "attr": {"dtype": {"type": "DT_INT32"}, "value": {"tensor": {"dtype": "DT_INT32", "tensorShape": {}}}}}, {"name": "StatefulPartitionedCall/DBNet/probability_map/conv2d_transpose_4/stack/3", "op": "Const", "attr": {"value": {"tensor": {"dtype": "DT_INT32", "tensorShape": {}}}, "dtype": {"type": "DT_INT32"}}}, {"name": "StatefulPartitionedCall/DBNet/probability_map/conv2d_transpose_4/conv2d_transpose/ReadVariableOp", "op": "Const", "attr": {"value": {"tensor": {"dtype": "DT_FLOAT", "tensorShape": {"dim": [{"size": "2"}, {"size": "2"}, {"size": "64"}, {"size": "64"}]}}}, "dtype": {"type": "DT_FLOAT"}}}, {"name": "StatefulPartitionedCall/DBNet/probability_map/conv2d_transpose_5/BiasAdd/ReadVariableOp", "op": "Const", "attr": {"value": {"tensor": {"dtype": "DT_FLOAT", "tensorShape": {"dim": [{"size": "1"}]}}}, "dtype": {"type": "DT_FLOAT"}}}, {"name": "StatefulPartitionedCall/DBNet/threshold_map/conv2d_transpose_7/strided_slice/stack", "op": "Const", "attr": {"value": {"tensor": {"dtype": "DT_INT32", "tensorShape": {"dim": [{"size": "1"}]}}}, "dtype": {"type": "DT_INT32"}}}, {"name": "StatefulPartitionedCall/DBNet/threshold_map/conv2d_transpose_7/strided_slice/stack_1", "op": "Const", "attr": {"value": {"tensor": {"dtype": "DT_INT32", "tensorShape": {"dim": [{"size": "1"}]}}}, "dtype": {"type": "DT_INT32"}}}, {"name": "StatefulPartitionedCall/DBNet/threshold_map/conv2d_transpose_7/strided_slice/stack_2", "op": "Const", "attr": {"dtype": {"type": "DT_INT32"}, "value": {"tensor": {"dtype": "DT_INT32", "tensorShape": {"dim": [{"size": "1"}]}}}}}, {"name": "StatefulPartitionedCall/DBNet/threshold_map/conv2d_transpose_7/strided_slice_1/stack", "op": "Const", "attr": {"value": {"tensor": {"dtype": "DT_INT32", "tensorShape": {"dim": [{"size": "1"}]}}}, "dtype": {"type": "DT_INT32"}}}, {"name": "StatefulPartitionedCall/DBNet/threshold_map/conv2d_transpose_7/strided_slice_1/stack_1", "op": "Const", "attr": {"value": {"tensor": {"dtype": "DT_INT32", "tensorShape": {"dim": [{"size": "1"}]}}}, "dtype": {"type": "DT_INT32"}}}, {"name": "StatefulPartitionedCall/DBNet/threshold_map/conv2d_transpose_7/strided_slice_1/stack_2", "op": "Const", "attr": {"dtype": {"type": "DT_INT32"}, "value": {"tensor": {"dtype": "DT_INT32", "tensorShape": {"dim": [{"size": "1"}]}}}}}, {"name": "StatefulPartitionedCall/DBNet/threshold_map/conv2d_transpose_7/mul/y", "op": "Const", "attr": {"dtype": {"type": "DT_INT32"}, "value": {"tensor": {"dtype": "DT_INT32", "tensorShape": {}}}}}, {"name": "StatefulPartitionedCall/DBNet/threshold_map/conv2d_transpose_7/strided_slice_2/stack", "op": "Const", "attr": {"dtype": {"type": "DT_INT32"}, "value": {"tensor": {"dtype": "DT_INT32", "tensorShape": {"dim": [{"size": "1"}]}}}}}, {"name": "StatefulPartitionedCall/DBNet/threshold_map/conv2d_transpose_7/strided_slice_2/stack_1", "op": "Const", "attr": {"dtype": {"type": "DT_INT32"}, "value": {"tensor": {"dtype": "DT_INT32", "tensorShape": {"dim": [{"size": "1"}]}}}}}, {"name": "StatefulPartitionedCall/DBNet/threshold_map/conv2d_transpose_7/strided_slice_2/stack_2", "op": "Const", "attr": {"dtype": {"type": "DT_INT32"}, "value": {"tensor": {"dtype": "DT_INT32", "tensorShape": {"dim": [{"size": "1"}]}}}}}, {"name": "StatefulPartitionedCall/DBNet/threshold_map/conv2d_transpose_7/mul_1/y", "op": "Const", "attr": {"value": {"tensor": {"dtype": "DT_INT32", "tensorShape": {}}}, "dtype": {"type": "DT_INT32"}}}, {"name": "StatefulPartitionedCall/DBNet/threshold_map/conv2d_transpose_7/stack/3", "op": "Const", "attr": {"value": {"tensor": {"dtype": "DT_INT32", "tensorShape": {}}}, "dtype": {"type": "DT_INT32"}}}, {"name": "StatefulPartitionedCall/DBNet/threshold_map/conv2d_transpose_7/conv2d_transpose/ReadVariableOp", "op": "Const", "attr": {"value": {"tensor": {"dtype": "DT_FLOAT", "tensorShape": {"dim": [{"size": "2"}, {"size": "2"}, {"size": "1"}, {"size": "64"}]}}}, "dtype": {"type": "DT_FLOAT"}}}, {"name": "StatefulPartitionedCall/DBNet/threshold_map/conv2d_transpose_6/strided_slice/stack", "op": "Const", "attr": {"dtype": {"type": "DT_INT32"}, "value": {"tensor": {"dtype": "DT_INT32", "tensorShape": {"dim": [{"size": "1"}]}}}}}, {"name": "StatefulPartitionedCall/DBNet/threshold_map/conv2d_transpose_6/strided_slice/stack_1", "op": "Const", "attr": {"value": {"tensor": {"dtype": "DT_INT32", "tensorShape": {"dim": [{"size": "1"}]}}}, "dtype": {"type": "DT_INT32"}}}, {"name": "StatefulPartitionedCall/DBNet/threshold_map/conv2d_transpose_6/strided_slice/stack_2", "op": "Const", "attr": {"value": {"tensor": {"dtype": "DT_INT32", "tensorShape": {"dim": [{"size": "1"}]}}}, "dtype": {"type": "DT_INT32"}}}, {"name": "StatefulPartitionedCall/DBNet/threshold_map/conv2d_transpose_6/strided_slice_1/stack", "op": "Const", "attr": {"value": {"tensor": {"dtype": "DT_INT32", "tensorShape": {"dim": [{"size": "1"}]}}}, "dtype": {"type": "DT_INT32"}}}, {"name": "StatefulPartitionedCall/DBNet/threshold_map/conv2d_transpose_6/strided_slice_1/stack_1", "op": "Const", "attr": {"value": {"tensor": {"dtype": "DT_INT32", "tensorShape": {"dim": [{"size": "1"}]}}}, "dtype": {"type": "DT_INT32"}}}, {"name": "StatefulPartitionedCall/DBNet/threshold_map/conv2d_transpose_6/strided_slice_1/stack_2", "op": "Const", "attr": {"value": {"tensor": {"dtype": "DT_INT32", "tensorShape": {"dim": [{"size": "1"}]}}}, "dtype": {"type": "DT_INT32"}}}, {"name": "StatefulPartitionedCall/DBNet/threshold_map/conv2d_transpose_6/mul/y", "op": "Const", "attr": {"dtype": {"type": "DT_INT32"}, "value": {"tensor": {"dtype": "DT_INT32", "tensorShape": {}}}}}, {"name": "StatefulPartitionedCall/DBNet/threshold_map/conv2d_transpose_6/strided_slice_2/stack", "op": "Const", "attr": {"value": {"tensor": {"dtype": "DT_INT32", "tensorShape": {"dim": [{"size": "1"}]}}}, "dtype": {"type": "DT_INT32"}}}, {"name": "StatefulPartitionedCall/DBNet/threshold_map/conv2d_transpose_6/strided_slice_2/stack_1", "op": "Const", "attr": {"dtype": {"type": "DT_INT32"}, "value": {"tensor": {"dtype": "DT_INT32", "tensorShape": {"dim": [{"size": "1"}]}}}}}, {"name": "StatefulPartitionedCall/DBNet/threshold_map/conv2d_transpose_6/strided_slice_2/stack_2", "op": "Const", "attr": {"value": {"tensor": {"dtype": "DT_INT32", "tensorShape": {"dim": [{"size": "1"}]}}}, "dtype": {"type": "DT_INT32"}}}, {"name": "StatefulPartitionedCall/DBNet/threshold_map/conv2d_transpose_6/mul_1/y", "op": "Const", "attr": {"dtype": {"type": "DT_INT32"}, "value": {"tensor": {"dtype": "DT_INT32", "tensorShape": {}}}}}, {"name": "StatefulPartitionedCall/DBNet/threshold_map/conv2d_transpose_6/stack/3", "op": "Const", "attr": {"dtype": {"type": "DT_INT32"}, "value": {"tensor": {"dtype": "DT_INT32", "tensorShape": {}}}}}, {"name": "StatefulPartitionedCall/DBNet/threshold_map/conv2d_transpose_6/conv2d_transpose/ReadVariableOp", "op": "Const", "attr": {"value": {"tensor": {"dtype": "DT_FLOAT", "tensorShape": {"dim": [{"size": "2"}, {"size": "2"}, {"size": "64"}, {"size": "64"}]}}}, "dtype": {"type": "DT_FLOAT"}}}, {"name": "StatefulPartitionedCall/DBNet/up3/strided_slice/stack", "op": "Const", "attr": {"value": {"tensor": {"dtype": "DT_INT32", "tensorShape": {"dim": [{"size": "1"}]}}}, "dtype": {"type": "DT_INT32"}}}, {"name": "StatefulPartitionedCall/DBNet/up3/strided_slice/stack_1", "op": "Const", "attr": {"value": {"tensor": {"dtype": "DT_INT32", "tensorShape": {"dim": [{"size": "1"}]}}}, "dtype": {"type": "DT_INT32"}}}, {"name": "StatefulPartitionedCall/DBNet/up3/strided_slice/stack_2", "op": "Const", "attr": {"value": {"tensor": {"dtype": "DT_INT32", "tensorShape": {"dim": [{"size": "1"}]}}}, "dtype": {"type": "DT_INT32"}}}, {"name": "StatefulPartitionedCall/DBNet/up3/Const", "op": "Const", "attr": {"dtype": {"type": "DT_INT32"}, "value": {"tensor": {"dtype": "DT_INT32", "tensorShape": {"dim": [{"size": "2"}]}}}}}, {"name": "StatefulPartitionedCall/DBNet/up4/strided_slice/stack", "op": "Const", "attr": {"dtype": {"type": "DT_INT32"}, "value": {"tensor": {"dtype": "DT_INT32", "tensorShape": {"dim": [{"size": "1"}]}}}}}, {"name": "StatefulPartitionedCall/DBNet/up4/strided_slice/stack_1", "op": "Const", "attr": {"dtype": {"type": "DT_INT32"}, "value": {"tensor": {"dtype": "DT_INT32", "tensorShape": {"dim": [{"size": "1"}]}}}}}, {"name": "StatefulPartitionedCall/DBNet/up4/strided_slice/stack_2", "op": "Const", "attr": {"value": {"tensor": {"dtype": "DT_INT32", "tensorShape": {"dim": [{"size": "1"}]}}}, "dtype": {"type": "DT_INT32"}}}, {"name": "StatefulPartitionedCall/DBNet/up4/Const", "op": "Const", "attr": {"value": {"tensor": {"dtype": "DT_INT32", "tensorShape": {"dim": [{"size": "2"}]}}}, "dtype": {"type": "DT_INT32"}}}, {"name": "StatefulPartitionedCall/DBNet/P3/up_sampling2d_5/strided_slice/stack", "op": "Const", "attr": {"dtype": {"type": "DT_INT32"}, "value": {"tensor": {"dtype": "DT_INT32", "tensorShape": {"dim": [{"size": "1"}]}}}}}, {"name": "StatefulPartitionedCall/DBNet/P3/up_sampling2d_5/strided_slice/stack_1", "op": "Const", "attr": {"dtype": {"type": "DT_INT32"}, "value": {"tensor": {"dtype": "DT_INT32", "tensorShape": {"dim": [{"size": "1"}]}}}}}, {"name": "StatefulPartitionedCall/DBNet/P3/up_sampling2d_5/strided_slice/stack_2", "op": "Const", "attr": {"dtype": {"type": "DT_INT32"}, "value": {"tensor": {"dtype": "DT_INT32", "tensorShape": {"dim": [{"size": "1"}]}}}}}, {"name": "StatefulPartitionedCall/DBNet/P3/up_sampling2d_5/Const", "op": "Const", "attr": {"dtype": {"type": "DT_INT32"}, "value": {"tensor": {"dtype": "DT_INT32", "tensorShape": {"dim": [{"size": "2"}]}}}}}, {"name": "StatefulPartitionedCall/DBNet/up5/strided_slice/stack", "op": "Const", "attr": {"dtype": {"type": "DT_INT32"}, "value": {"tensor": {"dtype": "DT_INT32", "tensorShape": {"dim": [{"size": "1"}]}}}}}, {"name": "StatefulPartitionedCall/DBNet/up5/strided_slice/stack_1", "op": "Const", "attr": {"dtype": {"type": "DT_INT32"}, "value": {"tensor": {"dtype": "DT_INT32", "tensorShape": {"dim": [{"size": "1"}]}}}}}, {"name": "StatefulPartitionedCall/DBNet/up5/strided_slice/stack_2", "op": "Const", "attr": {"dtype": {"type": "DT_INT32"}, "value": {"tensor": {"dtype": "DT_INT32", "tensorShape": {"dim": [{"size": "1"}]}}}}}, {"name": "StatefulPartitionedCall/DBNet/up5/Const", "op": "Const", "attr": {"dtype": {"type": "DT_INT32"}, "value": {"tensor": {"dtype": "DT_INT32", "tensorShape": {"dim": [{"size": "2"}]}}}}}, {"name": "StatefulPartitionedCall/DBNet/P4/up_sampling2d_4/strided_slice/stack", "op": "Const", "attr": {"dtype": {"type": "DT_INT32"}, "value": {"tensor": {"dtype": "DT_INT32", "tensorShape": {"dim": [{"size": "1"}]}}}}}, {"name": "StatefulPartitionedCall/DBNet/P4/up_sampling2d_4/strided_slice/stack_1", "op": "Const", "attr": {"value": {"tensor": {"dtype": "DT_INT32", "tensorShape": {"dim": [{"size": "1"}]}}}, "dtype": {"type": "DT_INT32"}}}, {"name": "StatefulPartitionedCall/DBNet/P4/up_sampling2d_4/strided_slice/stack_2", "op": "Const", "attr": {"value": {"tensor": {"dtype": "DT_INT32", "tensorShape": {"dim": [{"size": "1"}]}}}, "dtype": {"type": "DT_INT32"}}}, {"name": "StatefulPartitionedCall/DBNet/P4/up_sampling2d_4/Const", "op": "Const", "attr": {"dtype": {"type": "DT_INT32"}, "value": {"tensor": {"dtype": "DT_INT32", "tensorShape": {"dim": [{"size": "2"}]}}}}}, {"name": "StatefulPartitionedCall/DBNet/padding5b1_branch2a/Pad/paddings", "op": "Const", "attr": {"dtype": {"type": "DT_INT32"}, "value": {"tensor": {"dtype": "DT_INT32", "tensorShape": {"dim": [{"size": "4"}, {"size": "2"}]}}}}}, {"name": "StatefulPartitionedCall/DBNet/padding5b1_branch2b/Pad/paddings", "op": "Const", "attr": {"dtype": {"type": "DT_INT32"}, "value": {"tensor": {"dtype": "DT_INT32", "tensorShape": {"dim": [{"size": "4"}, {"size": "2"}]}}}}}, {"name": "StatefulPartitionedCall/DBNet/padding5a_branch2a/Pad/paddings", "op": "Const", "attr": {"dtype": {"type": "DT_INT32"}, "value": {"tensor": {"dtype": "DT_INT32", "tensorShape": {"dim": [{"size": "4"}, {"size": "2"}]}}}}}, {"name": "StatefulPartitionedCall/DBNet/padding5a_branch2b/Pad/paddings", "op": "Const", "attr": {"dtype": {"type": "DT_INT32"}, "value": {"tensor": {"dtype": "DT_INT32", "tensorShape": {"dim": [{"size": "4"}, {"size": "2"}]}}}}}, {"name": "StatefulPartitionedCall/DBNet/padding4b1_branch2a/Pad/paddings", "op": "Const", "attr": {"dtype": {"type": "DT_INT32"}, "value": {"tensor": {"dtype": "DT_INT32", "tensorShape": {"dim": [{"size": "4"}, {"size": "2"}]}}}}}, {"name": "StatefulPartitionedCall/DBNet/padding4b1_branch2b/Pad/paddings", "op": "Const", "attr": {"dtype": {"type": "DT_INT32"}, "value": {"tensor": {"dtype": "DT_INT32", "tensorShape": {"dim": [{"size": "4"}, {"size": "2"}]}}}}}, {"name": "StatefulPartitionedCall/DBNet/padding4a_branch2a/Pad/paddings", "op": "Const", "attr": {"value": {"tensor": {"dtype": "DT_INT32", "tensorShape": {"dim": [{"size": "4"}, {"size": "2"}]}}}, "dtype": {"type": "DT_INT32"}}}, {"name": "StatefulPartitionedCall/DBNet/padding4a_branch2b/Pad/paddings", "op": "Const", "attr": {"dtype": {"type": "DT_INT32"}, "value": {"tensor": {"dtype": "DT_INT32", "tensorShape": {"dim": [{"size": "4"}, {"size": "2"}]}}}}}, {"name": "StatefulPartitionedCall/DBNet/padding3b1_branch2a/Pad/paddings", "op": "Const", "attr": {"value": {"tensor": {"dtype": "DT_INT32", "tensorShape": {"dim": [{"size": "4"}, {"size": "2"}]}}}, "dtype": {"type": "DT_INT32"}}}, {"name": "StatefulPartitionedCall/DBNet/padding3b1_branch2b/Pad/paddings", "op": "Const", "attr": {"value": {"tensor": {"dtype": "DT_INT32", "tensorShape": {"dim": [{"size": "4"}, {"size": "2"}]}}}, "dtype": {"type": "DT_INT32"}}}, {"name": "StatefulPartitionedCall/DBNet/padding3a_branch2a/Pad/paddings", "op": "Const", "attr": {"dtype": {"type": "DT_INT32"}, "value": {"tensor": {"dtype": "DT_INT32", "tensorShape": {"dim": [{"size": "4"}, {"size": "2"}]}}}}}, {"name": "StatefulPartitionedCall/DBNet/padding3a_branch2b/Pad/paddings", "op": "Const", "attr": {"dtype": {"type": "DT_INT32"}, "value": {"tensor": {"dtype": "DT_INT32", "tensorShape": {"dim": [{"size": "4"}, {"size": "2"}]}}}}}, {"name": "StatefulPartitionedCall/DBNet/padding2b1_branch2a/Pad/paddings", "op": "Const", "attr": {"dtype": {"type": "DT_INT32"}, "value": {"tensor": {"dtype": "DT_INT32", "tensorShape": {"dim": [{"size": "4"}, {"size": "2"}]}}}}}, {"name": "StatefulPartitionedCall/DBNet/padding2b1_branch2b/Pad/paddings", "op": "Const", "attr": {"value": {"tensor": {"dtype": "DT_INT32", "tensorShape": {"dim": [{"size": "4"}, {"size": "2"}]}}}, "dtype": {"type": "DT_INT32"}}}, {"name": "StatefulPartitionedCall/DBNet/padding2a_branch2a/Pad/paddings", "op": "Const", "attr": {"value": {"tensor": {"dtype": "DT_INT32", "tensorShape": {"dim": [{"size": "4"}, {"size": "2"}]}}}, "dtype": {"type": "DT_INT32"}}}, {"name": "StatefulPartitionedCall/DBNet/padding2a_branch2b/Pad/paddings", "op": "Const", "attr": {"dtype": {"type": "DT_INT32"}, "value": {"tensor": {"dtype": "DT_INT32", "tensorShape": {"dim": [{"size": "4"}, {"size": "2"}]}}}}}, {"name": "StatefulPartitionedCall/DBNet/P5/up_sampling2d_3/strided_slice/stack", "op": "Const", "attr": {"value": {"tensor": {"dtype": "DT_INT32", "tensorShape": {"dim": [{"size": "1"}]}}}, "dtype": {"type": "DT_INT32"}}}, {"name": "StatefulPartitionedCall/DBNet/P5/up_sampling2d_3/strided_slice/stack_1", "op": "Const", "attr": {"value": {"tensor": {"dtype": "DT_INT32", "tensorShape": {"dim": [{"size": "1"}]}}}, "dtype": {"type": "DT_INT32"}}}, {"name": "StatefulPartitionedCall/DBNet/P5/up_sampling2d_3/strided_slice/stack_2", "op": "Const", "attr": {"value": {"tensor": {"dtype": "DT_INT32", "tensorShape": {"dim": [{"size": "1"}]}}}, "dtype": {"type": "DT_INT32"}}}, {"name": "StatefulPartitionedCall/DBNet/P5/up_sampling2d_3/Const", "op": "Const", "attr": {"value": {"tensor": {"dtype": "DT_INT32", "tensorShape": {"dim": [{"size": "2"}]}}}, "dtype": {"type": "DT_INT32"}}}, {"name": "StatefulPartitionedCall/DBNet/fuse/concat/axis", "op": "Const", "attr": {"value": {"tensor": {"dtype": "DT_INT32", "tensorShape": {}}}, "dtype": {"type": "DT_INT32"}}}, {"name": "StatefulPartitionedCall/DBNet/threshold_map/conv2d_transpose_7/BiasAdd/ReadVariableOp", "op": "Const", "attr": {"dtype": {"type": "DT_FLOAT"}, "value": {"tensor": {"dtype": "DT_FLOAT", "tensorShape": {"dim": [{"size": "1"}]}}}}}, {"name": "image", "op": "Placeholder", "attr": {"dtype": {"type": "DT_FLOAT"}, "shape": {"shape": {"dim": [{"size": "-1"}, {"size": "-1"}, {"size": "-1"}, {"size": "3"}]}}}}, {"name": "StatefulPartitionedCall/DBNet/conv1/Conv2D_weights", "op": "Const", "attr": {"value": {"tensor": {"dtype": "DT_FLOAT", "tensorShape": {"dim": [{"size": "7"}, {"size": "7"}, {"size": "3"}, {"size": "64"}]}}}, "dtype": {"type": "DT_FLOAT"}}}, {"name": "StatefulPartitionedCall/DBNet/conv1/Conv2D_bn_offset", "op": "Const", "attr": {"value": {"tensor": {"dtype": "DT_FLOAT", "tensorShape": {"dim": [{"size": "64"}]}}}, "dtype": {"type": "DT_FLOAT"}}}, {"name": "StatefulPartitionedCall/DBNet/res2a_branch1/Conv2D_weights", "op": "Const", "attr": {"dtype": {"type": "DT_FLOAT"}, "value": {"tensor": {"dtype": "DT_FLOAT", "tensorShape": {"dim": [{"size": "1"}, {"size": "1"}, {"size": "64"}, {"size": "64"}]}}}}}, {"name": "StatefulPartitionedCall/DBNet/res2a_branch1/Conv2D_bn_offset", "op": "Const", "attr": {"value": {"tensor": {"dtype": "DT_FLOAT", "tensorShape": {"dim": [{"size": "64"}]}}}, "dtype": {"type": "DT_FLOAT"}}}, {"name": "StatefulPartitionedCall/DBNet/res2a_branch2a/Conv2D_weights", "op": "Const", "attr": {"dtype": {"type": "DT_FLOAT"}, "value": {"tensor": {"dtype": "DT_FLOAT", "tensorShape": {"dim": [{"size": "3"}, {"size": "3"}, {"size": "64"}, {"size": "64"}]}}}}}, {"name": "StatefulPartitionedCall/DBNet/threshold_map/ConvBnRelu/conv2d_27/Conv2D_weights", "op": "Const", "attr": {"dtype": {"type": "DT_FLOAT"}, "value": {"tensor": {"dtype": "DT_FLOAT", "tensorShape": {"dim": [{"size": "3"}, {"size": "3"}, {"size": "256"}, {"size": "64"}]}}}}}, {"name": "StatefulPartitionedCall/DBNet/res2a_branch2a/Conv2D_bn_offset", "op": "Const", "attr": {"dtype": {"type": "DT_FLOAT"}, "value": {"tensor": {"dtype": "DT_FLOAT", "tensorShape": {"dim": [{"size": "64"}]}}}}}, {"name": "StatefulPartitionedCall/DBNet/res2a_branch2b/Conv2D_weights", "op": "Const", "attr": {"dtype": {"type": "DT_FLOAT"}, "value": {"tensor": {"dtype": "DT_FLOAT", "tensorShape": {"dim": [{"size": "3"}, {"size": "3"}, {"size": "64"}, {"size": "64"}]}}}}}, {"name": "StatefulPartitionedCall/DBNet/threshold_map/ConvBnRelu/conv2d_27/Conv2D_bn_offset", "op": "Const", "attr": {"dtype": {"type": "DT_FLOAT"}, "value": {"tensor": {"dtype": "DT_FLOAT", "tensorShape": {"dim": [{"size": "64"}]}}}}}, {"name": "StatefulPartitionedCall/DBNet/res2a_branch2b/Conv2D_bn_offset", "op": "Const", "attr": {"value": {"tensor": {"dtype": "DT_FLOAT", "tensorShape": {"dim": [{"size": "64"}]}}}, "dtype": {"type": "DT_FLOAT"}}}, {"name": "StatefulPartitionedCall/DBNet/res2b1_branch2a/Conv2D_weights", "op": "Const", "attr": {"dtype": {"type": "DT_FLOAT"}, "value": {"tensor": {"dtype": "DT_FLOAT", "tensorShape": {"dim": [{"size": "3"}, {"size": "3"}, {"size": "64"}, {"size": "64"}]}}}}}, {"name": "StatefulPartitionedCall/DBNet/probability_map/batch_normalization_29/FusedBatchNormV3/Offset", "op": "Const", "attr": {"dtype": {"type": "DT_FLOAT"}, "value": {"tensor": {"dtype": "DT_FLOAT", "tensorShape": {"dim": [{"size": "64"}]}}}}}, {"name": "StatefulPartitionedCall/DBNet/res2b1_branch2a/Conv2D_bn_offset", "op": "Const", "attr": {"value": {"tensor": {"dtype": "DT_FLOAT", "tensorShape": {"dim": [{"size": "64"}]}}}, "dtype": {"type": "DT_FLOAT"}}}, {"name": "StatefulPartitionedCall/DBNet/res2b1_branch2b/Conv2D_weights", "op": "Const", "attr": {"value": {"tensor": {"dtype": "DT_FLOAT", "tensorShape": {"dim": [{"size": "3"}, {"size": "3"}, {"size": "64"}, {"size": "64"}]}}}, "dtype": {"type": "DT_FLOAT"}}}, {"name": "StatefulPartitionedCall/DBNet/res2b1_branch2b/Conv2D_bn_offset", "op": "Const", "attr": {"value": {"tensor": {"dtype": "DT_FLOAT", "tensorShape": {"dim": [{"size": "64"}]}}}, "dtype": {"type": "DT_FLOAT"}}}, {"name": "StatefulPartitionedCall/DBNet/res3a_branch1/Conv2D_weights", "op": "Const", "attr": {"value": {"tensor": {"dtype": "DT_FLOAT", "tensorShape": {"dim": [{"size": "1"}, {"size": "1"}, {"size": "64"}, {"size": "128"}]}}}, "dtype": {"type": "DT_FLOAT"}}}, {"name": "StatefulPartitionedCall/DBNet/res3a_branch1/Conv2D_bn_offset", "op": "Const", "attr": {"dtype": {"type": "DT_FLOAT"}, "value": {"tensor": {"dtype": "DT_FLOAT", "tensorShape": {"dim": [{"size": "128"}]}}}}}, {"name": "StatefulPartitionedCall/DBNet/in2/conv2d_18/Conv2D_weights", "op": "Const", "attr": {"dtype": {"type": "DT_FLOAT"}, "value": {"tensor": {"dtype": "DT_FLOAT", "tensorShape": {"dim": [{"size": "1"}, {"size": "1"}, {"size": "64"}, {"size": "256"}]}}}}}, {"name": "StatefulPartitionedCall/DBNet/in2/conv2d_18/Conv2D_bn_offset", "op": "Const", "attr": {"value": {"tensor": {"dtype": "DT_FLOAT", "tensorShape": {"dim": [{"size": "256"}]}}}, "dtype": {"type": "DT_FLOAT"}}}, {"name": "StatefulPartitionedCall/DBNet/res3a_branch2a/Conv2D_weights", "op": "Const", "attr": {"value": {"tensor": {"dtype": "DT_FLOAT", "tensorShape": {"dim": [{"size": "3"}, {"size": "3"}, {"size": "64"}, {"size": "128"}]}}}, "dtype": {"type": "DT_FLOAT"}}}, {"name": "StatefulPartitionedCall/DBNet/res3a_branch2a/Conv2D_bn_offset", "op": "Const", "attr": {"value": {"tensor": {"dtype": "DT_FLOAT", "tensorShape": {"dim": [{"size": "128"}]}}}, "dtype": {"type": "DT_FLOAT"}}}, {"name": "StatefulPartitionedCall/DBNet/res3a_branch2b/Conv2D_weights", "op": "Const", "attr": {"dtype": {"type": "DT_FLOAT"}, "value": {"tensor": {"dtype": "DT_FLOAT", "tensorShape": {"dim": [{"size": "3"}, {"size": "3"}, {"size": "128"}, {"size": "128"}]}}}}}, {"name": "StatefulPartitionedCall/DBNet/res3a_branch2b/Conv2D_bn_offset", "op": "Const", "attr": {"value": {"tensor": {"dtype": "DT_FLOAT", "tensorShape": {"dim": [{"size": "128"}]}}}, "dtype": {"type": "DT_FLOAT"}}}, {"name": "StatefulPartitionedCall/DBNet/res3b1_branch2a/Conv2D_weights", "op": "Const", "attr": {"value": {"tensor": {"dtype": "DT_FLOAT", "tensorShape": {"dim": [{"size": "3"}, {"size": "3"}, {"size": "128"}, {"size": "128"}]}}}, "dtype": {"type": "DT_FLOAT"}}}, {"name": "StatefulPartitionedCall/DBNet/res3b1_branch2a/Conv2D_bn_offset", "op": "Const", "attr": {"value": {"tensor": {"dtype": "DT_FLOAT", "tensorShape": {"dim": [{"size": "128"}]}}}, "dtype": {"type": "DT_FLOAT"}}}, {"name": "StatefulPartitionedCall/DBNet/res3b1_branch2b/Conv2D_weights", "op": "Const", "attr": {"dtype": {"type": "DT_FLOAT"}, "value": {"tensor": {"dtype": "DT_FLOAT", "tensorShape": {"dim": [{"size": "3"}, {"size": "3"}, {"size": "128"}, {"size": "128"}]}}}}}, {"name": "StatefulPartitionedCall/DBNet/res3b1_branch2b/Conv2D_bn_offset", "op": "Const", "attr": {"value": {"tensor": {"dtype": "DT_FLOAT", "tensorShape": {"dim": [{"size": "128"}]}}}, "dtype": {"type": "DT_FLOAT"}}}, {"name": "StatefulPartitionedCall/DBNet/res4a_branch1/Conv2D_weights", "op": "Const", "attr": {"dtype": {"type": "DT_FLOAT"}, "value": {"tensor": {"dtype": "DT_FLOAT", "tensorShape": {"dim": [{"size": "1"}, {"size": "1"}, {"size": "128"}, {"size": "256"}]}}}}}, {"name": "StatefulPartitionedCall/DBNet/res4a_branch1/Conv2D_bn_offset", "op": "Const", "attr": {"dtype": {"type": "DT_FLOAT"}, "value": {"tensor": {"dtype": "DT_FLOAT", "tensorShape": {"dim": [{"size": "256"}]}}}}}, {"name": "StatefulPartitionedCall/DBNet/in3/conv2d_19/Conv2D_weights", "op": "Const", "attr": {"value": {"tensor": {"dtype": "DT_FLOAT", "tensorShape": {"dim": [{"size": "1"}, {"size": "1"}, {"size": "128"}, {"size": "256"}]}}}, "dtype": {"type": "DT_FLOAT"}}}, {"name": "StatefulPartitionedCall/DBNet/in3/conv2d_19/Conv2D_bn_offset", "op": "Const", "attr": {"dtype": {"type": "DT_FLOAT"}, "value": {"tensor": {"dtype": "DT_FLOAT", "tensorShape": {"dim": [{"size": "256"}]}}}}}, {"name": "StatefulPartitionedCall/DBNet/res4a_branch2a/Conv2D_weights", "op": "Const", "attr": {"value": {"tensor": {"dtype": "DT_FLOAT", "tensorShape": {"dim": [{"size": "3"}, {"size": "3"}, {"size": "128"}, {"size": "256"}]}}}, "dtype": {"type": "DT_FLOAT"}}}, {"name": "StatefulPartitionedCall/DBNet/res4a_branch2a/Conv2D_bn_offset", "op": "Const", "attr": {"value": {"tensor": {"dtype": "DT_FLOAT", "tensorShape": {"dim": [{"size": "256"}]}}}, "dtype": {"type": "DT_FLOAT"}}}, {"name": "StatefulPartitionedCall/DBNet/res4a_branch2b/Conv2D_weights", "op": "Const", "attr": {"value": {"tensor": {"dtype": "DT_FLOAT", "tensorShape": {"dim": [{"size": "3"}, {"size": "3"}, {"size": "256"}, {"size": "256"}]}}}, "dtype": {"type": "DT_FLOAT"}}}, {"name": "StatefulPartitionedCall/DBNet/res4a_branch2b/Conv2D_bn_offset", "op": "Const", "attr": {"dtype": {"type": "DT_FLOAT"}, "value": {"tensor": {"dtype": "DT_FLOAT", "tensorShape": {"dim": [{"size": "256"}]}}}}}, {"name": "StatefulPartitionedCall/DBNet/res4b1_branch2a/Conv2D_weights", "op": "Const", "attr": {"dtype": {"type": "DT_FLOAT"}, "value": {"tensor": {"dtype": "DT_FLOAT", "tensorShape": {"dim": [{"size": "3"}, {"size": "3"}, {"size": "256"}, {"size": "256"}]}}}}}, {"name": "StatefulPartitionedCall/DBNet/res4b1_branch2a/Conv2D_bn_offset", "op": "Const", "attr": {"value": {"tensor": {"dtype": "DT_FLOAT", "tensorShape": {"dim": [{"size": "256"}]}}}, "dtype": {"type": "DT_FLOAT"}}}, {"name": "StatefulPartitionedCall/DBNet/res4b1_branch2b/Conv2D_weights", "op": "Const", "attr": {"dtype": {"type": "DT_FLOAT"}, "value": {"tensor": {"dtype": "DT_FLOAT", "tensorShape": {"dim": [{"size": "3"}, {"size": "3"}, {"size": "256"}, {"size": "256"}]}}}}}, {"name": "StatefulPartitionedCall/DBNet/res4b1_branch2b/Conv2D_bn_offset", "op": "Const", "attr": {"dtype": {"type": "DT_FLOAT"}, "value": {"tensor": {"dtype": "DT_FLOAT", "tensorShape": {"dim": [{"size": "256"}]}}}}}, {"name": "StatefulPartitionedCall/DBNet/res5a_branch1/Conv2D_weights", "op": "Const", "attr": {"value": {"tensor": {"dtype": "DT_FLOAT", "tensorShape": {"dim": [{"size": "1"}, {"size": "1"}, {"size": "256"}, {"size": "512"}]}}}, "dtype": {"type": "DT_FLOAT"}}}, {"name": "StatefulPartitionedCall/DBNet/res5a_branch1/Conv2D_bn_offset", "op": "Const", "attr": {"dtype": {"type": "DT_FLOAT"}, "value": {"tensor": {"dtype": "DT_FLOAT", "tensorShape": {"dim": [{"size": "512"}]}}}}}, {"name": "StatefulPartitionedCall/DBNet/in4/conv2d_20/Conv2D_weights", "op": "Const", "attr": {"dtype": {"type": "DT_FLOAT"}, "value": {"tensor": {"dtype": "DT_FLOAT", "tensorShape": {"dim": [{"size": "1"}, {"size": "1"}, {"size": "256"}, {"size": "256"}]}}}}}, {"name": "StatefulPartitionedCall/DBNet/in4/conv2d_20/Conv2D_bn_offset", "op": "Const", "attr": {"value": {"tensor": {"dtype": "DT_FLOAT", "tensorShape": {"dim": [{"size": "256"}]}}}, "dtype": {"type": "DT_FLOAT"}}}, {"name": "StatefulPartitionedCall/DBNet/res5a_branch2a/Conv2D_weights", "op": "Const", "attr": {"dtype": {"type": "DT_FLOAT"}, "value": {"tensor": {"dtype": "DT_FLOAT", "tensorShape": {"dim": [{"size": "3"}, {"size": "3"}, {"size": "256"}, {"size": "512"}]}}}}}, {"name": "StatefulPartitionedCall/DBNet/res5a_branch2a/Conv2D_bn_offset", "op": "Const", "attr": {"dtype": {"type": "DT_FLOAT"}, "value": {"tensor": {"dtype": "DT_FLOAT", "tensorShape": {"dim": [{"size": "512"}]}}}}}, {"name": "StatefulPartitionedCall/DBNet/res5a_branch2b/Conv2D_weights", "op": "Const", "attr": {"dtype": {"type": "DT_FLOAT"}, "value": {"tensor": {"dtype": "DT_FLOAT", "tensorShape": {"dim": [{"size": "3"}, {"size": "3"}, {"size": "512"}, {"size": "512"}]}}}}}, {"name": "StatefulPartitionedCall/DBNet/res5a_branch2b/Conv2D_bn_offset", "op": "Const", "attr": {"value": {"tensor": {"dtype": "DT_FLOAT", "tensorShape": {"dim": [{"size": "512"}]}}}, "dtype": {"type": "DT_FLOAT"}}}, {"name": "StatefulPartitionedCall/DBNet/res5b1_branch2a/Conv2D_weights", "op": "Const", "attr": {"value": {"tensor": {"dtype": "DT_FLOAT", "tensorShape": {"dim": [{"size": "3"}, {"size": "3"}, {"size": "512"}, {"size": "512"}]}}}, "dtype": {"type": "DT_FLOAT"}}}, {"name": "StatefulPartitionedCall/DBNet/res5b1_branch2a/Conv2D_bn_offset", "op": "Const", "attr": {"dtype": {"type": "DT_FLOAT"}, "value": {"tensor": {"dtype": "DT_FLOAT", "tensorShape": {"dim": [{"size": "512"}]}}}}}, {"name": "StatefulPartitionedCall/DBNet/res5b1_branch2b/Conv2D_weights", "op": "Const", "attr": {"dtype": {"type": "DT_FLOAT"}, "value": {"tensor": {"dtype": "DT_FLOAT", "tensorShape": {"dim": [{"size": "3"}, {"size": "3"}, {"size": "512"}, {"size": "512"}]}}}}}, {"name": "StatefulPartitionedCall/DBNet/res5b1_branch2b/Conv2D_bn_offset", "op": "Const", "attr": {"dtype": {"type": "DT_FLOAT"}, "value": {"tensor": {"dtype": "DT_FLOAT", "tensorShape": {"dim": [{"size": "512"}]}}}}}, {"name": "StatefulPartitionedCall/DBNet/in5/conv2d_21/Conv2D_weights", "op": "Const", "attr": {"dtype": {"type": "DT_FLOAT"}, "value": {"tensor": {"dtype": "DT_FLOAT", "tensorShape": {"dim": [{"size": "1"}, {"size": "1"}, {"size": "512"}, {"size": "256"}]}}}}}, {"name": "StatefulPartitionedCall/DBNet/in5/conv2d_21/Conv2D_bn_offset", "op": "Const", "attr": {"value": {"tensor": {"dtype": "DT_FLOAT", "tensorShape": {"dim": [{"size": "256"}]}}}, "dtype": {"type": "DT_FLOAT"}}}, {"name": "StatefulPartitionedCall/DBNet/P5/ConvBnRelu/conv2d_22/Conv2D_weights", "op": "Const", "attr": {"dtype": {"type": "DT_FLOAT"}, "value": {"tensor": {"dtype": "DT_FLOAT", "tensorShape": {"dim": [{"size": "3"}, {"size": "3"}, {"size": "256"}, {"size": "64"}]}}}}}, {"name": "StatefulPartitionedCall/DBNet/P5/ConvBnRelu/conv2d_22/Conv2D_bn_offset", "op": "Const", "attr": {"dtype": {"type": "DT_FLOAT"}, "value": {"tensor": {"dtype": "DT_FLOAT", "tensorShape": {"dim": [{"size": "64"}]}}}}}, {"name": "StatefulPartitionedCall/DBNet/threshold_map/batch_normalization_31/FusedBatchNormV3/Scaled", "op": "Const", "attr": {"dtype": {"type": "DT_FLOAT"}, "value": {"tensor": {"dtype": "DT_FLOAT", "tensorShape": {"dim": [{"size": "64"}]}}}}}, {"name": "StatefulPartitionedCall/DBNet/P4/ConvBnRelu/conv2d_23/Conv2D_weights", "op": "Const", "attr": {"dtype": {"type": "DT_FLOAT"}, "value": {"tensor": {"dtype": "DT_FLOAT", "tensorShape": {"dim": [{"size": "3"}, {"size": "3"}, {"size": "256"}, {"size": "64"}]}}}}}, {"name": "StatefulPartitionedCall/DBNet/P4/ConvBnRelu/conv2d_23/Conv2D_bn_offset", "op": "Const", "attr": {"value": {"tensor": {"dtype": "DT_FLOAT", "tensorShape": {"dim": [{"size": "64"}]}}}, "dtype": {"type": "DT_FLOAT"}}}, {"name": "StatefulPartitionedCall/DBNet/P3/ConvBnRelu/conv2d_24/Conv2D_weights", "op": "Const", "attr": {"value": {"tensor": {"dtype": "DT_FLOAT", "tensorShape": {"dim": [{"size": "3"}, {"size": "3"}, {"size": "256"}, {"size": "64"}]}}}, "dtype": {"type": "DT_FLOAT"}}}, {"name": "StatefulPartitionedCall/DBNet/threshold_map/batch_normalization_31/FusedBatchNormV3/Offset", "op": "Const", "attr": {"dtype": {"type": "DT_FLOAT"}, "value": {"tensor": {"dtype": "DT_FLOAT", "tensorShape": {"dim": [{"size": "64"}]}}}}}, {"name": "StatefulPartitionedCall/DBNet/P3/ConvBnRelu/conv2d_24/Conv2D_bn_offset", "op": "Const", "attr": {"dtype": {"type": "DT_FLOAT"}, "value": {"tensor": {"dtype": "DT_FLOAT", "tensorShape": {"dim": [{"size": "64"}]}}}}}, {"name": "StatefulPartitionedCall/DBNet/P2/conv2d_25/Conv2D_weights", "op": "Const", "attr": {"dtype": {"type": "DT_FLOAT"}, "value": {"tensor": {"dtype": "DT_FLOAT", "tensorShape": {"dim": [{"size": "3"}, {"size": "3"}, {"size": "256"}, {"size": "64"}]}}}}}, {"name": "StatefulPartitionedCall/DBNet/P2/conv2d_25/Conv2D_bn_offset", "op": "Const", "attr": {"dtype": {"type": "DT_FLOAT"}, "value": {"tensor": {"dtype": "DT_FLOAT", "tensorShape": {"dim": [{"size": "64"}]}}}}}, {"name": "StatefulPartitionedCall/DBNet/probability_map/ConvBnRelu/conv2d_26/Conv2D_weights", "op": "Const", "attr": {"value": {"tensor": {"dtype": "DT_FLOAT", "tensorShape": {"dim": [{"size": "3"}, {"size": "3"}, {"size": "256"}, {"size": "64"}]}}}, "dtype": {"type": "DT_FLOAT"}}}, {"name": "StatefulPartitionedCall/DBNet/probability_map/batch_normalization_29/FusedBatchNormV3/Scaled", "op": "Const", "attr": {"value": {"tensor": {"dtype": "DT_FLOAT", "tensorShape": {"dim": [{"size": "64"}]}}}, "dtype": {"type": "DT_FLOAT"}}}, {"name": "StatefulPartitionedCall/DBNet/probability_map/ConvBnRelu/conv2d_26/Conv2D_bn_offset", "op": "Const", "attr": {"dtype": {"type": "DT_FLOAT"}, "value": {"tensor": {"dtype": "DT_FLOAT", "tensorShape": {"dim": [{"size": "64"}]}}}}}, {"name": "StatefulPartitionedCall/DBNet/conv1_relu/Relu", "op": "_FusedConv2D", "input": ["image", "StatefulPartitionedCall/DBNet/conv1/Conv2D_weights", "StatefulPartitionedCall/DBNet/conv1/Conv2D_bn_offset"], "device": "/device:CPU:0", "attr": {"dilations": {"list": {"i": ["1", "1", "1", "1"]}}, "T": {"type": "DT_FLOAT"}, "padding": {"s": "U0FNRQ=="}, "strides": {"list": {"i": ["1", "2", "2", "1"]}}, "explicit_paddings": {"list": {}}, "data_format": {"s": "TkhXQw=="}, "fused_ops": {"list": {"s": ["Qmlhc0FkZA==", "UmVsdQ=="]}}, "use_cudnn_on_gpu": {"b": true}, "epsilon": {"f": 0.0}, "num_args": {"i": "1"}}}, {"name": "StatefulPartitionedCall/DBNet/pool1/MaxPool", "op": "MaxPool", "input": ["StatefulPartitionedCall/DBNet/conv1_relu/Relu"], "attr": {"explicit_paddings": {"list": {}}, "strides": {"list": {"i": ["1", "2", "2", "1"]}}, "data_format": {"s": "TkhXQw=="}, "padding": {"s": "U0FNRQ=="}, "ksize": {"list": {"i": ["1", "3", "3", "1"]}}, "T": {"type": "DT_FLOAT"}}}, {"name": "StatefulPartitionedCall/DBNet/padding2a_branch2a/Pad", "op": "Pad", "input": ["StatefulPartitionedCall/DBNet/pool1/MaxPool", "StatefulPartitionedCall/DBNet/padding2a_branch2a/Pad/paddings"], "attr": {"T": {"type": "DT_FLOAT"}, "Tpaddings": {"type": "DT_INT32"}}}, {"name": "StatefulPartitionedCall/DBNet/bn2a_branch1/FusedBatchNormV3", "op": "_FusedConv2D", "input": ["StatefulPartitionedCall/DBNet/pool1/MaxPool", "StatefulPartitionedCall/DBNet/res2a_branch1/Conv2D_weights", "StatefulPartitionedCall/DBNet/res2a_branch1/Conv2D_bn_offset"], "device": "/device:CPU:0", "attr": {"fused_ops": {"list": {"s": ["Qmlhc0FkZA=="]}}, "epsilon": {"f": 0.0}, "padding": {"s": "VkFMSUQ="}, "num_args": {"i": "1"}, "T": {"type": "DT_FLOAT"}, "dilations": {"list": {"i": ["1", "1", "1", "1"]}}, "use_cudnn_on_gpu": {"b": true}, "explicit_paddings": {"list": {}}, "data_format": {"s": "TkhXQw=="}, "strides": {"list": {"i": ["1", "1", "1", "1"]}}}}, {"name": "StatefulPartitionedCall/DBNet/res2a_branch2a_relu/Relu", "op": "_FusedConv2D", "input": ["StatefulPartitionedCall/DBNet/padding2a_branch2a/Pad", "StatefulPartitionedCall/DBNet/res2a_branch2a/Conv2D_weights", "StatefulPartitionedCall/DBNet/res2a_branch2a/Conv2D_bn_offset"], "device": "/device:CPU:0", "attr": {"T": {"type": "DT_FLOAT"}, "explicit_paddings": {"list": {}}, "padding": {"s": "VkFMSUQ="}, "epsilon": {"f": 0.0}, "strides": {"list": {"i": ["1", "1", "1", "1"]}}, "data_format": {"s": "TkhXQw=="}, "use_cudnn_on_gpu": {"b": true}, "fused_ops": {"list": {"s": ["Qmlhc0FkZA==", "UmVsdQ=="]}}, "num_args": {"i": "1"}, "dilations": {"list": {"i": ["1", "1", "1", "1"]}}}}, {"name": "StatefulPartitionedCall/DBNet/padding2a_branch2b/Pad", "op": "Pad", "input": ["StatefulPartitionedCall/DBNet/res2a_branch2a_relu/Relu", "StatefulPartitionedCall/DBNet/padding2a_branch2b/Pad/paddings"], "attr": {"T": {"type": "DT_FLOAT"}, "Tpaddings": {"type": "DT_INT32"}}}, {"name": "StatefulPartitionedCall/DBNet/bn2a_branch2b/FusedBatchNormV3", "op": "_FusedConv2D", "input": ["StatefulPartitionedCall/DBNet/padding2a_branch2b/Pad", "StatefulPartitionedCall/DBNet/res2a_branch2b/Conv2D_weights", "StatefulPartitionedCall/DBNet/res2a_branch2b/Conv2D_bn_offset"], "device": "/device:CPU:0", "attr": {"strides": {"list": {"i": ["1", "1", "1", "1"]}}, "use_cudnn_on_gpu": {"b": true}, "explicit_paddings": {"list": {}}, "fused_ops": {"list": {"s": ["Qmlhc0FkZA=="]}}, "epsilon": {"f": 0.0}, "T": {"type": "DT_FLOAT"}, "num_args": {"i": "1"}, "dilations": {"list": {"i": ["1", "1", "1", "1"]}}, "data_format": {"s": "TkhXQw=="}, "padding": {"s": "VkFMSUQ="}}}, {"name": "StatefulPartitionedCall/DBNet/res2a/add", "op": "AddV2", "input": ["StatefulPartitionedCall/DBNet/bn2a_branch2b/FusedBatchNormV3", "StatefulPartitionedCall/DBNet/bn2a_branch1/FusedBatchNormV3"], "attr": {"T": {"type": "DT_FLOAT"}}}, {"name": "StatefulPartitionedCall/DBNet/res2a_relu/Relu", "op": "Relu", "input": ["StatefulPartitionedCall/DBNet/res2a/add"], "attr": {"T": {"type": "DT_FLOAT"}}}, {"name": "StatefulPartitionedCall/DBNet/padding2b1_branch2a/Pad", "op": "Pad", "input": ["StatefulPartitionedCall/DBNet/res2a_relu/Relu", "StatefulPartitionedCall/DBNet/padding2b1_branch2a/Pad/paddings"], "attr": {"Tpaddings": {"type": "DT_INT32"}, "T": {"type": "DT_FLOAT"}}}, {"name": "StatefulPartitionedCall/DBNet/res2b1_branch2a_relu/Relu", "op": "_FusedConv2D", "input": ["StatefulPartitionedCall/DBNet/padding2b1_branch2a/Pad", "StatefulPartitionedCall/DBNet/res2b1_branch2a/Conv2D_weights", "StatefulPartitionedCall/DBNet/res2b1_branch2a/Conv2D_bn_offset"], "device": "/device:CPU:0", "attr": {"dilations": {"list": {"i": ["1", "1", "1", "1"]}}, "use_cudnn_on_gpu": {"b": true}, "T": {"type": "DT_FLOAT"}, "fused_ops": {"list": {"s": ["Qmlhc0FkZA==", "UmVsdQ=="]}}, "strides": {"list": {"i": ["1", "1", "1", "1"]}}, "explicit_paddings": {"list": {}}, "padding": {"s": "VkFMSUQ="}, "num_args": {"i": "1"}, "data_format": {"s": "TkhXQw=="}, "epsilon": {"f": 0.0}}}, {"name": "StatefulPartitionedCall/DBNet/padding2b1_branch2b/Pad", "op": "Pad", "input": ["StatefulPartitionedCall/DBNet/res2b1_branch2a_relu/Relu", "StatefulPartitionedCall/DBNet/padding2b1_branch2b/Pad/paddings"], "attr": {"Tpaddings": {"type": "DT_INT32"}, "T": {"type": "DT_FLOAT"}}}, {"name": "StatefulPartitionedCall/DBNet/bn2b1_branch2b/FusedBatchNormV3", "op": "_FusedConv2D", "input": ["StatefulPartitionedCall/DBNet/padding2b1_branch2b/Pad", "StatefulPartitionedCall/DBNet/res2b1_branch2b/Conv2D_weights", "StatefulPartitionedCall/DBNet/res2b1_branch2b/Conv2D_bn_offset"], "device": "/device:CPU:0", "attr": {"use_cudnn_on_gpu": {"b": true}, "padding": {"s": "VkFMSUQ="}, "T": {"type": "DT_FLOAT"}, "strides": {"list": {"i": ["1", "1", "1", "1"]}}, "epsilon": {"f": 0.0}, "data_format": {"s": "TkhXQw=="}, "explicit_paddings": {"list": {}}, "fused_ops": {"list": {"s": ["Qmlhc0FkZA=="]}}, "num_args": {"i": "1"}, "dilations": {"list": {"i": ["1", "1", "1", "1"]}}}}, {"name": "StatefulPartitionedCall/DBNet/res2b1/add", "op": "AddV2", "input": ["StatefulPartitionedCall/DBNet/bn2b1_branch2b/FusedBatchNormV3", "StatefulPartitionedCall/DBNet/res2a_relu/Relu"], "attr": {"T": {"type": "DT_FLOAT"}}}, {"name": "StatefulPartitionedCall/DBNet/res2b1_relu/Relu", "op": "Relu", "input": ["StatefulPartitionedCall/DBNet/res2b1/add"], "attr": {"T": {"type": "DT_FLOAT"}}}, {"name": "StatefulPartitionedCall/DBNet/padding3a_branch2a/Pad", "op": "Pad", "input": ["StatefulPartitionedCall/DBNet/res2b1_relu/Relu", "StatefulPartitionedCall/DBNet/padding3a_branch2a/Pad/paddings"], "attr": {"T": {"type": "DT_FLOAT"}, "Tpaddings": {"type": "DT_INT32"}}}, {"name": "StatefulPartitionedCall/DBNet/bn3a_branch1/FusedBatchNormV3", "op": "_FusedConv2D", "input": ["StatefulPartitionedCall/DBNet/res2b1_relu/Relu", "StatefulPartitionedCall/DBNet/res3a_branch1/Conv2D_weights", "StatefulPartitionedCall/DBNet/res3a_branch1/Conv2D_bn_offset"], "device": "/device:CPU:0", "attr": {"num_args": {"i": "1"}, "use_cudnn_on_gpu": {"b": true}, "strides": {"list": {"i": ["1", "2", "2", "1"]}}, "padding": {"s": "VkFMSUQ="}, "T": {"type": "DT_FLOAT"}, "data_format": {"s": "TkhXQw=="}, "fused_ops": {"list": {"s": ["Qmlhc0FkZA=="]}}, "dilations": {"list": {"i": ["1", "1", "1", "1"]}}, "explicit_paddings": {"list": {}}, "epsilon": {"f": 0.0}}}, {"name": "StatefulPartitionedCall/DBNet/in2/re_lu_20/Relu", "op": "_FusedConv2D", "input": ["StatefulPartitionedCall/DBNet/res2b1_relu/Relu", "StatefulPartitionedCall/DBNet/in2/conv2d_18/Conv2D_weights", "StatefulPartitionedCall/DBNet/in2/conv2d_18/Conv2D_bn_offset"], "device": "/device:CPU:0", "attr": {"epsilon": {"f": 0.0}, "T": {"type": "DT_FLOAT"}, "explicit_paddings": {"list": {}}, "dilations": {"list": {"i": ["1", "1", "1", "1"]}}, "fused_ops": {"list": {"s": ["Qmlhc0FkZA==", "UmVsdQ=="]}}, "use_cudnn_on_gpu": {"b": true}, "strides": {"list": {"i": ["1", "1", "1", "1"]}}, "data_format": {"s": "TkhXQw=="}, "num_args": {"i": "1"}, "padding": {"s": "U0FNRQ=="}}}, {"name": "StatefulPartitionedCall/DBNet/res3a_branch2a_relu/Relu", "op": "_FusedConv2D", "input": ["StatefulPartitionedCall/DBNet/padding3a_branch2a/Pad", "StatefulPartitionedCall/DBNet/res3a_branch2a/Conv2D_weights", "StatefulPartitionedCall/DBNet/res3a_branch2a/Conv2D_bn_offset"], "device": "/device:CPU:0", "attr": {"data_format": {"s": "TkhXQw=="}, "use_cudnn_on_gpu": {"b": true}, "T": {"type": "DT_FLOAT"}, "epsilon": {"f": 0.0}, "dilations": {"list": {"i": ["1", "1", "1", "1"]}}, "num_args": {"i": "1"}, "padding": {"s": "VkFMSUQ="}, "strides": {"list": {"i": ["1", "2", "2", "1"]}}, "fused_ops": {"list": {"s": ["Qmlhc0FkZA==", "UmVsdQ=="]}}, "explicit_paddings": {"list": {}}}}, {"name": "StatefulPartitionedCall/DBNet/padding3a_branch2b/Pad", "op": "Pad", "input": ["StatefulPartitionedCall/DBNet/res3a_branch2a_relu/Relu", "StatefulPartitionedCall/DBNet/padding3a_branch2b/Pad/paddings"], "attr": {"T": {"type": "DT_FLOAT"}, "Tpaddings": {"type": "DT_INT32"}}}, {"name": "StatefulPartitionedCall/DBNet/bn3a_branch2b/FusedBatchNormV3", "op": "_FusedConv2D", "input": ["StatefulPartitionedCall/DBNet/padding3a_branch2b/Pad", "StatefulPartitionedCall/DBNet/res3a_branch2b/Conv2D_weights", "StatefulPartitionedCall/DBNet/res3a_branch2b/Conv2D_bn_offset"], "device": "/device:CPU:0", "attr": {"T": {"type": "DT_FLOAT"}, "epsilon": {"f": 0.0}, "dilations": {"list": {"i": ["1", "1", "1", "1"]}}, "fused_ops": {"list": {"s": ["Qmlhc0FkZA=="]}}, "data_format": {"s": "TkhXQw=="}, "use_cudnn_on_gpu": {"b": true}, "num_args": {"i": "1"}, "explicit_paddings": {"list": {}}, "strides": {"list": {"i": ["1", "1", "1", "1"]}}, "padding": {"s": "VkFMSUQ="}}}, {"name": "StatefulPartitionedCall/DBNet/res3a/add", "op": "AddV2", "input": ["StatefulPartitionedCall/DBNet/bn3a_branch2b/FusedBatchNormV3", "StatefulPartitionedCall/DBNet/bn3a_branch1/FusedBatchNormV3"], "attr": {"T": {"type": "DT_FLOAT"}}}, {"name": "StatefulPartitionedCall/DBNet/res3a_relu/Relu", "op": "Relu", "input": ["StatefulPartitionedCall/DBNet/res3a/add"], "attr": {"T": {"type": "DT_FLOAT"}}}, {"name": "StatefulPartitionedCall/DBNet/padding3b1_branch2a/Pad", "op": "Pad", "input": ["StatefulPartitionedCall/DBNet/res3a_relu/Relu", "StatefulPartitionedCall/DBNet/padding3b1_branch2a/Pad/paddings"], "attr": {"Tpaddings": {"type": "DT_INT32"}, "T": {"type": "DT_FLOAT"}}}, {"name": "StatefulPartitionedCall/DBNet/res3b1_branch2a_relu/Relu", "op": "_FusedConv2D", "input": ["StatefulPartitionedCall/DBNet/padding3b1_branch2a/Pad", "StatefulPartitionedCall/DBNet/res3b1_branch2a/Conv2D_weights", "StatefulPartitionedCall/DBNet/res3b1_branch2a/Conv2D_bn_offset"], "device": "/device:CPU:0", "attr": {"explicit_paddings": {"list": {}}, "padding": {"s": "VkFMSUQ="}, "epsilon": {"f": 0.0}, "data_format": {"s": "TkhXQw=="}, "fused_ops": {"list": {"s": ["Qmlhc0FkZA==", "UmVsdQ=="]}}, "num_args": {"i": "1"}, "T": {"type": "DT_FLOAT"}, "use_cudnn_on_gpu": {"b": true}, "dilations": {"list": {"i": ["1", "1", "1", "1"]}}, "strides": {"list": {"i": ["1", "1", "1", "1"]}}}}, {"name": "StatefulPartitionedCall/DBNet/padding3b1_branch2b/Pad", "op": "Pad", "input": ["StatefulPartitionedCall/DBNet/res3b1_branch2a_relu/Relu", "StatefulPartitionedCall/DBNet/padding3b1_branch2b/Pad/paddings"], "attr": {"T": {"type": "DT_FLOAT"}, "Tpaddings": {"type": "DT_INT32"}}}, {"name": "StatefulPartitionedCall/DBNet/bn3b1_branch2b/FusedBatchNormV3", "op": "_FusedConv2D", "input": ["StatefulPartitionedCall/DBNet/padding3b1_branch2b/Pad", "StatefulPartitionedCall/DBNet/res3b1_branch2b/Conv2D_weights", "StatefulPartitionedCall/DBNet/res3b1_branch2b/Conv2D_bn_offset"], "device": "/device:CPU:0", "attr": {"padding": {"s": "VkFMSUQ="}, "epsilon": {"f": 0.0}, "num_args": {"i": "1"}, "T": {"type": "DT_FLOAT"}, "explicit_paddings": {"list": {}}, "dilations": {"list": {"i": ["1", "1", "1", "1"]}}, "use_cudnn_on_gpu": {"b": true}, "fused_ops": {"list": {"s": ["Qmlhc0FkZA=="]}}, "strides": {"list": {"i": ["1", "1", "1", "1"]}}, "data_format": {"s": "TkhXQw=="}}}, {"name": "StatefulPartitionedCall/DBNet/res3b1/add", "op": "AddV2", "input": ["StatefulPartitionedCall/DBNet/bn3b1_branch2b/FusedBatchNormV3", "StatefulPartitionedCall/DBNet/res3a_relu/Relu"], "attr": {"T": {"type": "DT_FLOAT"}}}, {"name": "StatefulPartitionedCall/DBNet/res3b1_relu/Relu", "op": "Relu", "input": ["StatefulPartitionedCall/DBNet/res3b1/add"], "attr": {"T": {"type": "DT_FLOAT"}}}, {"name": "StatefulPartitionedCall/DBNet/padding4a_branch2a/Pad", "op": "Pad", "input": ["StatefulPartitionedCall/DBNet/res3b1_relu/Relu", "StatefulPartitionedCall/DBNet/padding4a_branch2a/Pad/paddings"], "attr": {"Tpaddings": {"type": "DT_INT32"}, "T": {"type": "DT_FLOAT"}}}, {"name": "StatefulPartitionedCall/DBNet/bn4a_branch1/FusedBatchNormV3", "op": "_FusedConv2D", "input": ["StatefulPartitionedCall/DBNet/res3b1_relu/Relu", "StatefulPartitionedCall/DBNet/res4a_branch1/Conv2D_weights", "StatefulPartitionedCall/DBNet/res4a_branch1/Conv2D_bn_offset"], "device": "/device:CPU:0", "attr": {"num_args": {"i": "1"}, "data_format": {"s": "TkhXQw=="}, "explicit_paddings": {"list": {}}, "dilations": {"list": {"i": ["1", "1", "1", "1"]}}, "fused_ops": {"list": {"s": ["Qmlhc0FkZA=="]}}, "strides": {"list": {"i": ["1", "2", "2", "1"]}}, "epsilon": {"f": 0.0}, "use_cudnn_on_gpu": {"b": true}, "padding": {"s": "VkFMSUQ="}, "T": {"type": "DT_FLOAT"}}}, {"name": "StatefulPartitionedCall/DBNet/in3/re_lu_21/Relu", "op": "_FusedConv2D", "input": ["StatefulPartitionedCall/DBNet/res3b1_relu/Relu", "StatefulPartitionedCall/DBNet/in3/conv2d_19/Conv2D_weights", "StatefulPartitionedCall/DBNet/in3/conv2d_19/Conv2D_bn_offset"], "device": "/device:CPU:0", "attr": {"data_format": {"s": "TkhXQw=="}, "use_cudnn_on_gpu": {"b": true}, "epsilon": {"f": 0.0}, "explicit_paddings": {"list": {}}, "fused_ops": {"list": {"s": ["Qmlhc0FkZA==", "UmVsdQ=="]}}, "dilations": {"list": {"i": ["1", "1", "1", "1"]}}, "strides": {"list": {"i": ["1", "1", "1", "1"]}}, "T": {"type": "DT_FLOAT"}, "num_args": {"i": "1"}, "padding": {"s": "U0FNRQ=="}}}, {"name": "StatefulPartitionedCall/DBNet/res4a_branch2a_relu/Relu", "op": "_FusedConv2D", "input": ["StatefulPartitionedCall/DBNet/padding4a_branch2a/Pad", "StatefulPartitionedCall/DBNet/res4a_branch2a/Conv2D_weights", "StatefulPartitionedCall/DBNet/res4a_branch2a/Conv2D_bn_offset"], "device": "/device:CPU:0", "attr": {"epsilon": {"f": 0.0}, "data_format": {"s": "TkhXQw=="}, "explicit_paddings": {"list": {}}, "num_args": {"i": "1"}, "fused_ops": {"list": {"s": ["Qmlhc0FkZA==", "UmVsdQ=="]}}, "T": {"type": "DT_FLOAT"}, "dilations": {"list": {"i": ["1", "1", "1", "1"]}}, "use_cudnn_on_gpu": {"b": true}, "padding": {"s": "VkFMSUQ="}, "strides": {"list": {"i": ["1", "2", "2", "1"]}}}}, {"name": "StatefulPartitionedCall/DBNet/padding4a_branch2b/Pad", "op": "Pad", "input": ["StatefulPartitionedCall/DBNet/res4a_branch2a_relu/Relu", "StatefulPartitionedCall/DBNet/padding4a_branch2b/Pad/paddings"], "attr": {"T": {"type": "DT_FLOAT"}, "Tpaddings": {"type": "DT_INT32"}}}, {"name": "StatefulPartitionedCall/DBNet/bn4a_branch2b/FusedBatchNormV3", "op": "_FusedConv2D", "input": ["StatefulPartitionedCall/DBNet/padding4a_branch2b/Pad", "StatefulPartitionedCall/DBNet/res4a_branch2b/Conv2D_weights", "StatefulPartitionedCall/DBNet/res4a_branch2b/Conv2D_bn_offset"], "device": "/device:CPU:0", "attr": {"data_format": {"s": "TkhXQw=="}, "T": {"type": "DT_FLOAT"}, "use_cudnn_on_gpu": {"b": true}, "dilations": {"list": {"i": ["1", "1", "1", "1"]}}, "padding": {"s": "VkFMSUQ="}, "explicit_paddings": {"list": {}}, "epsilon": {"f": 0.0}, "fused_ops": {"list": {"s": ["Qmlhc0FkZA=="]}}, "num_args": {"i": "1"}, "strides": {"list": {"i": ["1", "1", "1", "1"]}}}}, {"name": "StatefulPartitionedCall/DBNet/res4a/add", "op": "AddV2", "input": ["StatefulPartitionedCall/DBNet/bn4a_branch2b/FusedBatchNormV3", "StatefulPartitionedCall/DBNet/bn4a_branch1/FusedBatchNormV3"], "attr": {"T": {"type": "DT_FLOAT"}}}, {"name": "StatefulPartitionedCall/DBNet/res4a_relu/Relu", "op": "Relu", "input": ["StatefulPartitionedCall/DBNet/res4a/add"], "attr": {"T": {"type": "DT_FLOAT"}}}, {"name": "StatefulPartitionedCall/DBNet/padding4b1_branch2a/Pad", "op": "Pad", "input": ["StatefulPartitionedCall/DBNet/res4a_relu/Relu", "StatefulPartitionedCall/DBNet/padding4b1_branch2a/Pad/paddings"], "attr": {"Tpaddings": {"type": "DT_INT32"}, "T": {"type": "DT_FLOAT"}}}, {"name": "StatefulPartitionedCall/DBNet/res4b1_branch2a_relu/Relu", "op": "_FusedConv2D", "input": ["StatefulPartitionedCall/DBNet/padding4b1_branch2a/Pad", "StatefulPartitionedCall/DBNet/res4b1_branch2a/Conv2D_weights", "StatefulPartitionedCall/DBNet/res4b1_branch2a/Conv2D_bn_offset"], "device": "/device:CPU:0", "attr": {"padding": {"s": "VkFMSUQ="}, "epsilon": {"f": 0.0}, "use_cudnn_on_gpu": {"b": true}, "fused_ops": {"list": {"s": ["Qmlhc0FkZA==", "UmVsdQ=="]}}, "data_format": {"s": "TkhXQw=="}, "T": {"type": "DT_FLOAT"}, "explicit_paddings": {"list": {}}, "strides": {"list": {"i": ["1", "1", "1", "1"]}}, "dilations": {"list": {"i": ["1", "1", "1", "1"]}}, "num_args": {"i": "1"}}}, {"name": "StatefulPartitionedCall/DBNet/padding4b1_branch2b/Pad", "op": "Pad", "input": ["StatefulPartitionedCall/DBNet/res4b1_branch2a_relu/Relu", "StatefulPartitionedCall/DBNet/padding4b1_branch2b/Pad/paddings"], "attr": {"Tpaddings": {"type": "DT_INT32"}, "T": {"type": "DT_FLOAT"}}}, {"name": "StatefulPartitionedCall/DBNet/bn4b1_branch2b/FusedBatchNormV3", "op": "_FusedConv2D", "input": ["StatefulPartitionedCall/DBNet/padding4b1_branch2b/Pad", "StatefulPartitionedCall/DBNet/res4b1_branch2b/Conv2D_weights", "StatefulPartitionedCall/DBNet/res4b1_branch2b/Conv2D_bn_offset"], "device": "/device:CPU:0", "attr": {"T": {"type": "DT_FLOAT"}, "num_args": {"i": "1"}, "data_format": {"s": "TkhXQw=="}, "epsilon": {"f": 0.0}, "use_cudnn_on_gpu": {"b": true}, "fused_ops": {"list": {"s": ["Qmlhc0FkZA=="]}}, "dilations": {"list": {"i": ["1", "1", "1", "1"]}}, "explicit_paddings": {"list": {}}, "padding": {"s": "VkFMSUQ="}, "strides": {"list": {"i": ["1", "1", "1", "1"]}}}}, {"name": "StatefulPartitionedCall/DBNet/res4b1/add", "op": "AddV2", "input": ["StatefulPartitionedCall/DBNet/bn4b1_branch2b/FusedBatchNormV3", "StatefulPartitionedCall/DBNet/res4a_relu/Relu"], "attr": {"T": {"type": "DT_FLOAT"}}}, {"name": "StatefulPartitionedCall/DBNet/res4b1_relu/Relu", "op": "Relu", "input": ["StatefulPartitionedCall/DBNet/res4b1/add"], "attr": {"T": {"type": "DT_FLOAT"}}}, {"name": "StatefulPartitionedCall/DBNet/padding5a_branch2a/Pad", "op": "Pad", "input": ["StatefulPartitionedCall/DBNet/res4b1_relu/Relu", "StatefulPartitionedCall/DBNet/padding5a_branch2a/Pad/paddings"], "attr": {"T": {"type": "DT_FLOAT"}, "Tpaddings": {"type": "DT_INT32"}}}, {"name": "StatefulPartitionedCall/DBNet/bn5a_branch1/FusedBatchNormV3", "op": "_FusedConv2D", "input": ["StatefulPartitionedCall/DBNet/res4b1_relu/Relu", "StatefulPartitionedCall/DBNet/res5a_branch1/Conv2D_weights", "StatefulPartitionedCall/DBNet/res5a_branch1/Conv2D_bn_offset"], "device": "/device:CPU:0", "attr": {"padding": {"s": "VkFMSUQ="}, "data_format": {"s": "TkhXQw=="}, "strides": {"list": {"i": ["1", "2", "2", "1"]}}, "num_args": {"i": "1"}, "explicit_paddings": {"list": {}}, "T": {"type": "DT_FLOAT"}, "use_cudnn_on_gpu": {"b": true}, "dilations": {"list": {"i": ["1", "1", "1", "1"]}}, "epsilon": {"f": 0.0}, "fused_ops": {"list": {"s": ["Qmlhc0FkZA=="]}}}}, {"name": "StatefulPartitionedCall/DBNet/in4/re_lu_22/Relu", "op": "_FusedConv2D", "input": ["StatefulPartitionedCall/DBNet/res4b1_relu/Relu", "StatefulPartitionedCall/DBNet/in4/conv2d_20/Conv2D_weights", "StatefulPartitionedCall/DBNet/in4/conv2d_20/Conv2D_bn_offset"], "device": "/device:CPU:0", "attr": {"data_format": {"s": "TkhXQw=="}, "epsilon": {"f": 0.0}, "strides": {"list": {"i": ["1", "1", "1", "1"]}}, "padding": {"s": "U0FNRQ=="}, "fused_ops": {"list": {"s": ["Qmlhc0FkZA==", "UmVsdQ=="]}}, "T": {"type": "DT_FLOAT"}, "dilations": {"list": {"i": ["1", "1", "1", "1"]}}, "num_args": {"i": "1"}, "explicit_paddings": {"list": {}}, "use_cudnn_on_gpu": {"b": true}}}, {"name": "StatefulPartitionedCall/DBNet/res5a_branch2a_relu/Relu", "op": "_FusedConv2D", "input": ["StatefulPartitionedCall/DBNet/padding5a_branch2a/Pad", "StatefulPartitionedCall/DBNet/res5a_branch2a/Conv2D_weights", "StatefulPartitionedCall/DBNet/res5a_branch2a/Conv2D_bn_offset"], "device": "/device:CPU:0", "attr": {"fused_ops": {"list": {"s": ["Qmlhc0FkZA==", "UmVsdQ=="]}}, "dilations": {"list": {"i": ["1", "1", "1", "1"]}}, "data_format": {"s": "TkhXQw=="}, "T": {"type": "DT_FLOAT"}, "padding": {"s": "VkFMSUQ="}, "num_args": {"i": "1"}, "explicit_paddings": {"list": {}}, "epsilon": {"f": 0.0}, "use_cudnn_on_gpu": {"b": true}, "strides": {"list": {"i": ["1", "2", "2", "1"]}}}}, {"name": "StatefulPartitionedCall/DBNet/padding5a_branch2b/Pad", "op": "Pad", "input": ["StatefulPartitionedCall/DBNet/res5a_branch2a_relu/Relu", "StatefulPartitionedCall/DBNet/padding5a_branch2b/Pad/paddings"], "attr": {"T": {"type": "DT_FLOAT"}, "Tpaddings": {"type": "DT_INT32"}}}, {"name": "StatefulPartitionedCall/DBNet/bn5a_branch2b/FusedBatchNormV3", "op": "_FusedConv2D", "input": ["StatefulPartitionedCall/DBNet/padding5a_branch2b/Pad", "StatefulPartitionedCall/DBNet/res5a_branch2b/Conv2D_weights", "StatefulPartitionedCall/DBNet/res5a_branch2b/Conv2D_bn_offset"], "device": "/device:CPU:0", "attr": {"T": {"type": "DT_FLOAT"}, "dilations": {"list": {"i": ["1", "1", "1", "1"]}}, "epsilon": {"f": 0.0}, "fused_ops": {"list": {"s": ["Qmlhc0FkZA=="]}}, "use_cudnn_on_gpu": {"b": true}, "num_args": {"i": "1"}, "explicit_paddings": {"list": {}}, "data_format": {"s": "TkhXQw=="}, "padding": {"s": "VkFMSUQ="}, "strides": {"list": {"i": ["1", "1", "1", "1"]}}}}, {"name": "StatefulPartitionedCall/DBNet/res5a/add", "op": "AddV2", "input": ["StatefulPartitionedCall/DBNet/bn5a_branch2b/FusedBatchNormV3", "StatefulPartitionedCall/DBNet/bn5a_branch1/FusedBatchNormV3"], "attr": {"T": {"type": "DT_FLOAT"}}}, {"name": "StatefulPartitionedCall/DBNet/res5a_relu/Relu", "op": "Relu", "input": ["StatefulPartitionedCall/DBNet/res5a/add"], "attr": {"T": {"type": "DT_FLOAT"}}}, {"name": "StatefulPartitionedCall/DBNet/padding5b1_branch2a/Pad", "op": "Pad", "input": ["StatefulPartitionedCall/DBNet/res5a_relu/Relu", "StatefulPartitionedCall/DBNet/padding5b1_branch2a/Pad/paddings"], "attr": {"T": {"type": "DT_FLOAT"}, "Tpaddings": {"type": "DT_INT32"}}}, {"name": "StatefulPartitionedCall/DBNet/res5b1_branch2a_relu/Relu", "op": "_FusedConv2D", "input": ["StatefulPartitionedCall/DBNet/padding5b1_branch2a/Pad", "StatefulPartitionedCall/DBNet/res5b1_branch2a/Conv2D_weights", "StatefulPartitionedCall/DBNet/res5b1_branch2a/Conv2D_bn_offset"], "device": "/device:CPU:0", "attr": {"epsilon": {"f": 0.0}, "data_format": {"s": "TkhXQw=="}, "use_cudnn_on_gpu": {"b": true}, "dilations": {"list": {"i": ["1", "1", "1", "1"]}}, "num_args": {"i": "1"}, "strides": {"list": {"i": ["1", "1", "1", "1"]}}, "padding": {"s": "VkFMSUQ="}, "T": {"type": "DT_FLOAT"}, "fused_ops": {"list": {"s": ["Qmlhc0FkZA==", "UmVsdQ=="]}}, "explicit_paddings": {"list": {}}}}, {"name": "StatefulPartitionedCall/DBNet/padding5b1_branch2b/Pad", "op": "Pad", "input": ["StatefulPartitionedCall/DBNet/res5b1_branch2a_relu/Relu", "StatefulPartitionedCall/DBNet/padding5b1_branch2b/Pad/paddings"], "attr": {"T": {"type": "DT_FLOAT"}, "Tpaddings": {"type": "DT_INT32"}}}, {"name": "StatefulPartitionedCall/DBNet/bn5b1_branch2b/FusedBatchNormV3", "op": "_FusedConv2D", "input": ["StatefulPartitionedCall/DBNet/padding5b1_branch2b/Pad", "StatefulPartitionedCall/DBNet/res5b1_branch2b/Conv2D_weights", "StatefulPartitionedCall/DBNet/res5b1_branch2b/Conv2D_bn_offset"], "device": "/device:CPU:0", "attr": {"padding": {"s": "VkFMSUQ="}, "fused_ops": {"list": {"s": ["Qmlhc0FkZA=="]}}, "num_args": {"i": "1"}, "dilations": {"list": {"i": ["1", "1", "1", "1"]}}, "T": {"type": "DT_FLOAT"}, "strides": {"list": {"i": ["1", "1", "1", "1"]}}, "use_cudnn_on_gpu": {"b": true}, "epsilon": {"f": 0.0}, "data_format": {"s": "TkhXQw=="}, "explicit_paddings": {"list": {}}}}, {"name": "StatefulPartitionedCall/DBNet/res5b1/add", "op": "AddV2", "input": ["StatefulPartitionedCall/DBNet/bn5b1_branch2b/FusedBatchNormV3", "StatefulPartitionedCall/DBNet/res5a_relu/Relu"], "attr": {"T": {"type": "DT_FLOAT"}}}, {"name": "StatefulPartitionedCall/DBNet/res5b1_relu/Relu", "op": "Relu", "input": ["StatefulPartitionedCall/DBNet/res5b1/add"], "attr": {"T": {"type": "DT_FLOAT"}}}, {"name": "StatefulPartitionedCall/DBNet/in5/re_lu_23/Relu", "op": "_FusedConv2D", "input": ["StatefulPartitionedCall/DBNet/res5b1_relu/Relu", "StatefulPartitionedCall/DBNet/in5/conv2d_21/Conv2D_weights", "StatefulPartitionedCall/DBNet/in5/conv2d_21/Conv2D_bn_offset"], "device": "/device:CPU:0", "attr": {"epsilon": {"f": 0.0}, "use_cudnn_on_gpu": {"b": true}, "data_format": {"s": "TkhXQw=="}, "explicit_paddings": {"list": {}}, "num_args": {"i": "1"}, "padding": {"s": "U0FNRQ=="}, "fused_ops": {"list": {"s": ["Qmlhc0FkZA==", "UmVsdQ=="]}}, "dilations": {"list": {"i": ["1", "1", "1", "1"]}}, "T": {"type": "DT_FLOAT"}, "strides": {"list": {"i": ["1", "1", "1", "1"]}}}}, {"name": "StatefulPartitionedCall/DBNet/up5/Shape", "op": "Shape", "input": ["StatefulPartitionedCall/DBNet/in5/re_lu_23/Relu"], "attr": {"out_type": {"type": "DT_INT32"}, "T": {"type": "DT_FLOAT"}}}, {"name": "StatefulPartitionedCall/DBNet/P5/ConvBnRelu/re_lu_24/Relu", "op": "_FusedConv2D", "input": ["StatefulPartitionedCall/DBNet/in5/re_lu_23/Relu", "StatefulPartitionedCall/DBNet/P5/ConvBnRelu/conv2d_22/Conv2D_weights", "StatefulPartitionedCall/DBNet/P5/ConvBnRelu/conv2d_22/Conv2D_bn_offset"], "device": "/device:CPU:0", "attr": {"fused_ops": {"list": {"s": ["Qmlhc0FkZA==", "UmVsdQ=="]}}, "T": {"type": "DT_FLOAT"}, "data_format": {"s": "TkhXQw=="}, "num_args": {"i": "1"}, "use_cudnn_on_gpu": {"b": true}, "epsilon": {"f": 0.0}, "strides": {"list": {"i": ["1", "1", "1", "1"]}}, "dilations": {"list": {"i": ["1", "1", "1", "1"]}}, "explicit_paddings": {"list": {}}, "padding": {"s": "U0FNRQ=="}}}, {"name": "StatefulPartitionedCall/DBNet/up5/strided_slice", "op": "StridedSlice", "input": ["StatefulPartitionedCall/DBNet/up5/Shape", "StatefulPartitionedCall/DBNet/up5/strided_slice/stack", "StatefulPartitionedCall/DBNet/up5/strided_slice/stack_1", "StatefulPartitionedCall/DBNet/up5/strided_slice/stack_2"], "attr": {"Index": {"type": "DT_INT32"}, "shrink_axis_mask": {"i": "0"}, "end_mask": {"i": "0"}, "begin_mask": {"i": "0"}, "new_axis_mask": {"i": "0"}, "T": {"type": "DT_INT32"}, "ellipsis_mask": {"i": "0"}}}, {"name": "StatefulPartitionedCall/DBNet/P5/up_sampling2d_3/Shape", "op": "Shape", "input": ["StatefulPartitionedCall/DBNet/P5/ConvBnRelu/re_lu_24/Relu"], "attr": {"out_type": {"type": "DT_INT32"}, "T": {"type": "DT_FLOAT"}}}, {"name": "StatefulPartitionedCall/DBNet/up5/mul", "op": "Mul", "input": ["StatefulPartitionedCall/DBNet/up5/strided_slice", "StatefulPartitionedCall/DBNet/up5/Const"], "attr": {"T": {"type": "DT_INT32"}}}, {"name": "StatefulPartitionedCall/DBNet/P5/up_sampling2d_3/strided_slice", "op": "StridedSlice", "input": ["StatefulPartitionedCall/DBNet/P5/up_sampling2d_3/Shape", "StatefulPartitionedCall/DBNet/P5/up_sampling2d_3/strided_slice/stack", "StatefulPartitionedCall/DBNet/P5/up_sampling2d_3/strided_slice/stack_1", "StatefulPartitionedCall/DBNet/P5/up_sampling2d_3/strided_slice/stack_2"], "attr": {"T": {"type": "DT_INT32"}, "begin_mask": {"i": "0"}, "new_axis_mask": {"i": "0"}, "Index": {"type": "DT_INT32"}, "end_mask": {"i": "0"}, "shrink_axis_mask": {"i": "0"}, "ellipsis_mask": {"i": "0"}}}, {"name": "StatefulPartitionedCall/DBNet/up5/resize/ResizeNearestNeighbor", "op": "ResizeNearestNeighbor", "input": ["StatefulPartitionedCall/DBNet/in5/re_lu_23/Relu", "StatefulPartitionedCall/DBNet/up5/mul"], "attr": {"align_corners": {"b": false}, "T": {"type": "DT_FLOAT"}, "half_pixel_centers": {"b": true}}}, {"name": "StatefulPartitionedCall/DBNet/P5/up_sampling2d_3/mul", "op": "Mul", "input": ["StatefulPartitionedCall/DBNet/P5/up_sampling2d_3/strided_slice", "StatefulPartitionedCall/DBNet/P5/up_sampling2d_3/Const"], "attr": {"T": {"type": "DT_INT32"}}}, {"name": "StatefulPartitionedCall/DBNet/add_out4/add", "op": "AddV2", "input": ["StatefulPartitionedCall/DBNet/up5/resize/ResizeNearestNeighbor", "StatefulPartitionedCall/DBNet/in4/re_lu_22/Relu"], "attr": {"T": {"type": "DT_FLOAT"}}}, {"name": "StatefulPartitionedCall/DBNet/P5/up_sampling2d_3/resize/ResizeNearestNeighbor", "op": "ResizeNearestNeighbor", "input": ["StatefulPartitionedCall/DBNet/P5/ConvBnRelu/re_lu_24/Relu", "StatefulPartitionedCall/DBNet/P5/up_sampling2d_3/mul"], "attr": {"align_corners": {"b": false}, "T": {"type": "DT_FLOAT"}, "half_pixel_centers": {"b": true}}}, {"name": "StatefulPartitionedCall/DBNet/up4/Shape", "op": "Shape", "input": ["StatefulPartitionedCall/DBNet/add_out4/add"], "attr": {"out_type": {"type": "DT_INT32"}, "T": {"type": "DT_FLOAT"}}}, {"name": "StatefulPartitionedCall/DBNet/P4/ConvBnRelu/re_lu_25/Relu", "op": "_FusedConv2D", "input": ["StatefulPartitionedCall/DBNet/add_out4/add", "StatefulPartitionedCall/DBNet/P4/ConvBnRelu/conv2d_23/Conv2D_weights", "StatefulPartitionedCall/DBNet/P4/ConvBnRelu/conv2d_23/Conv2D_bn_offset"], "device": "/device:CPU:0", "attr": {"data_format": {"s": "TkhXQw=="}, "use_cudnn_on_gpu": {"b": true}, "strides": {"list": {"i": ["1", "1", "1", "1"]}}, "epsilon": {"f": 0.0}, "num_args": {"i": "1"}, "T": {"type": "DT_FLOAT"}, "explicit_paddings": {"list": {}}, "dilations": {"list": {"i": ["1", "1", "1", "1"]}}, "padding": {"s": "U0FNRQ=="}, "fused_ops": {"list": {"s": ["Qmlhc0FkZA==", "UmVsdQ=="]}}}}, {"name": "StatefulPartitionedCall/DBNet/up4/strided_slice", "op": "StridedSlice", "input": ["StatefulPartitionedCall/DBNet/up4/Shape", "StatefulPartitionedCall/DBNet/up4/strided_slice/stack", "StatefulPartitionedCall/DBNet/up4/strided_slice/stack_1", "StatefulPartitionedCall/DBNet/up4/strided_slice/stack_2"], "attr": {"end_mask": {"i": "0"}, "shrink_axis_mask": {"i": "0"}, "Index": {"type": "DT_INT32"}, "new_axis_mask": {"i": "0"}, "ellipsis_mask": {"i": "0"}, "begin_mask": {"i": "0"}, "T": {"type": "DT_INT32"}}}, {"name": "StatefulPartitionedCall/DBNet/P4/up_sampling2d_4/Shape", "op": "Shape", "input": ["StatefulPartitionedCall/DBNet/P4/ConvBnRelu/re_lu_25/Relu"], "attr": {"out_type": {"type": "DT_INT32"}, "T": {"type": "DT_FLOAT"}}}, {"name": "StatefulPartitionedCall/DBNet/up4/mul", "op": "Mul", "input": ["StatefulPartitionedCall/DBNet/up4/strided_slice", "StatefulPartitionedCall/DBNet/up4/Const"], "attr": {"T": {"type": "DT_INT32"}}}, {"name": "StatefulPartitionedCall/DBNet/P4/up_sampling2d_4/strided_slice", "op": "StridedSlice", "input": ["StatefulPartitionedCall/DBNet/P4/up_sampling2d_4/Shape", "StatefulPartitionedCall/DBNet/P4/up_sampling2d_4/strided_slice/stack", "StatefulPartitionedCall/DBNet/P4/up_sampling2d_4/strided_slice/stack_1", "StatefulPartitionedCall/DBNet/P4/up_sampling2d_4/strided_slice/stack_2"], "attr": {"shrink_axis_mask": {"i": "0"}, "begin_mask": {"i": "0"}, "ellipsis_mask": {"i": "0"}, "new_axis_mask": {"i": "0"}, "Index": {"type": "DT_INT32"}, "T": {"type": "DT_INT32"}, "end_mask": {"i": "0"}}}, {"name": "StatefulPartitionedCall/DBNet/up4/resize/ResizeNearestNeighbor", "op": "ResizeNearestNeighbor", "input": ["StatefulPartitionedCall/DBNet/add_out4/add", "StatefulPartitionedCall/DBNet/up4/mul"], "attr": {"half_pixel_centers": {"b": true}, "align_corners": {"b": false}, "T": {"type": "DT_FLOAT"}}}, {"name": "StatefulPartitionedCall/DBNet/P4/up_sampling2d_4/mul", "op": "Mul", "input": ["StatefulPartitionedCall/DBNet/P4/up_sampling2d_4/strided_slice", "StatefulPartitionedCall/DBNet/P4/up_sampling2d_4/Const"], "attr": {"T": {"type": "DT_INT32"}}}, {"name": "StatefulPartitionedCall/DBNet/add_out3/add", "op": "AddV2", "input": ["StatefulPartitionedCall/DBNet/up4/resize/ResizeNearestNeighbor", "StatefulPartitionedCall/DBNet/in3/re_lu_21/Relu"], "attr": {"T": {"type": "DT_FLOAT"}}}, {"name": "StatefulPartitionedCall/DBNet/P4/up_sampling2d_4/resize/ResizeNearestNeighbor", "op": "ResizeNearestNeighbor", "input": ["StatefulPartitionedCall/DBNet/P4/ConvBnRelu/re_lu_25/Relu", "StatefulPartitionedCall/DBNet/P4/up_sampling2d_4/mul"], "attr": {"align_corners": {"b": false}, "half_pixel_centers": {"b": true}, "T": {"type": "DT_FLOAT"}}}, {"name": "StatefulPartitionedCall/DBNet/up3/Shape", "op": "Shape", "input": ["StatefulPartitionedCall/DBNet/add_out3/add"], "attr": {"out_type": {"type": "DT_INT32"}, "T": {"type": "DT_FLOAT"}}}, {"name": "StatefulPartitionedCall/DBNet/P3/ConvBnRelu/re_lu_26/Relu", "op": "_FusedConv2D", "input": ["StatefulPartitionedCall/DBNet/add_out3/add", "StatefulPartitionedCall/DBNet/P3/ConvBnRelu/conv2d_24/Conv2D_weights", "StatefulPartitionedCall/DBNet/P3/ConvBnRelu/conv2d_24/Conv2D_bn_offset"], "device": "/device:CPU:0", "attr": {"strides": {"list": {"i": ["1", "1", "1", "1"]}}, "fused_ops": {"list": {"s": ["Qmlhc0FkZA==", "UmVsdQ=="]}}, "dilations": {"list": {"i": ["1", "1", "1", "1"]}}, "num_args": {"i": "1"}, "use_cudnn_on_gpu": {"b": true}, "T": {"type": "DT_FLOAT"}, "explicit_paddings": {"list": {}}, "padding": {"s": "U0FNRQ=="}, "epsilon": {"f": 0.0}, "data_format": {"s": "TkhXQw=="}}}, {"name": "StatefulPartitionedCall/DBNet/up3/strided_slice", "op": "StridedSlice", "input": ["StatefulPartitionedCall/DBNet/up3/Shape", "StatefulPartitionedCall/DBNet/up3/strided_slice/stack", "StatefulPartitionedCall/DBNet/up3/strided_slice/stack_1", "StatefulPartitionedCall/DBNet/up3/strided_slice/stack_2"], "attr": {"new_axis_mask": {"i": "0"}, "end_mask": {"i": "0"}, "begin_mask": {"i": "0"}, "Index": {"type": "DT_INT32"}, "T": {"type": "DT_INT32"}, "ellipsis_mask": {"i": "0"}, "shrink_axis_mask": {"i": "0"}}}, {"name": "StatefulPartitionedCall/DBNet/P3/up_sampling2d_5/Shape", "op": "Shape", "input": ["StatefulPartitionedCall/DBNet/P3/ConvBnRelu/re_lu_26/Relu"], "attr": {"out_type": {"type": "DT_INT32"}, "T": {"type": "DT_FLOAT"}}}, {"name": "StatefulPartitionedCall/DBNet/up3/mul", "op": "Mul", "input": ["StatefulPartitionedCall/DBNet/up3/strided_slice", "StatefulPartitionedCall/DBNet/up3/Const"], "attr": {"T": {"type": "DT_INT32"}}}, {"name": "StatefulPartitionedCall/DBNet/P3/up_sampling2d_5/strided_slice", "op": "StridedSlice", "input": ["StatefulPartitionedCall/DBNet/P3/up_sampling2d_5/Shape", "StatefulPartitionedCall/DBNet/P3/up_sampling2d_5/strided_slice/stack", "StatefulPartitionedCall/DBNet/P3/up_sampling2d_5/strided_slice/stack_1", "StatefulPartitionedCall/DBNet/P3/up_sampling2d_5/strided_slice/stack_2"], "attr": {"ellipsis_mask": {"i": "0"}, "T": {"type": "DT_INT32"}, "Index": {"type": "DT_INT32"}, "begin_mask": {"i": "0"}, "new_axis_mask": {"i": "0"}, "end_mask": {"i": "0"}, "shrink_axis_mask": {"i": "0"}}}, {"name": "StatefulPartitionedCall/DBNet/up3/resize/ResizeNearestNeighbor", "op": "ResizeNearestNeighbor", "input": ["StatefulPartitionedCall/DBNet/add_out3/add", "StatefulPartitionedCall/DBNet/up3/mul"], "attr": {"align_corners": {"b": false}, "half_pixel_centers": {"b": true}, "T": {"type": "DT_FLOAT"}}}, {"name": "StatefulPartitionedCall/DBNet/P3/up_sampling2d_5/mul", "op": "Mul", "input": ["StatefulPartitionedCall/DBNet/P3/up_sampling2d_5/strided_slice", "StatefulPartitionedCall/DBNet/P3/up_sampling2d_5/Const"], "attr": {"T": {"type": "DT_INT32"}}}, {"name": "StatefulPartitionedCall/DBNet/add_out2/add", "op": "AddV2", "input": ["StatefulPartitionedCall/DBNet/up3/resize/ResizeNearestNeighbor", "StatefulPartitionedCall/DBNet/in2/re_lu_20/Relu"], "attr": {"T": {"type": "DT_FLOAT"}}}, {"name": "StatefulPartitionedCall/DBNet/P3/up_sampling2d_5/resize/ResizeNearestNeighbor", "op": "ResizeNearestNeighbor", "input": ["StatefulPartitionedCall/DBNet/P3/ConvBnRelu/re_lu_26/Relu", "StatefulPartitionedCall/DBNet/P3/up_sampling2d_5/mul"], "attr": {"half_pixel_centers": {"b": true}, "align_corners": {"b": false}, "T": {"type": "DT_FLOAT"}}}, {"name": "StatefulPartitionedCall/DBNet/P2/re_lu_27/Relu", "op": "_FusedConv2D", "input": ["StatefulPartitionedCall/DBNet/add_out2/add", "StatefulPartitionedCall/DBNet/P2/conv2d_25/Conv2D_weights", "StatefulPartitionedCall/DBNet/P2/conv2d_25/Conv2D_bn_offset"], "device": "/device:CPU:0", "attr": {"T": {"type": "DT_FLOAT"}, "dilations": {"list": {"i": ["1", "1", "1", "1"]}}, "epsilon": {"f": 0.0}, "strides": {"list": {"i": ["1", "1", "1", "1"]}}, "data_format": {"s": "TkhXQw=="}, "fused_ops": {"list": {"s": ["Qmlhc0FkZA==", "UmVsdQ=="]}}, "use_cudnn_on_gpu": {"b": true}, "explicit_paddings": {"list": {}}, "padding": {"s": "U0FNRQ=="}, "num_args": {"i": "1"}}}, {"name": "StatefulPartitionedCall/DBNet/fuse/concat", "op": "ConcatV2", "input": ["StatefulPartitionedCall/DBNet/P2/re_lu_27/Relu", "StatefulPartitionedCall/DBNet/P3/up_sampling2d_5/resize/ResizeNearestNeighbor", "StatefulPartitionedCall/DBNet/P4/up_sampling2d_4/resize/ResizeNearestNeighbor", "StatefulPartitionedCall/DBNet/P5/up_sampling2d_3/resize/ResizeNearestNeighbor", "StatefulPartitionedCall/DBNet/fuse/concat/axis"], "attr": {"T": {"type": "DT_FLOAT"}, "N": {"i": "4"}, "Tidx": {"type": "DT_INT32"}}}, {"name": "StatefulPartitionedCall/DBNet/threshold_map/ConvBnRelu/re_lu_30/Relu", "op": "_FusedConv2D", "input": ["StatefulPartitionedCall/DBNet/fuse/concat", "StatefulPartitionedCall/DBNet/threshold_map/ConvBnRelu/conv2d_27/Conv2D_weights", "StatefulPartitionedCall/DBNet/threshold_map/ConvBnRelu/conv2d_27/Conv2D_bn_offset"], "device": "/device:CPU:0", "attr": {"strides": {"list": {"i": ["1", "1", "1", "1"]}}, "T": {"type": "DT_FLOAT"}, "padding": {"s": "U0FNRQ=="}, "explicit_paddings": {"list": {}}, "num_args": {"i": "1"}, "data_format": {"s": "TkhXQw=="}, "epsilon": {"f": 0.0}, "dilations": {"list": {"i": ["1", "1", "1", "1"]}}, "use_cudnn_on_gpu": {"b": true}, "fused_ops": {"list": {"s": ["Qmlhc0FkZA==", "UmVsdQ=="]}}}}, {"name": "StatefulPartitionedCall/DBNet/probability_map/ConvBnRelu/re_lu_28/Relu", "op": "_FusedConv2D", "input": ["StatefulPartitionedCall/DBNet/fuse/concat", "StatefulPartitionedCall/DBNet/probability_map/ConvBnRelu/conv2d_26/Conv2D_weights", "StatefulPartitionedCall/DBNet/probability_map/ConvBnRelu/conv2d_26/Conv2D_bn_offset"], "device": "/device:CPU:0", "attr": {"T": {"type": "DT_FLOAT"}, "strides": {"list": {"i": ["1", "1", "1", "1"]}}, "num_args": {"i": "1"}, "epsilon": {"f": 0.0}, "dilations": {"list": {"i": ["1", "1", "1", "1"]}}, "fused_ops": {"list": {"s": ["Qmlhc0FkZA==", "UmVsdQ=="]}}, "padding": {"s": "U0FNRQ=="}, "explicit_paddings": {"list": {}}, "use_cudnn_on_gpu": {"b": true}, "data_format": {"s": "TkhXQw=="}}}, {"name": "StatefulPartitionedCall/DBNet/threshold_map/conv2d_transpose_6/Shape", "op": "Shape", "input": ["StatefulPartitionedCall/DBNet/threshold_map/ConvBnRelu/re_lu_30/Relu"], "attr": {"out_type": {"type": "DT_INT32"}, "T": {"type": "DT_FLOAT"}}}, {"name": "StatefulPartitionedCall/DBNet/probability_map/conv2d_transpose_4/Shape", "op": "Shape", "input": ["StatefulPartitionedCall/DBNet/probability_map/ConvBnRelu/re_lu_28/Relu"], "attr": {"out_type": {"type": "DT_INT32"}, "T": {"type": "DT_FLOAT"}}}, {"name": "StatefulPartitionedCall/DBNet/threshold_map/conv2d_transpose_6/strided_slice", "op": "StridedSlice", "input": ["StatefulPartitionedCall/DBNet/threshold_map/conv2d_transpose_6/Shape", "StatefulPartitionedCall/DBNet/threshold_map/conv2d_transpose_6/strided_slice/stack", "StatefulPartitionedCall/DBNet/threshold_map/conv2d_transpose_6/strided_slice/stack_1", "StatefulPartitionedCall/DBNet/threshold_map/conv2d_transpose_6/strided_slice/stack_2"], "attr": {"ellipsis_mask": {"i": "0"}, "Index": {"type": "DT_INT32"}, "begin_mask": {"i": "0"}, "new_axis_mask": {"i": "0"}, "T": {"type": "DT_INT32"}, "shrink_axis_mask": {"i": "1"}, "end_mask": {"i": "0"}}}, {"name": "StatefulPartitionedCall/DBNet/threshold_map/conv2d_transpose_6/strided_slice_1", "op": "StridedSlice", "input": ["StatefulPartitionedCall/DBNet/threshold_map/conv2d_transpose_6/Shape", "StatefulPartitionedCall/DBNet/threshold_map/conv2d_transpose_6/strided_slice_1/stack", "StatefulPartitionedCall/DBNet/threshold_map/conv2d_transpose_6/strided_slice_1/stack_1", "StatefulPartitionedCall/DBNet/threshold_map/conv2d_transpose_6/strided_slice_1/stack_2"], "attr": {"shrink_axis_mask": {"i": "1"}, "end_mask": {"i": "0"}, "T": {"type": "DT_INT32"}, "Index": {"type": "DT_INT32"}, "new_axis_mask": {"i": "0"}, "begin_mask": {"i": "0"}, "ellipsis_mask": {"i": "0"}}}, {"name": "StatefulPartitionedCall/DBNet/threshold_map/conv2d_transpose_6/strided_slice_2", "op": "StridedSlice", "input": ["StatefulPartitionedCall/DBNet/threshold_map/conv2d_transpose_6/Shape", "StatefulPartitionedCall/DBNet/threshold_map/conv2d_transpose_6/strided_slice_2/stack", "StatefulPartitionedCall/DBNet/threshold_map/conv2d_transpose_6/strided_slice_2/stack_1", "StatefulPartitionedCall/DBNet/threshold_map/conv2d_transpose_6/strided_slice_2/stack_2"], "attr": {"end_mask": {"i": "0"}, "ellipsis_mask": {"i": "0"}, "shrink_axis_mask": {"i": "1"}, "Index": {"type": "DT_INT32"}, "begin_mask": {"i": "0"}, "T": {"type": "DT_INT32"}, "new_axis_mask": {"i": "0"}}}, {"name": "StatefulPartitionedCall/DBNet/probability_map/conv2d_transpose_4/strided_slice", "op": "StridedSlice", "input": ["StatefulPartitionedCall/DBNet/probability_map/conv2d_transpose_4/Shape", "StatefulPartitionedCall/DBNet/probability_map/conv2d_transpose_4/strided_slice/stack", "StatefulPartitionedCall/DBNet/probability_map/conv2d_transpose_4/strided_slice/stack_1", "StatefulPartitionedCall/DBNet/probability_map/conv2d_transpose_4/strided_slice/stack_2"], "attr": {"Index": {"type": "DT_INT32"}, "new_axis_mask": {"i": "0"}, "begin_mask": {"i": "0"}, "T": {"type": "DT_INT32"}, "shrink_axis_mask": {"i": "1"}, "end_mask": {"i": "0"}, "ellipsis_mask": {"i": "0"}}}, {"name": "StatefulPartitionedCall/DBNet/probability_map/conv2d_transpose_4/strided_slice_1", "op": "StridedSlice", "input": ["StatefulPartitionedCall/DBNet/probability_map/conv2d_transpose_4/Shape", "StatefulPartitionedCall/DBNet/probability_map/conv2d_transpose_4/strided_slice_1/stack", "StatefulPartitionedCall/DBNet/probability_map/conv2d_transpose_4/strided_slice_1/stack_1", "StatefulPartitionedCall/DBNet/probability_map/conv2d_transpose_4/strided_slice_1/stack_2"], "attr": {"begin_mask": {"i": "0"}, "shrink_axis_mask": {"i": "1"}, "T": {"type": "DT_INT32"}, "ellipsis_mask": {"i": "0"}, "Index": {"type": "DT_INT32"}, "end_mask": {"i": "0"}, "new_axis_mask": {"i": "0"}}}, {"name": "StatefulPartitionedCall/DBNet/probability_map/conv2d_transpose_4/strided_slice_2", "op": "StridedSlice", "input": ["StatefulPartitionedCall/DBNet/probability_map/conv2d_transpose_4/Shape", "StatefulPartitionedCall/DBNet/probability_map/conv2d_transpose_4/strided_slice_2/stack", "StatefulPartitionedCall/DBNet/probability_map/conv2d_transpose_4/strided_slice_2/stack_1", "StatefulPartitionedCall/DBNet/probability_map/conv2d_transpose_4/strided_slice_2/stack_2"], "attr": {"Index": {"type": "DT_INT32"}, "begin_mask": {"i": "0"}, "new_axis_mask": {"i": "0"}, "T": {"type": "DT_INT32"}, "shrink_axis_mask": {"i": "1"}, "ellipsis_mask": {"i": "0"}, "end_mask": {"i": "0"}}}, {"name": "StatefulPartitionedCall/DBNet/threshold_map/conv2d_transpose_6/mul", "op": "Mul", "input": ["StatefulPartitionedCall/DBNet/threshold_map/conv2d_transpose_6/strided_slice_1", "StatefulPartitionedCall/DBNet/threshold_map/conv2d_transpose_6/mul/y"], "attr": {"T": {"type": "DT_INT32"}}}, {"name": "StatefulPartitionedCall/DBNet/threshold_map/conv2d_transpose_6/mul_1", "op": "Mul", "input": ["StatefulPartitionedCall/DBNet/threshold_map/conv2d_transpose_6/strided_slice_2", "StatefulPartitionedCall/DBNet/threshold_map/conv2d_transpose_6/mul_1/y"], "attr": {"T": {"type": "DT_INT32"}}}, {"name": "StatefulPartitionedCall/DBNet/probability_map/conv2d_transpose_4/mul", "op": "Mul", "input": ["StatefulPartitionedCall/DBNet/probability_map/conv2d_transpose_4/strided_slice_1", "StatefulPartitionedCall/DBNet/probability_map/conv2d_transpose_4/mul/y"], "attr": {"T": {"type": "DT_INT32"}}}, {"name": "StatefulPartitionedCall/DBNet/probability_map/conv2d_transpose_4/mul_1", "op": "Mul", "input": ["StatefulPartitionedCall/DBNet/probability_map/conv2d_transpose_4/strided_slice_2", "StatefulPartitionedCall/DBNet/probability_map/conv2d_transpose_4/mul_1/y"], "attr": {"T": {"type": "DT_INT32"}}}, {"name": "StatefulPartitionedCall/DBNet/threshold_map/conv2d_transpose_6/stack", "op": "Pack", "input": ["StatefulPartitionedCall/DBNet/threshold_map/conv2d_transpose_6/strided_slice", "StatefulPartitionedCall/DBNet/threshold_map/conv2d_transpose_6/mul", "StatefulPartitionedCall/DBNet/threshold_map/conv2d_transpose_6/mul_1", "StatefulPartitionedCall/DBNet/threshold_map/conv2d_transpose_6/stack/3"], "attr": {"axis": {"i": "0"}, "T": {"type": "DT_INT32"}, "N": {"i": "4"}}}, {"name": "StatefulPartitionedCall/DBNet/probability_map/conv2d_transpose_4/stack", "op": "Pack", "input": ["StatefulPartitionedCall/DBNet/probability_map/conv2d_transpose_4/strided_slice", "StatefulPartitionedCall/DBNet/probability_map/conv2d_transpose_4/mul", "StatefulPartitionedCall/DBNet/probability_map/conv2d_transpose_4/mul_1", "StatefulPartitionedCall/DBNet/probability_map/conv2d_transpose_4/stack/3"], "attr": {"axis": {"i": "0"}, "N": {"i": "4"}, "T": {"type": "DT_INT32"}}}, {"name": "StatefulPartitionedCall/DBNet/threshold_map/conv2d_transpose_6/conv2d_transpose", "op": "Conv2DBackpropInput", "input": ["StatefulPartitionedCall/DBNet/threshold_map/conv2d_transpose_6/stack", "StatefulPartitionedCall/DBNet/threshold_map/conv2d_transpose_6/conv2d_transpose/ReadVariableOp", "StatefulPartitionedCall/DBNet/threshold_map/ConvBnRelu/re_lu_30/Relu"], "attr": {"dilations": {"list": {"i": ["1", "1", "1", "1"]}}, "data_format": {"s": "TkhXQw=="}, "use_cudnn_on_gpu": {"b": true}, "padding": {"s": "VkFMSUQ="}, "T": {"type": "DT_FLOAT"}, "explicit_paddings": {"list": {}}, "strides": {"list": {"i": ["1", "2", "2", "1"]}}}}, {"name": "StatefulPartitionedCall/DBNet/probability_map/conv2d_transpose_4/conv2d_transpose", "op": "Conv2DBackpropInput", "input": ["StatefulPartitionedCall/DBNet/probability_map/conv2d_transpose_4/stack", "StatefulPartitionedCall/DBNet/probability_map/conv2d_transpose_4/conv2d_transpose/ReadVariableOp", "StatefulPartitionedCall/DBNet/probability_map/ConvBnRelu/re_lu_28/Relu"], "attr": {"use_cudnn_on_gpu": {"b": true}, "padding": {"s": "VkFMSUQ="}, "data_format": {"s": "TkhXQw=="}, "explicit_paddings": {"list": {}}, "strides": {"list": {"i": ["1", "2", "2", "1"]}}, "T": {"type": "DT_FLOAT"}, "dilations": {"list": {"i": ["1", "1", "1", "1"]}}}}, {"name": "StatefulPartitionedCall/DBNet/threshold_map/batch_normalization_31/FusedBatchNormV3/Mul", "op": "Mul", "input": ["StatefulPartitionedCall/DBNet/threshold_map/conv2d_transpose_6/conv2d_transpose", "StatefulPartitionedCall/DBNet/threshold_map/batch_normalization_31/FusedBatchNormV3/Scaled"], "attr": {"T": {"type": "DT_FLOAT"}}}, {"name": "StatefulPartitionedCall/DBNet/probability_map/batch_normalization_29/FusedBatchNormV3/Mul", "op": "Mul", "input": ["StatefulPartitionedCall/DBNet/probability_map/conv2d_transpose_4/conv2d_transpose", "StatefulPartitionedCall/DBNet/probability_map/batch_normalization_29/FusedBatchNormV3/Scaled"], "attr": {"T": {"type": "DT_FLOAT"}}}, {"name": "StatefulPartitionedCall/DBNet/threshold_map/batch_normalization_31/FusedBatchNormV3", "op": "Add", "input": ["StatefulPartitionedCall/DBNet/threshold_map/batch_normalization_31/FusedBatchNormV3/Mul", "StatefulPartitionedCall/DBNet/threshold_map/batch_normalization_31/FusedBatchNormV3/Offset"], "attr": {"T": {"type": "DT_FLOAT"}}}, {"name": "StatefulPartitionedCall/DBNet/probability_map/batch_normalization_29/FusedBatchNormV3", "op": "Add", "input": ["StatefulPartitionedCall/DBNet/probability_map/batch_normalization_29/FusedBatchNormV3/Mul", "StatefulPartitionedCall/DBNet/probability_map/batch_normalization_29/FusedBatchNormV3/Offset"], "attr": {"T": {"type": "DT_FLOAT"}}}, {"name": "StatefulPartitionedCall/DBNet/threshold_map/re_lu_31/Relu", "op": "Relu", "input": ["StatefulPartitionedCall/DBNet/threshold_map/batch_normalization_31/FusedBatchNormV3"], "attr": {"T": {"type": "DT_FLOAT"}}}, {"name": "StatefulPartitionedCall/DBNet/probability_map/re_lu_29/Relu", "op": "Relu", "input": ["StatefulPartitionedCall/DBNet/probability_map/batch_normalization_29/FusedBatchNormV3"], "attr": {"T": {"type": "DT_FLOAT"}}}, {"name": "StatefulPartitionedCall/DBNet/threshold_map/conv2d_transpose_7/Shape", "op": "Shape", "input": ["StatefulPartitionedCall/DBNet/threshold_map/re_lu_31/Relu"], "attr": {"T": {"type": "DT_FLOAT"}, "out_type": {"type": "DT_INT32"}}}, {"name": "StatefulPartitionedCall/DBNet/probability_map/conv2d_transpose_5/Shape", "op": "Shape", "input": ["StatefulPartitionedCall/DBNet/probability_map/re_lu_29/Relu"], "attr": {"T": {"type": "DT_FLOAT"}, "out_type": {"type": "DT_INT32"}}}, {"name": "StatefulPartitionedCall/DBNet/threshold_map/conv2d_transpose_7/strided_slice", "op": "StridedSlice", "input": ["StatefulPartitionedCall/DBNet/threshold_map/conv2d_transpose_7/Shape", "StatefulPartitionedCall/DBNet/threshold_map/conv2d_transpose_7/strided_slice/stack", "StatefulPartitionedCall/DBNet/threshold_map/conv2d_transpose_7/strided_slice/stack_1", "StatefulPartitionedCall/DBNet/threshold_map/conv2d_transpose_7/strided_slice/stack_2"], "attr": {"Index": {"type": "DT_INT32"}, "shrink_axis_mask": {"i": "1"}, "begin_mask": {"i": "0"}, "end_mask": {"i": "0"}, "new_axis_mask": {"i": "0"}, "T": {"type": "DT_INT32"}, "ellipsis_mask": {"i": "0"}}}, {"name": "StatefulPartitionedCall/DBNet/threshold_map/conv2d_transpose_7/strided_slice_1", "op": "StridedSlice", "input": ["StatefulPartitionedCall/DBNet/threshold_map/conv2d_transpose_7/Shape", "StatefulPartitionedCall/DBNet/threshold_map/conv2d_transpose_7/strided_slice_1/stack", "StatefulPartitionedCall/DBNet/threshold_map/conv2d_transpose_7/strided_slice_1/stack_1", "StatefulPartitionedCall/DBNet/threshold_map/conv2d_transpose_7/strided_slice_1/stack_2"], "attr": {"end_mask": {"i": "0"}, "Index": {"type": "DT_INT32"}, "shrink_axis_mask": {"i": "1"}, "begin_mask": {"i": "0"}, "ellipsis_mask": {"i": "0"}, "new_axis_mask": {"i": "0"}, "T": {"type": "DT_INT32"}}}, {"name": "StatefulPartitionedCall/DBNet/threshold_map/conv2d_transpose_7/strided_slice_2", "op": "StridedSlice", "input": ["StatefulPartitionedCall/DBNet/threshold_map/conv2d_transpose_7/Shape", "StatefulPartitionedCall/DBNet/threshold_map/conv2d_transpose_7/strided_slice_2/stack", "StatefulPartitionedCall/DBNet/threshold_map/conv2d_transpose_7/strided_slice_2/stack_1", "StatefulPartitionedCall/DBNet/threshold_map/conv2d_transpose_7/strided_slice_2/stack_2"], "attr": {"shrink_axis_mask": {"i": "1"}, "ellipsis_mask": {"i": "0"}, "Index": {"type": "DT_INT32"}, "new_axis_mask": {"i": "0"}, "begin_mask": {"i": "0"}, "T": {"type": "DT_INT32"}, "end_mask": {"i": "0"}}}, {"name": "StatefulPartitionedCall/DBNet/probability_map/conv2d_transpose_5/strided_slice", "op": "StridedSlice", "input": ["StatefulPartitionedCall/DBNet/probability_map/conv2d_transpose_5/Shape", "StatefulPartitionedCall/DBNet/probability_map/conv2d_transpose_5/strided_slice/stack", "StatefulPartitionedCall/DBNet/probability_map/conv2d_transpose_5/strided_slice/stack_1", "StatefulPartitionedCall/DBNet/probability_map/conv2d_transpose_5/strided_slice/stack_2"], "attr": {"Index": {"type": "DT_INT32"}, "ellipsis_mask": {"i": "0"}, "new_axis_mask": {"i": "0"}, "begin_mask": {"i": "0"}, "end_mask": {"i": "0"}, "shrink_axis_mask": {"i": "1"}, "T": {"type": "DT_INT32"}}}, {"name": "StatefulPartitionedCall/DBNet/probability_map/conv2d_transpose_5/strided_slice_1", "op": "StridedSlice", "input": ["StatefulPartitionedCall/DBNet/probability_map/conv2d_transpose_5/Shape", "StatefulPartitionedCall/DBNet/probability_map/conv2d_transpose_5/strided_slice_1/stack", "StatefulPartitionedCall/DBNet/probability_map/conv2d_transpose_5/strided_slice_1/stack_1", "StatefulPartitionedCall/DBNet/probability_map/conv2d_transpose_5/strided_slice_1/stack_2"], "attr": {"new_axis_mask": {"i": "0"}, "ellipsis_mask": {"i": "0"}, "Index": {"type": "DT_INT32"}, "end_mask": {"i": "0"}, "shrink_axis_mask": {"i": "1"}, "T": {"type": "DT_INT32"}, "begin_mask": {"i": "0"}}}, {"name": "StatefulPartitionedCall/DBNet/probability_map/conv2d_transpose_5/strided_slice_2", "op": "StridedSlice", "input": ["StatefulPartitionedCall/DBNet/probability_map/conv2d_transpose_5/Shape", "StatefulPartitionedCall/DBNet/probability_map/conv2d_transpose_5/strided_slice_2/stack", "StatefulPartitionedCall/DBNet/probability_map/conv2d_transpose_5/strided_slice_2/stack_1", "StatefulPartitionedCall/DBNet/probability_map/conv2d_transpose_5/strided_slice_2/stack_2"], "attr": {"ellipsis_mask": {"i": "0"}, "T": {"type": "DT_INT32"}, "end_mask": {"i": "0"}, "begin_mask": {"i": "0"}, "shrink_axis_mask": {"i": "1"}, "Index": {"type": "DT_INT32"}, "new_axis_mask": {"i": "0"}}}, {"name": "StatefulPartitionedCall/DBNet/threshold_map/conv2d_transpose_7/mul", "op": "Mul", "input": ["StatefulPartitionedCall/DBNet/threshold_map/conv2d_transpose_7/strided_slice_1", "StatefulPartitionedCall/DBNet/threshold_map/conv2d_transpose_7/mul/y"], "attr": {"T": {"type": "DT_INT32"}}}, {"name": "StatefulPartitionedCall/DBNet/threshold_map/conv2d_transpose_7/mul_1", "op": "Mul", "input": ["StatefulPartitionedCall/DBNet/threshold_map/conv2d_transpose_7/strided_slice_2", "StatefulPartitionedCall/DBNet/threshold_map/conv2d_transpose_7/mul_1/y"], "attr": {"T": {"type": "DT_INT32"}}}, {"name": "StatefulPartitionedCall/DBNet/probability_map/conv2d_transpose_5/mul", "op": "Mul", "input": ["StatefulPartitionedCall/DBNet/probability_map/conv2d_transpose_5/strided_slice_1", "StatefulPartitionedCall/DBNet/probability_map/conv2d_transpose_5/mul/y"], "attr": {"T": {"type": "DT_INT32"}}}, {"name": "StatefulPartitionedCall/DBNet/probability_map/conv2d_transpose_5/mul_1", "op": "Mul", "input": ["StatefulPartitionedCall/DBNet/probability_map/conv2d_transpose_5/strided_slice_2", "StatefulPartitionedCall/DBNet/probability_map/conv2d_transpose_5/mul_1/y"], "attr": {"T": {"type": "DT_INT32"}}}, {"name": "StatefulPartitionedCall/DBNet/threshold_map/conv2d_transpose_7/stack", "op": "Pack", "input": ["StatefulPartitionedCall/DBNet/threshold_map/conv2d_transpose_7/strided_slice", "StatefulPartitionedCall/DBNet/threshold_map/conv2d_transpose_7/mul", "StatefulPartitionedCall/DBNet/threshold_map/conv2d_transpose_7/mul_1", "StatefulPartitionedCall/DBNet/threshold_map/conv2d_transpose_7/stack/3"], "attr": {"N": {"i": "4"}, "T": {"type": "DT_INT32"}, "axis": {"i": "0"}}}, {"name": "StatefulPartitionedCall/DBNet/probability_map/conv2d_transpose_5/stack", "op": "Pack", "input": ["StatefulPartitionedCall/DBNet/probability_map/conv2d_transpose_5/strided_slice", "StatefulPartitionedCall/DBNet/probability_map/conv2d_transpose_5/mul", "StatefulPartitionedCall/DBNet/probability_map/conv2d_transpose_5/mul_1", "StatefulPartitionedCall/DBNet/probability_map/conv2d_transpose_5/stack/3"], "attr": {"N": {"i": "4"}, "T": {"type": "DT_INT32"}, "axis": {"i": "0"}}}, {"name": "StatefulPartitionedCall/DBNet/threshold_map/conv2d_transpose_7/conv2d_transpose", "op": "Conv2DBackpropInput", "input": ["StatefulPartitionedCall/DBNet/threshold_map/conv2d_transpose_7/stack", "StatefulPartitionedCall/DBNet/threshold_map/conv2d_transpose_7/conv2d_transpose/ReadVariableOp", "StatefulPartitionedCall/DBNet/threshold_map/re_lu_31/Relu"], "attr": {"dilations": {"list": {"i": ["1", "1", "1", "1"]}}, "strides": {"list": {"i": ["1", "2", "2", "1"]}}, "data_format": {"s": "TkhXQw=="}, "T": {"type": "DT_FLOAT"}, "explicit_paddings": {"list": {}}, "use_cudnn_on_gpu": {"b": true}, "padding": {"s": "VkFMSUQ="}}}, {"name": "StatefulPartitionedCall/DBNet/probability_map/conv2d_transpose_5/conv2d_transpose", "op": "Conv2DBackpropInput", "input": ["StatefulPartitionedCall/DBNet/probability_map/conv2d_transpose_5/stack", "StatefulPartitionedCall/DBNet/probability_map/conv2d_transpose_5/conv2d_transpose/ReadVariableOp", "StatefulPartitionedCall/DBNet/probability_map/re_lu_29/Relu"], "attr": {"data_format": {"s": "TkhXQw=="}, "strides": {"list": {"i": ["1", "2", "2", "1"]}}, "explicit_paddings": {"list": {}}, "T": {"type": "DT_FLOAT"}, "dilations": {"list": {"i": ["1", "1", "1", "1"]}}, "use_cudnn_on_gpu": {"b": true}, "padding": {"s": "VkFMSUQ="}}}, {"name": "StatefulPartitionedCall/DBNet/threshold_map/conv2d_transpose_7/BiasAdd", "op": "BiasAdd", "input": ["StatefulPartitionedCall/DBNet/threshold_map/conv2d_transpose_7/conv2d_transpose", "StatefulPartitionedCall/DBNet/threshold_map/conv2d_transpose_7/BiasAdd/ReadVariableOp"], "attr": {"data_format": {"s": "TkhXQw=="}, "T": {"type": "DT_FLOAT"}}}, {"name": "StatefulPartitionedCall/DBNet/probability_map/conv2d_transpose_5/BiasAdd", "op": "BiasAdd", "input": ["StatefulPartitionedCall/DBNet/probability_map/conv2d_transpose_5/conv2d_transpose", "StatefulPartitionedCall/DBNet/probability_map/conv2d_transpose_5/BiasAdd/ReadVariableOp"], "attr": {"T": {"type": "DT_FLOAT"}, "data_format": {"s": "TkhXQw=="}}}, {"name": "StatefulPartitionedCall/DBNet/threshold_map/conv2d_transpose_7/Sigmoid", "op": "Sigmoid", "input": ["StatefulPartitionedCall/DBNet/threshold_map/conv2d_transpose_7/BiasAdd"], "attr": {"T": {"type": "DT_FLOAT"}}}, {"name": "StatefulPartitionedCall/DBNet/probability_map/conv2d_transpose_5/Sigmoid", "op": "Sigmoid", "input": ["StatefulPartitionedCall/DBNet/probability_map/conv2d_transpose_5/BiasAdd"], "attr": {"T": {"type": "DT_FLOAT"}}}, {"name": "StatefulPartitionedCall/DBNet/threshold_map/Squeeze", "op": "Squeeze", "input": ["StatefulPartitionedCall/DBNet/threshold_map/conv2d_transpose_7/Sigmoid"], "attr": {"squeeze_dims": {"list": {"i": ["-1"]}}, "T": {"type": "DT_FLOAT"}}}, {"name": "StatefulPartitionedCall/DBNet/probability_map/Squeeze", "op": "Squeeze", "input": ["StatefulPartitionedCall/DBNet/probability_map/conv2d_transpose_5/Sigmoid"], "attr": {"T": {"type": "DT_FLOAT"}, "squeeze_dims": {"list": {"i": ["-1"]}}}}, {"name": "Identity_2", "op": "Identity", "input": ["StatefulPartitionedCall/DBNet/threshold_map/Squeeze"], "attr": {"T": {"type": "DT_FLOAT"}}}, {"name": "Identity_1", "op": "Identity", "input": ["StatefulPartitionedCall/DBNet/probability_map/Squeeze"], "attr": {"T": {"type": "DT_FLOAT"}}}, {"name": "StatefulPartitionedCall/DBNet/approximate_binary_map/sub", "op": "Sub", "input": ["StatefulPartitionedCall/DBNet/probability_map/Squeeze", "StatefulPartitionedCall/DBNet/threshold_map/Squeeze"], "attr": {"T": {"type": "DT_FLOAT"}}}, {"name": "StatefulPartitionedCall/DBNet/approximate_binary_map/mul", "op": "Mul", "input": ["StatefulPartitionedCall/DBNet/approximate_binary_map/mul/x", "StatefulPartitionedCall/DBNet/approximate_binary_map/sub"], "attr": {"T": {"type": "DT_FLOAT"}}}, {"name": "StatefulPartitionedCall/DBNet/approximate_binary_map/Exp", "op": "Exp", "input": ["StatefulPartitionedCall/DBNet/approximate_binary_map/mul"], "attr": {"T": {"type": "DT_FLOAT"}}}, {"name": "StatefulPartitionedCall/DBNet/approximate_binary_map/add", "op": "AddV2", "input": ["StatefulPartitionedCall/DBNet/approximate_binary_map/add/x", "StatefulPartitionedCall/DBNet/approximate_binary_map/Exp"], "attr": {"T": {"type": "DT_FLOAT"}}}, {"name": "StatefulPartitionedCall/DBNet/approximate_binary_map/truediv", "op": "Reciprocal", "input": ["StatefulPartitionedCall/DBNet/approximate_binary_map/add"], "attr": {"T": {"type": "DT_FLOAT"}}}, {"name": "Identity", "op": "Identity", "input": ["StatefulPartitionedCall/DBNet/approximate_binary_map/truediv"], "attr": {"T": {"type": "DT_FLOAT"}}}], "library": {}, "versions": {"producer": 808}}, "weightsManifest": [{"paths": ["group1-shard1of12.bin", "group1-shard2of12.bin", "group1-shard3of12.bin", "group1-shard4of12.bin", "group1-shard5of12.bin", "group1-shard6of12.bin", "group1-shard7of12.bin", "group1-shard8of12.bin", "group1-shard9of12.bin", "group1-shard10of12.bin", "group1-shard11of12.bin", "group1-shard12of12.bin"], "weights": [{"name": "StatefulPartitionedCall/DBNet/approximate_binary_map/add/x", "shape": [], "dtype": "float32"}, {"name": "StatefulPartitionedCall/DBNet/approximate_binary_map/mul/x", "shape": [], "dtype": "float32"}, {"name": "StatefulPartitionedCall/DBNet/probability_map/conv2d_transpose_5/strided_slice/stack", "shape": [1], "dtype": "int32"}, {"name": "StatefulPartitionedCall/DBNet/probability_map/conv2d_transpose_5/strided_slice/stack_1", "shape": [1], "dtype": "int32"}, {"name": "StatefulPartitionedCall/DBNet/probability_map/conv2d_transpose_5/strided_slice/stack_2", "shape": [1], "dtype": "int32"}, {"name": "StatefulPartitionedCall/DBNet/probability_map/conv2d_transpose_5/strided_slice_1/stack", "shape": [1], "dtype": "int32"}, {"name": "StatefulPartitionedCall/DBNet/probability_map/conv2d_transpose_5/strided_slice_1/stack_1", "shape": [1], "dtype": "int32"}, {"name": "StatefulPartitionedCall/DBNet/probability_map/conv2d_transpose_5/strided_slice_1/stack_2", "shape": [1], "dtype": "int32"}, {"name": "StatefulPartitionedCall/DBNet/probability_map/conv2d_transpose_5/mul/y", "shape": [], "dtype": "int32"}, {"name": "StatefulPartitionedCall/DBNet/probability_map/conv2d_transpose_5/strided_slice_2/stack", "shape": [1], "dtype": "int32"}, {"name": "StatefulPartitionedCall/DBNet/probability_map/conv2d_transpose_5/strided_slice_2/stack_1", "shape": [1], "dtype": "int32"}, {"name": "StatefulPartitionedCall/DBNet/probability_map/conv2d_transpose_5/strided_slice_2/stack_2", "shape": [1], "dtype": "int32"}, {"name": "StatefulPartitionedCall/DBNet/probability_map/conv2d_transpose_5/mul_1/y", "shape": [], "dtype": "int32"}, {"name": "StatefulPartitionedCall/DBNet/probability_map/conv2d_transpose_5/stack/3", "shape": [], "dtype": "int32"}, {"name": "StatefulPartitionedCall/DBNet/probability_map/conv2d_transpose_5/conv2d_transpose/ReadVariableOp", "shape": [2, 2, 1, 64], "dtype": "float32"}, {"name": "StatefulPartitionedCall/DBNet/probability_map/conv2d_transpose_4/strided_slice/stack", "shape": [1], "dtype": "int32"}, {"name": "StatefulPartitionedCall/DBNet/probability_map/conv2d_transpose_4/strided_slice/stack_1", "shape": [1], "dtype": "int32"}, {"name": "StatefulPartitionedCall/DBNet/probability_map/conv2d_transpose_4/strided_slice/stack_2", "shape": [1], "dtype": "int32"}, {"name": "StatefulPartitionedCall/DBNet/probability_map/conv2d_transpose_4/strided_slice_1/stack", "shape": [1], "dtype": "int32"}, {"name": "StatefulPartitionedCall/DBNet/probability_map/conv2d_transpose_4/strided_slice_1/stack_1", "shape": [1], "dtype": "int32"}, {"name": "StatefulPartitionedCall/DBNet/probability_map/conv2d_transpose_4/strided_slice_1/stack_2", "shape": [1], "dtype": "int32"}, {"name": "StatefulPartitionedCall/DBNet/probability_map/conv2d_transpose_4/mul/y", "shape": [], "dtype": "int32"}, {"name": "StatefulPartitionedCall/DBNet/probability_map/conv2d_transpose_4/strided_slice_2/stack", "shape": [1], "dtype": "int32"}, {"name": "StatefulPartitionedCall/DBNet/probability_map/conv2d_transpose_4/strided_slice_2/stack_1", "shape": [1], "dtype": "int32"}, {"name": "StatefulPartitionedCall/DBNet/probability_map/conv2d_transpose_4/strided_slice_2/stack_2", "shape": [1], "dtype": "int32"}, {"name": "StatefulPartitionedCall/DBNet/probability_map/conv2d_transpose_4/mul_1/y", "shape": [], "dtype": "int32"}, {"name": "StatefulPartitionedCall/DBNet/probability_map/conv2d_transpose_4/stack/3", "shape": [], "dtype": "int32"}, {"name": "StatefulPartitionedCall/DBNet/probability_map/conv2d_transpose_4/conv2d_transpose/ReadVariableOp", "shape": [2, 2, 64, 64], "dtype": "float32"}, {"name": "StatefulPartitionedCall/DBNet/probability_map/conv2d_transpose_5/BiasAdd/ReadVariableOp", "shape": [1], "dtype": "float32"}, {"name": "StatefulPartitionedCall/DBNet/threshold_map/conv2d_transpose_7/strided_slice/stack", "shape": [1], "dtype": "int32"}, {"name": "StatefulPartitionedCall/DBNet/threshold_map/conv2d_transpose_7/strided_slice/stack_1", "shape": [1], "dtype": "int32"}, {"name": "StatefulPartitionedCall/DBNet/threshold_map/conv2d_transpose_7/strided_slice/stack_2", "shape": [1], "dtype": "int32"}, {"name": "StatefulPartitionedCall/DBNet/threshold_map/conv2d_transpose_7/strided_slice_1/stack", "shape": [1], "dtype": "int32"}, {"name": "StatefulPartitionedCall/DBNet/threshold_map/conv2d_transpose_7/strided_slice_1/stack_1", "shape": [1], "dtype": "int32"}, {"name": "StatefulPartitionedCall/DBNet/threshold_map/conv2d_transpose_7/strided_slice_1/stack_2", "shape": [1], "dtype": "int32"}, {"name": "StatefulPartitionedCall/DBNet/threshold_map/conv2d_transpose_7/mul/y", "shape": [], "dtype": "int32"}, {"name": "StatefulPartitionedCall/DBNet/threshold_map/conv2d_transpose_7/strided_slice_2/stack", "shape": [1], "dtype": "int32"}, {"name": "StatefulPartitionedCall/DBNet/threshold_map/conv2d_transpose_7/strided_slice_2/stack_1", "shape": [1], "dtype": "int32"}, {"name": "StatefulPartitionedCall/DBNet/threshold_map/conv2d_transpose_7/strided_slice_2/stack_2", "shape": [1], "dtype": "int32"}, {"name": "StatefulPartitionedCall/DBNet/threshold_map/conv2d_transpose_7/mul_1/y", "shape": [], "dtype": "int32"}, {"name": "StatefulPartitionedCall/DBNet/threshold_map/conv2d_transpose_7/stack/3", "shape": [], "dtype": "int32"}, {"name": "StatefulPartitionedCall/DBNet/threshold_map/conv2d_transpose_7/conv2d_transpose/ReadVariableOp", "shape": [2, 2, 1, 64], "dtype": "float32"}, {"name": "StatefulPartitionedCall/DBNet/threshold_map/conv2d_transpose_6/strided_slice/stack", "shape": [1], "dtype": "int32"}, {"name": "StatefulPartitionedCall/DBNet/threshold_map/conv2d_transpose_6/strided_slice/stack_1", "shape": [1], "dtype": "int32"}, {"name": "StatefulPartitionedCall/DBNet/threshold_map/conv2d_transpose_6/strided_slice/stack_2", "shape": [1], "dtype": "int32"}, {"name": "StatefulPartitionedCall/DBNet/threshold_map/conv2d_transpose_6/strided_slice_1/stack", "shape": [1], "dtype": "int32"}, {"name": "StatefulPartitionedCall/DBNet/threshold_map/conv2d_transpose_6/strided_slice_1/stack_1", "shape": [1], "dtype": "int32"}, {"name": "StatefulPartitionedCall/DBNet/threshold_map/conv2d_transpose_6/strided_slice_1/stack_2", "shape": [1], "dtype": "int32"}, {"name": "StatefulPartitionedCall/DBNet/threshold_map/conv2d_transpose_6/mul/y", "shape": [], "dtype": "int32"}, {"name": "StatefulPartitionedCall/DBNet/threshold_map/conv2d_transpose_6/strided_slice_2/stack", "shape": [1], "dtype": "int32"}, {"name": "StatefulPartitionedCall/DBNet/threshold_map/conv2d_transpose_6/strided_slice_2/stack_1", "shape": [1], "dtype": "int32"}, {"name": "StatefulPartitionedCall/DBNet/threshold_map/conv2d_transpose_6/strided_slice_2/stack_2", "shape": [1], "dtype": "int32"}, {"name": "StatefulPartitionedCall/DBNet/threshold_map/conv2d_transpose_6/mul_1/y", "shape": [], "dtype": "int32"}, {"name": "StatefulPartitionedCall/DBNet/threshold_map/conv2d_transpose_6/stack/3", "shape": [], "dtype": "int32"}, {"name": "StatefulPartitionedCall/DBNet/threshold_map/conv2d_transpose_6/conv2d_transpose/ReadVariableOp", "shape": [2, 2, 64, 64], "dtype": "float32"}, {"name": "StatefulPartitionedCall/DBNet/up3/strided_slice/stack", "shape": [1], "dtype": "int32"}, {"name": "StatefulPartitionedCall/DBNet/up3/strided_slice/stack_1", "shape": [1], "dtype": "int32"}, {"name": "StatefulPartitionedCall/DBNet/up3/strided_slice/stack_2", "shape": [1], "dtype": "int32"}, {"name": "StatefulPartitionedCall/DBNet/up3/Const", "shape": [2], "dtype": "int32"}, {"name": "StatefulPartitionedCall/DBNet/up4/strided_slice/stack", "shape": [1], "dtype": "int32"}, {"name": "StatefulPartitionedCall/DBNet/up4/strided_slice/stack_1", "shape": [1], "dtype": "int32"}, {"name": "StatefulPartitionedCall/DBNet/up4/strided_slice/stack_2", "shape": [1], "dtype": "int32"}, {"name": "StatefulPartitionedCall/DBNet/up4/Const", "shape": [2], "dtype": "int32"}, {"name": "StatefulPartitionedCall/DBNet/P3/up_sampling2d_5/strided_slice/stack", "shape": [1], "dtype": "int32"}, {"name": "StatefulPartitionedCall/DBNet/P3/up_sampling2d_5/strided_slice/stack_1", "shape": [1], "dtype": "int32"}, {"name": "StatefulPartitionedCall/DBNet/P3/up_sampling2d_5/strided_slice/stack_2", "shape": [1], "dtype": "int32"}, {"name": "StatefulPartitionedCall/DBNet/P3/up_sampling2d_5/Const", "shape": [2], "dtype": "int32"}, {"name": "StatefulPartitionedCall/DBNet/up5/strided_slice/stack", "shape": [1], "dtype": "int32"}, {"name": "StatefulPartitionedCall/DBNet/up5/strided_slice/stack_1", "shape": [1], "dtype": "int32"}, {"name": "StatefulPartitionedCall/DBNet/up5/strided_slice/stack_2", "shape": [1], "dtype": "int32"}, {"name": "StatefulPartitionedCall/DBNet/up5/Const", "shape": [2], "dtype": "int32"}, {"name": "StatefulPartitionedCall/DBNet/P4/up_sampling2d_4/strided_slice/stack", "shape": [1], "dtype": "int32"}, {"name": "StatefulPartitionedCall/DBNet/P4/up_sampling2d_4/strided_slice/stack_1", "shape": [1], "dtype": "int32"}, {"name": "StatefulPartitionedCall/DBNet/P4/up_sampling2d_4/strided_slice/stack_2", "shape": [1], "dtype": "int32"}, {"name": "StatefulPartitionedCall/DBNet/P4/up_sampling2d_4/Const", "shape": [2], "dtype": "int32"}, {"name": "StatefulPartitionedCall/DBNet/padding5b1_branch2a/Pad/paddings", "shape": [4, 2], "dtype": "int32"}, {"name": "StatefulPartitionedCall/DBNet/padding5b1_branch2b/Pad/paddings", "shape": [4, 2], "dtype": "int32"}, {"name": "StatefulPartitionedCall/DBNet/padding5a_branch2a/Pad/paddings", "shape": [4, 2], "dtype": "int32"}, {"name": "StatefulPartitionedCall/DBNet/padding5a_branch2b/Pad/paddings", "shape": [4, 2], "dtype": "int32"}, {"name": "StatefulPartitionedCall/DBNet/padding4b1_branch2a/Pad/paddings", "shape": [4, 2], "dtype": "int32"}, {"name": "StatefulPartitionedCall/DBNet/padding4b1_branch2b/Pad/paddings", "shape": [4, 2], "dtype": "int32"}, {"name": "StatefulPartitionedCall/DBNet/padding4a_branch2a/Pad/paddings", "shape": [4, 2], "dtype": "int32"}, {"name": "StatefulPartitionedCall/DBNet/padding4a_branch2b/Pad/paddings", "shape": [4, 2], "dtype": "int32"}, {"name": "StatefulPartitionedCall/DBNet/padding3b1_branch2a/Pad/paddings", "shape": [4, 2], "dtype": "int32"}, {"name": "StatefulPartitionedCall/DBNet/padding3b1_branch2b/Pad/paddings", "shape": [4, 2], "dtype": "int32"}, {"name": "StatefulPartitionedCall/DBNet/padding3a_branch2a/Pad/paddings", "shape": [4, 2], "dtype": "int32"}, {"name": "StatefulPartitionedCall/DBNet/padding3a_branch2b/Pad/paddings", "shape": [4, 2], "dtype": "int32"}, {"name": "StatefulPartitionedCall/DBNet/padding2b1_branch2a/Pad/paddings", "shape": [4, 2], "dtype": "int32"}, {"name": "StatefulPartitionedCall/DBNet/padding2b1_branch2b/Pad/paddings", "shape": [4, 2], "dtype": "int32"}, {"name": "StatefulPartitionedCall/DBNet/padding2a_branch2a/Pad/paddings", "shape": [4, 2], "dtype": "int32"}, {"name": "StatefulPartitionedCall/DBNet/padding2a_branch2b/Pad/paddings", "shape": [4, 2], "dtype": "int32"}, {"name": "StatefulPartitionedCall/DBNet/P5/up_sampling2d_3/strided_slice/stack", "shape": [1], "dtype": "int32"}, {"name": "StatefulPartitionedCall/DBNet/P5/up_sampling2d_3/strided_slice/stack_1", "shape": [1], "dtype": "int32"}, {"name": "StatefulPartitionedCall/DBNet/P5/up_sampling2d_3/strided_slice/stack_2", "shape": [1], "dtype": "int32"}, {"name": "StatefulPartitionedCall/DBNet/P5/up_sampling2d_3/Const", "shape": [2], "dtype": "int32"}, {"name": "StatefulPartitionedCall/DBNet/fuse/concat/axis", "shape": [], "dtype": "int32"}, {"name": "StatefulPartitionedCall/DBNet/threshold_map/conv2d_transpose_7/BiasAdd/ReadVariableOp", "shape": [1], "dtype": "float32"}, {"name": "StatefulPartitionedCall/DBNet/conv1/Conv2D_weights", "shape": [7, 7, 3, 64], "dtype": "float32"}, {"name": "StatefulPartitionedCall/DBNet/conv1/Conv2D_bn_offset", "shape": [64], "dtype": "float32"}, {"name": "StatefulPartitionedCall/DBNet/res2a_branch1/Conv2D_weights", "shape": [1, 1, 64, 64], "dtype": "float32"}, {"name": "StatefulPartitionedCall/DBNet/res2a_branch1/Conv2D_bn_offset", "shape": [64], "dtype": "float32"}, {"name": "StatefulPartitionedCall/DBNet/res2a_branch2a/Conv2D_weights", "shape": [3, 3, 64, 64], "dtype": "float32"}, {"name": "StatefulPartitionedCall/DBNet/threshold_map/ConvBnRelu/conv2d_27/Conv2D_weights", "shape": [3, 3, 256, 64], "dtype": "float32"}, {"name": "StatefulPartitionedCall/DBNet/res2a_branch2a/Conv2D_bn_offset", "shape": [64], "dtype": "float32"}, {"name": "StatefulPartitionedCall/DBNet/res2a_branch2b/Conv2D_weights", "shape": [3, 3, 64, 64], "dtype": "float32"}, {"name": "StatefulPartitionedCall/DBNet/threshold_map/ConvBnRelu/conv2d_27/Conv2D_bn_offset", "shape": [64], "dtype": "float32"}, {"name": "StatefulPartitionedCall/DBNet/res2a_branch2b/Conv2D_bn_offset", "shape": [64], "dtype": "float32"}, {"name": "StatefulPartitionedCall/DBNet/res2b1_branch2a/Conv2D_weights", "shape": [3, 3, 64, 64], "dtype": "float32"}, {"name": "StatefulPartitionedCall/DBNet/probability_map/batch_normalization_29/FusedBatchNormV3/Offset", "shape": [64], "dtype": "float32"}, {"name": "StatefulPartitionedCall/DBNet/res2b1_branch2a/Conv2D_bn_offset", "shape": [64], "dtype": "float32"}, {"name": "StatefulPartitionedCall/DBNet/res2b1_branch2b/Conv2D_weights", "shape": [3, 3, 64, 64], "dtype": "float32"}, {"name": "StatefulPartitionedCall/DBNet/res2b1_branch2b/Conv2D_bn_offset", "shape": [64], "dtype": "float32"}, {"name": "StatefulPartitionedCall/DBNet/res3a_branch1/Conv2D_weights", "shape": [1, 1, 64, 128], "dtype": "float32"}, {"name": "StatefulPartitionedCall/DBNet/res3a_branch1/Conv2D_bn_offset", "shape": [128], "dtype": "float32"}, {"name": "StatefulPartitionedCall/DBNet/in2/conv2d_18/Conv2D_weights", "shape": [1, 1, 64, 256], "dtype": "float32"}, {"name": "StatefulPartitionedCall/DBNet/in2/conv2d_18/Conv2D_bn_offset", "shape": [256], "dtype": "float32"}, {"name": "StatefulPartitionedCall/DBNet/res3a_branch2a/Conv2D_weights", "shape": [3, 3, 64, 128], "dtype": "float32"}, {"name": "StatefulPartitionedCall/DBNet/res3a_branch2a/Conv2D_bn_offset", "shape": [128], "dtype": "float32"}, {"name": "StatefulPartitionedCall/DBNet/res3a_branch2b/Conv2D_weights", "shape": [3, 3, 128, 128], "dtype": "float32"}, {"name": "StatefulPartitionedCall/DBNet/res3a_branch2b/Conv2D_bn_offset", "shape": [128], "dtype": "float32"}, {"name": "StatefulPartitionedCall/DBNet/res3b1_branch2a/Conv2D_weights", "shape": [3, 3, 128, 128], "dtype": "float32"}, {"name": "StatefulPartitionedCall/DBNet/res3b1_branch2a/Conv2D_bn_offset", "shape": [128], "dtype": "float32"}, {"name": "StatefulPartitionedCall/DBNet/res3b1_branch2b/Conv2D_weights", "shape": [3, 3, 128, 128], "dtype": "float32"}, {"name": "StatefulPartitionedCall/DBNet/res3b1_branch2b/Conv2D_bn_offset", "shape": [128], "dtype": "float32"}, {"name": "StatefulPartitionedCall/DBNet/res4a_branch1/Conv2D_weights", "shape": [1, 1, 128, 256], "dtype": "float32"}, {"name": "StatefulPartitionedCall/DBNet/res4a_branch1/Conv2D_bn_offset", "shape": [256], "dtype": "float32"}, {"name": "StatefulPartitionedCall/DBNet/in3/conv2d_19/Conv2D_weights", "shape": [1, 1, 128, 256], "dtype": "float32"}, {"name": "StatefulPartitionedCall/DBNet/in3/conv2d_19/Conv2D_bn_offset", "shape": [256], "dtype": "float32"}, {"name": "StatefulPartitionedCall/DBNet/res4a_branch2a/Conv2D_weights", "shape": [3, 3, 128, 256], "dtype": "float32"}, {"name": "StatefulPartitionedCall/DBNet/res4a_branch2a/Conv2D_bn_offset", "shape": [256], "dtype": "float32"}, {"name": "StatefulPartitionedCall/DBNet/res4a_branch2b/Conv2D_weights", "shape": [3, 3, 256, 256], "dtype": "float32"}, {"name": "StatefulPartitionedCall/DBNet/res4a_branch2b/Conv2D_bn_offset", "shape": [256], "dtype": "float32"}, {"name": "StatefulPartitionedCall/DBNet/res4b1_branch2a/Conv2D_weights", "shape": [3, 3, 256, 256], "dtype": "float32"}, {"name": "StatefulPartitionedCall/DBNet/res4b1_branch2a/Conv2D_bn_offset", "shape": [256], "dtype": "float32"}, {"name": "StatefulPartitionedCall/DBNet/res4b1_branch2b/Conv2D_weights", "shape": [3, 3, 256, 256], "dtype": "float32"}, {"name": "StatefulPartitionedCall/DBNet/res4b1_branch2b/Conv2D_bn_offset", "shape": [256], "dtype": "float32"}, {"name": "StatefulPartitionedCall/DBNet/res5a_branch1/Conv2D_weights", "shape": [1, 1, 256, 512], "dtype": "float32"}, {"name": "StatefulPartitionedCall/DBNet/res5a_branch1/Conv2D_bn_offset", "shape": [512], "dtype": "float32"}, {"name": "StatefulPartitionedCall/DBNet/in4/conv2d_20/Conv2D_weights", "shape": [1, 1, 256, 256], "dtype": "float32"}, {"name": "StatefulPartitionedCall/DBNet/in4/conv2d_20/Conv2D_bn_offset", "shape": [256], "dtype": "float32"}, {"name": "StatefulPartitionedCall/DBNet/res5a_branch2a/Conv2D_weights", "shape": [3, 3, 256, 512], "dtype": "float32"}, {"name": "StatefulPartitionedCall/DBNet/res5a_branch2a/Conv2D_bn_offset", "shape": [512], "dtype": "float32"}, {"name": "StatefulPartitionedCall/DBNet/res5a_branch2b/Conv2D_weights", "shape": [3, 3, 512, 512], "dtype": "float32"}, {"name": "StatefulPartitionedCall/DBNet/res5a_branch2b/Conv2D_bn_offset", "shape": [512], "dtype": "float32"}, {"name": "StatefulPartitionedCall/DBNet/res5b1_branch2a/Conv2D_weights", "shape": [3, 3, 512, 512], "dtype": "float32"}, {"name": "StatefulPartitionedCall/DBNet/res5b1_branch2a/Conv2D_bn_offset", "shape": [512], "dtype": "float32"}, {"name": "StatefulPartitionedCall/DBNet/res5b1_branch2b/Conv2D_weights", "shape": [3, 3, 512, 512], "dtype": "float32"}, {"name": "StatefulPartitionedCall/DBNet/res5b1_branch2b/Conv2D_bn_offset", "shape": [512], "dtype": "float32"}, {"name": "StatefulPartitionedCall/DBNet/in5/conv2d_21/Conv2D_weights", "shape": [1, 1, 512, 256], "dtype": "float32"}, {"name": "StatefulPartitionedCall/DBNet/in5/conv2d_21/Conv2D_bn_offset", "shape": [256], "dtype": "float32"}, {"name": "StatefulPartitionedCall/DBNet/P5/ConvBnRelu/conv2d_22/Conv2D_weights", "shape": [3, 3, 256, 64], "dtype": "float32"}, {"name": "StatefulPartitionedCall/DBNet/P5/ConvBnRelu/conv2d_22/Conv2D_bn_offset", "shape": [64], "dtype": "float32"}, {"name": "StatefulPartitionedCall/DBNet/threshold_map/batch_normalization_31/FusedBatchNormV3/Scaled", "shape": [64], "dtype": "float32"}, {"name": "StatefulPartitionedCall/DBNet/P4/ConvBnRelu/conv2d_23/Conv2D_weights", "shape": [3, 3, 256, 64], "dtype": "float32"}, {"name": "StatefulPartitionedCall/DBNet/P4/ConvBnRelu/conv2d_23/Conv2D_bn_offset", "shape": [64], "dtype": "float32"}, {"name": "StatefulPartitionedCall/DBNet/P3/ConvBnRelu/conv2d_24/Conv2D_weights", "shape": [3, 3, 256, 64], "dtype": "float32"}, {"name": "StatefulPartitionedCall/DBNet/threshold_map/batch_normalization_31/FusedBatchNormV3/Offset", "shape": [64], "dtype": "float32"}, {"name": "StatefulPartitionedCall/DBNet/P3/ConvBnRelu/conv2d_24/Conv2D_bn_offset", "shape": [64], "dtype": "float32"}, {"name": "StatefulPartitionedCall/DBNet/P2/conv2d_25/Conv2D_weights", "shape": [3, 3, 256, 64], "dtype": "float32"}, {"name": "StatefulPartitionedCall/DBNet/P2/conv2d_25/Conv2D_bn_offset", "shape": [64], "dtype": "float32"}, {"name": "StatefulPartitionedCall/DBNet/probability_map/ConvBnRelu/conv2d_26/Conv2D_weights", "shape": [3, 3, 256, 64], "dtype": "float32"}, {"name": "StatefulPartitionedCall/DBNet/probability_map/batch_normalization_29/FusedBatchNormV3/Scaled", "shape": [64], "dtype": "float32"}, {"name": "StatefulPartitionedCall/DBNet/probability_map/ConvBnRelu/conv2d_26/Conv2D_bn_offset", "shape": [64], "dtype": "float32"}]}]}